…
INFO: Trainable parameter count: 13.16M
INFO: Trainable parameter count: 13.16M
INFO: Trainable parameter count: 13.16M
INFO: Trainable parameter count: 13.16M
INFO: Trainable parameter count: 13.16M
INFO: Trainable parameter count: 13.16M
INFO: Trainable parameter count: 13.16M
INFO: Trainable parameter count: 13.60M
INFO: Trainable parameter count: 13.61M
Model(
  13.6 M, 99.932% Params, 2.87 GMac, 100.000% MACs, 
  (enc_embedding): DataEmbedding(
    1.33 M, 9.747% Params, 127.3 MMac, 4.434% MACs, 
    (value_embedding): TokenEmbedding(
      1.32 M, 9.732% Params, 127.11 MMac, 4.427% MACs, 
      (tokenConv): Conv1d(1.32 M, 9.732% Params, 127.11 MMac, 4.427% MACs, 862, 512, kernel_size=(3,), stride=(1,), padding=(1,), bias=False, padding_mode=circular)
    )
    (position_embedding): PositionalEmbedding(0, 0.000% Params, 0.0 Mac, 0.000% MACs, )
    (temporal_embedding): TimeFeatureEmbedding(
      2.05 k, 0.015% Params, 196.61 KMac, 0.007% MACs, 
      (embed): Linear(2.05 k, 0.015% Params, 196.61 KMac, 0.007% MACs, in_features=4, out_features=512, bias=False)
    )
    (dropout): Dropout(0, 0.000% Params, 0.0 Mac, 0.000% MACs, p=0.05, inplace=False)
  )
  (dec_embedding): DataEmbedding(
    1.33 M, 9.747% Params, 509.21 MMac, 17.736% MACs, 
    (value_embedding): TokenEmbedding(
      1.32 M, 9.732% Params, 508.43 MMac, 17.709% MACs, 
      (tokenConv): Conv1d(1.32 M, 9.732% Params, 508.43 MMac, 17.709% MACs, 862, 512, kernel_size=(3,), stride=(1,), padding=(1,), bias=False, padding_mode=circular)
    )
    (position_embedding): PositionalEmbedding(0, 0.000% Params, 0.0 Mac, 0.000% MACs, )
    (temporal_embedding): TimeFeatureEmbedding(
      2.05 k, 0.015% Params, 786.43 KMac, 0.027% MACs, 
      (embed): Linear(2.05 k, 0.015% Params, 786.43 KMac, 0.027% MACs, in_features=4, out_features=512, bias=False)
    )
    (dropout): Dropout(0, 0.000% Params, 0.0 Mac, 0.000% MACs, p=0.05, inplace=False)
  )
  (encoder): Encoder(
    6.3 M, 46.311% Params, 604.48 MMac, 21.054% MACs, 
    (attn_layers): ModuleList(
      6.3 M, 46.311% Params, 604.48 MMac, 21.054% MACs, 
      (0): EncoderLayer(
        3.15 M, 23.155% Params, 302.24 MMac, 10.527% MACs, 
        (attention): AttentionLayer(
          1.05 M, 7.722% Params, 100.67 MMac, 3.506% MACs, 
          (inner_attention): FullAttention(
            0, 0.000% Params, 0.0 Mac, 0.000% MACs, 
            (dropout): Dropout(0, 0.000% Params, 0.0 Mac, 0.000% MACs, p=0.05, inplace=False)
          )
          (query_projection): Linear(262.66 k, 1.931% Params, 25.17 MMac, 0.877% MACs, in_features=512, out_features=512, bias=True)
          (key_projection): Linear(262.66 k, 1.931% Params, 25.17 MMac, 0.877% MACs, in_features=512, out_features=512, bias=True)
          (value_projection): Linear(262.66 k, 1.931% Params, 25.17 MMac, 0.877% MACs, in_features=512, out_features=512, bias=True)
          (out_projection): Linear(262.66 k, 1.931% Params, 25.17 MMac, 0.877% MACs, in_features=512, out_features=512, bias=True)
        )
        (conv1): Conv1d(1.05 M, 7.722% Params, 100.86 MMac, 3.513% MACs, 512, 2048, kernel_size=(1,), stride=(1,))
        (conv2): Conv1d(1.05 M, 7.711% Params, 100.71 MMac, 3.508% MACs, 2048, 512, kernel_size=(1,), stride=(1,))
        (norm1): LayerNorm(0, 0.000% Params, 0.0 Mac, 0.000% MACs, (512,), eps=1e-05, elementwise_affine=True)
        (norm2): LayerNorm(0, 0.000% Params, 0.0 Mac, 0.000% MACs, (512,), eps=1e-05, elementwise_affine=True)
        (dropout): Dropout(0, 0.000% Params, 0.0 Mac, 0.000% MACs, p=0.05, inplace=False)
      )
      (1): EncoderLayer(
        3.15 M, 23.155% Params, 302.24 MMac, 10.527% MACs, 
        (attention): AttentionLayer(
          1.05 M, 7.722% Params, 100.67 MMac, 3.506% MACs, 
          (inner_attention): FullAttention(
            0, 0.000% Params, 0.0 Mac, 0.000% MACs, 
            (dropout): Dropout(0, 0.000% Params, 0.0 Mac, 0.000% MACs, p=0.05, inplace=False)
          )
          (query_projection): Linear(262.66 k, 1.931% Params, 25.17 MMac, 0.877% MACs, in_features=512, out_features=512, bias=True)
          (key_projection): Linear(262.66 k, 1.931% Params, 25.17 MMac, 0.877% MACs, in_features=512, out_features=512, bias=True)
          (value_projection): Linear(262.66 k, 1.931% Params, 25.17 MMac, 0.877% MACs, in_features=512, out_features=512, bias=True)
          (out_projection): Linear(262.66 k, 1.931% Params, 25.17 MMac, 0.877% MACs, in_features=512, out_features=512, bias=True)
        )
        (conv1): Conv1d(1.05 M, 7.722% Params, 100.86 MMac, 3.513% MACs, 512, 2048, kernel_size=(1,), stride=(1,))
        (conv2): Conv1d(1.05 M, 7.711% Params, 100.71 MMac, 3.508% MACs, 2048, 512, kernel_size=(1,), stride=(1,))
        (norm1): LayerNorm(0, 0.000% Params, 0.0 Mac, 0.000% MACs, (512,), eps=1e-05, elementwise_affine=True)
        (norm2): LayerNorm(0, 0.000% Params, 0.0 Mac, 0.000% MACs, (512,), eps=1e-05, elementwise_affine=True)
        (dropout): Dropout(0, 0.000% Params, 0.0 Mac, 0.000% MACs, p=0.05, inplace=False)
      )
    )
    (norm): LayerNorm(0, 0.000% Params, 0.0 Mac, 0.000% MACs, (512,), eps=1e-05, elementwise_affine=True)
  )
  (decoder): Decoder(
    4.64 M, 34.128% Params, 1.63 GMac, 56.776% MACs, 
    (layers): ModuleList(
      4.2 M, 30.878% Params, 1.46 GMac, 50.873% MACs, 
      (0): DecoderLayer(
        4.2 M, 30.878% Params, 1.46 GMac, 50.873% MACs, 
        (self_attention): AttentionLayer(
          1.05 M, 7.722% Params, 402.66 MMac, 14.025% MACs, 
          (inner_attention): FullAttention(
            0, 0.000% Params, 0.0 Mac, 0.000% MACs, 
            (dropout): Dropout(0, 0.000% Params, 0.0 Mac, 0.000% MACs, p=0.05, inplace=False)
          )
          (query_projection): Linear(262.66 k, 1.931% Params, 100.66 MMac, 3.506% MACs, in_features=512, out_features=512, bias=True)
          (key_projection): Linear(262.66 k, 1.931% Params, 100.66 MMac, 3.506% MACs, in_features=512, out_features=512, bias=True)
          (value_projection): Linear(262.66 k, 1.931% Params, 100.66 MMac, 3.506% MACs, in_features=512, out_features=512, bias=True)
          (out_projection): Linear(262.66 k, 1.931% Params, 100.66 MMac, 3.506% MACs, in_features=512, out_features=512, bias=True)
        )
        (cross_attention): AttentionLayer(
          1.05 M, 7.722% Params, 251.66 MMac, 8.765% MACs, 
          (inner_attention): FullAttention(
            0, 0.000% Params, 0.0 Mac, 0.000% MACs, 
            (dropout): Dropout(0, 0.000% Params, 0.0 Mac, 0.000% MACs, p=0.05, inplace=False)
          )
          (query_projection): Linear(262.66 k, 1.931% Params, 100.66 MMac, 3.506% MACs, in_features=512, out_features=512, bias=True)
          (key_projection): Linear(262.66 k, 1.931% Params, 25.17 MMac, 0.877% MACs, in_features=512, out_features=512, bias=True)
          (value_projection): Linear(262.66 k, 1.931% Params, 25.17 MMac, 0.877% MACs, in_features=512, out_features=512, bias=True)
          (out_projection): Linear(262.66 k, 1.931% Params, 100.66 MMac, 3.506% MACs, in_features=512, out_features=512, bias=True)
        )
        (conv1): Conv1d(1.05 M, 7.722% Params, 403.44 MMac, 14.052% MACs, 512, 2048, kernel_size=(1,), stride=(1,))
        (conv2): Conv1d(1.05 M, 7.711% Params, 402.85 MMac, 14.031% MACs, 2048, 512, kernel_size=(1,), stride=(1,))
        (norm1): LayerNorm(0, 0.000% Params, 0.0 Mac, 0.000% MACs, (512,), eps=1e-05, elementwise_affine=True)
        (norm2): LayerNorm(0, 0.000% Params, 0.0 Mac, 0.000% MACs, (512,), eps=1e-05, elementwise_affine=True)
        (norm3): LayerNorm(0, 0.000% Params, 0.0 Mac, 0.000% MACs, (512,), eps=1e-05, elementwise_affine=True)
        (dropout): Dropout(0, 0.000% Params, 0.0 Mac, 0.000% MACs, p=0.05, inplace=False)
      )
    )
    (norm): LayerNorm(0, 0.000% Params, 0.0 Mac, 0.000% MACs, (512,), eps=1e-05, elementwise_affine=True)
    (projection): Linear(442.21 k, 3.250% Params, 169.48 MMac, 5.903% MACs, in_features=512, out_features=862, bias=True)
  )
)
Computational complexity:       2.87 GMac
Number of parameters:           13.61 M 
