…
INFO: Trainable parameter count: 16.23M
INFO: Trainable parameter count: 16.23M
INFO: Trainable parameter count: 16.23M
INFO: Trainable parameter count: 16.23M
INFO: Trainable parameter count: 16.23M
INFO: Trainable parameter count: 16.23M
INFO: Trainable parameter count: 16.23M
INFO: Trainable parameter count: 16.39M
INFO: Trainable parameter count: 16.39M
Model(
  16.38 M, 99.931% Params, 1.34 GMac, 100.000% MACs, 
  (enc_embedding): DataEmbedding(
    495.1 k, 3.020% Params, 47.53 MMac, 3.545% MACs, 
    (value_embedding): TokenEmbedding(
      493.06 k, 3.008% Params, 47.33 MMac, 3.530% MACs, 
      (tokenConv): Conv1d(493.06 k, 3.008% Params, 47.33 MMac, 3.530% MACs, 321, 512, kernel_size=(3,), stride=(1,), padding=(1,), bias=False, padding_mode=circular)
    )
    (position_embedding): PositionalEmbedding(0, 0.000% Params, 0.0 Mac, 0.000% MACs, )
    (temporal_embedding): TimeFeatureEmbedding(
      2.05 k, 0.012% Params, 196.61 KMac, 0.015% MACs, 
      (embed): Linear(2.05 k, 0.012% Params, 196.61 KMac, 0.015% MACs, in_features=4, out_features=512, bias=False)
    )
    (dropout): Dropout(0, 0.000% Params, 0.0 Mac, 0.000% MACs, p=0.05, inplace=False)
  )
  (dec_embedding): DataEmbedding(
    495.1 k, 3.020% Params, 71.29 MMac, 5.317% MACs, 
    (value_embedding): TokenEmbedding(
      493.06 k, 3.008% Params, 71.0 MMac, 5.295% MACs, 
      (tokenConv): Conv1d(493.06 k, 3.008% Params, 71.0 MMac, 5.295% MACs, 321, 512, kernel_size=(3,), stride=(1,), padding=(1,), bias=False, padding_mode=circular)
    )
    (position_embedding): PositionalEmbedding(0, 0.000% Params, 0.0 Mac, 0.000% MACs, )
    (temporal_embedding): TimeFeatureEmbedding(
      2.05 k, 0.012% Params, 294.91 KMac, 0.022% MACs, 
      (embed): Linear(2.05 k, 0.012% Params, 294.91 KMac, 0.022% MACs, in_features=4, out_features=512, bias=False)
    )
    (dropout): Dropout(0, 0.000% Params, 0.0 Mac, 0.000% MACs, p=0.05, inplace=False)
  )
  (encoder): Encoder(
    11.03 M, 67.262% Params, 655.92 MMac, 48.917% MACs, 
    (attn_layers): ModuleList(
      9.45 M, 57.649% Params, 538.36 MMac, 40.149% MACs, 
      (0): EncoderLayer(
        3.15 M, 19.216% Params, 302.24 MMac, 22.540% MACs, 
        (attention): AttentionLayer(
          1.05 M, 6.409% Params, 100.67 MMac, 7.507% MACs, 
          (inner_attention): ProbAttention(
            0, 0.000% Params, 0.0 Mac, 0.000% MACs, 
            (dropout): Dropout(0, 0.000% Params, 0.0 Mac, 0.000% MACs, p=0.05, inplace=False)
          )
          (query_projection): Linear(262.66 k, 1.602% Params, 25.17 MMac, 1.877% MACs, in_features=512, out_features=512, bias=True)
          (key_projection): Linear(262.66 k, 1.602% Params, 25.17 MMac, 1.877% MACs, in_features=512, out_features=512, bias=True)
          (value_projection): Linear(262.66 k, 1.602% Params, 25.17 MMac, 1.877% MACs, in_features=512, out_features=512, bias=True)
          (out_projection): Linear(262.66 k, 1.602% Params, 25.17 MMac, 1.877% MACs, in_features=512, out_features=512, bias=True)
        )
        (conv1): Conv1d(1.05 M, 6.409% Params, 100.86 MMac, 7.522% MACs, 512, 2048, kernel_size=(1,), stride=(1,))
        (conv2): Conv1d(1.05 M, 6.399% Params, 100.71 MMac, 7.511% MACs, 2048, 512, kernel_size=(1,), stride=(1,))
        (norm1): LayerNorm(0, 0.000% Params, 0.0 Mac, 0.000% MACs, (512,), eps=1e-05, elementwise_affine=True)
        (norm2): LayerNorm(0, 0.000% Params, 0.0 Mac, 0.000% MACs, (512,), eps=1e-05, elementwise_affine=True)
        (dropout): Dropout(0, 0.000% Params, 0.0 Mac, 0.000% MACs, p=0.05, inplace=False)
      )
      (1): EncoderLayer(
        3.15 M, 19.216% Params, 154.27 MMac, 11.505% MACs, 
        (attention): AttentionLayer(
          1.05 M, 6.409% Params, 51.38 MMac, 3.832% MACs, 
          (inner_attention): ProbAttention(
            0, 0.000% Params, 0.0 Mac, 0.000% MACs, 
            (dropout): Dropout(0, 0.000% Params, 0.0 Mac, 0.000% MACs, p=0.05, inplace=False)
          )
          (query_projection): Linear(262.66 k, 1.602% Params, 12.85 MMac, 0.958% MACs, in_features=512, out_features=512, bias=True)
          (key_projection): Linear(262.66 k, 1.602% Params, 12.85 MMac, 0.958% MACs, in_features=512, out_features=512, bias=True)
          (value_projection): Linear(262.66 k, 1.602% Params, 12.85 MMac, 0.958% MACs, in_features=512, out_features=512, bias=True)
          (out_projection): Linear(262.66 k, 1.602% Params, 12.85 MMac, 0.958% MACs, in_features=512, out_features=512, bias=True)
        )
        (conv1): Conv1d(1.05 M, 6.409% Params, 51.48 MMac, 3.839% MACs, 512, 2048, kernel_size=(1,), stride=(1,))
        (conv2): Conv1d(1.05 M, 6.399% Params, 51.41 MMac, 3.834% MACs, 2048, 512, kernel_size=(1,), stride=(1,))
        (norm1): LayerNorm(0, 0.000% Params, 0.0 Mac, 0.000% MACs, (512,), eps=1e-05, elementwise_affine=True)
        (norm2): LayerNorm(0, 0.000% Params, 0.0 Mac, 0.000% MACs, (512,), eps=1e-05, elementwise_affine=True)
        (dropout): Dropout(0, 0.000% Params, 0.0 Mac, 0.000% MACs, p=0.05, inplace=False)
      )
      (2): EncoderLayer(
        3.15 M, 19.216% Params, 81.86 MMac, 6.105% MACs, 
        (attention): AttentionLayer(
          1.05 M, 6.409% Params, 27.27 MMac, 2.033% MACs, 
          (inner_attention): ProbAttention(
            0, 0.000% Params, 0.0 Mac, 0.000% MACs, 
            (dropout): Dropout(0, 0.000% Params, 0.0 Mac, 0.000% MACs, p=0.05, inplace=False)
          )
          (query_projection): Linear(262.66 k, 1.602% Params, 6.82 MMac, 0.508% MACs, in_features=512, out_features=512, bias=True)
          (key_projection): Linear(262.66 k, 1.602% Params, 6.82 MMac, 0.508% MACs, in_features=512, out_features=512, bias=True)
          (value_projection): Linear(262.66 k, 1.602% Params, 6.82 MMac, 0.508% MACs, in_features=512, out_features=512, bias=True)
          (out_projection): Linear(262.66 k, 1.602% Params, 6.82 MMac, 0.508% MACs, in_features=512, out_features=512, bias=True)
        )
        (conv1): Conv1d(1.05 M, 6.409% Params, 27.32 MMac, 2.037% MACs, 512, 2048, kernel_size=(1,), stride=(1,))
        (conv2): Conv1d(1.05 M, 6.399% Params, 27.28 MMac, 2.034% MACs, 2048, 512, kernel_size=(1,), stride=(1,))
        (norm1): LayerNorm(0, 0.000% Params, 0.0 Mac, 0.000% MACs, (512,), eps=1e-05, elementwise_affine=True)
        (norm2): LayerNorm(0, 0.000% Params, 0.0 Mac, 0.000% MACs, (512,), eps=1e-05, elementwise_affine=True)
        (dropout): Dropout(0, 0.000% Params, 0.0 Mac, 0.000% MACs, p=0.05, inplace=False)
      )
    )
    (conv_layers): ModuleList(
      1.58 M, 9.613% Params, 117.56 MMac, 8.767% MACs, 
      (0): ConvLayer(
        787.97 k, 4.806% Params, 77.32 MMac, 5.766% MACs, 
        (downConv): Conv1d(786.94 k, 4.800% Params, 77.12 MMac, 5.751% MACs, 512, 512, kernel_size=(3,), stride=(1,), padding=(2,), padding_mode=circular)
        (norm): BatchNorm1d(1.02 k, 0.006% Params, 100.35 KMac, 0.007% MACs, 512, eps=1e-05, momentum=0.1, affine=True, track_running_stats=True)
        (activation): ELU(0, 0.000% Params, 50.18 KMac, 0.004% MACs, alpha=1.0)
        (maxPool): MaxPool1d(0, 0.000% Params, 50.18 KMac, 0.004% MACs, kernel_size=3, stride=2, padding=1, dilation=1, ceil_mode=False)
      )
      (1): ConvLayer(
        787.97 k, 4.806% Params, 40.24 MMac, 3.001% MACs, 
        (downConv): Conv1d(786.94 k, 4.800% Params, 40.13 MMac, 2.993% MACs, 512, 512, kernel_size=(3,), stride=(1,), padding=(2,), padding_mode=circular)
        (norm): BatchNorm1d(1.02 k, 0.006% Params, 52.22 KMac, 0.004% MACs, 512, eps=1e-05, momentum=0.1, affine=True, track_running_stats=True)
        (activation): ELU(0, 0.000% Params, 26.11 KMac, 0.002% MACs, alpha=1.0)
        (maxPool): MaxPool1d(0, 0.000% Params, 26.11 KMac, 0.002% MACs, kernel_size=3, stride=2, padding=1, dilation=1, ceil_mode=False)
      )
    )
    (norm): LayerNorm(0, 0.000% Params, 0.0 Mac, 0.000% MACs, (512,), eps=1e-05, elementwise_affine=True)
  )
  (decoder): Decoder(
    4.37 M, 26.629% Params, 566.15 MMac, 42.222% MACs, 
    (layers): ModuleList(
      4.2 M, 25.625% Params, 542.49 MMac, 40.457% MACs, 
      (0): DecoderLayer(
        4.2 M, 25.625% Params, 542.49 MMac, 40.457% MACs, 
        (self_attention): AttentionLayer(
          1.05 M, 6.409% Params, 151.0 MMac, 11.261% MACs, 
          (inner_attention): ProbAttention(
            0, 0.000% Params, 0.0 Mac, 0.000% MACs, 
            (dropout): Dropout(0, 0.000% Params, 0.0 Mac, 0.000% MACs, p=0.05, inplace=False)
          )
          (query_projection): Linear(262.66 k, 1.602% Params, 37.75 MMac, 2.815% MACs, in_features=512, out_features=512, bias=True)
          (key_projection): Linear(262.66 k, 1.602% Params, 37.75 MMac, 2.815% MACs, in_features=512, out_features=512, bias=True)
          (value_projection): Linear(262.66 k, 1.602% Params, 37.75 MMac, 2.815% MACs, in_features=512, out_features=512, bias=True)
          (out_projection): Linear(262.66 k, 1.602% Params, 37.75 MMac, 2.815% MACs, in_features=512, out_features=512, bias=True)
        )
        (cross_attention): AttentionLayer(
          1.05 M, 6.409% Params, 89.13 MMac, 6.647% MACs, 
          (inner_attention): ProbAttention(
            0, 0.000% Params, 0.0 Mac, 0.000% MACs, 
            (dropout): Dropout(0, 0.000% Params, 0.0 Mac, 0.000% MACs, p=0.05, inplace=False)
          )
          (query_projection): Linear(262.66 k, 1.602% Params, 37.75 MMac, 2.815% MACs, in_features=512, out_features=512, bias=True)
          (key_projection): Linear(262.66 k, 1.602% Params, 6.82 MMac, 0.508% MACs, in_features=512, out_features=512, bias=True)
          (value_projection): Linear(262.66 k, 1.602% Params, 6.82 MMac, 0.508% MACs, in_features=512, out_features=512, bias=True)
          (out_projection): Linear(262.66 k, 1.602% Params, 37.75 MMac, 2.815% MACs, in_features=512, out_features=512, bias=True)
        )
        (conv1): Conv1d(1.05 M, 6.409% Params, 151.29 MMac, 11.283% MACs, 512, 2048, kernel_size=(1,), stride=(1,))
        (conv2): Conv1d(1.05 M, 6.399% Params, 151.07 MMac, 11.266% MACs, 2048, 512, kernel_size=(1,), stride=(1,))
        (norm1): LayerNorm(0, 0.000% Params, 0.0 Mac, 0.000% MACs, (512,), eps=1e-05, elementwise_affine=True)
        (norm2): LayerNorm(0, 0.000% Params, 0.0 Mac, 0.000% MACs, (512,), eps=1e-05, elementwise_affine=True)
        (norm3): LayerNorm(0, 0.000% Params, 0.0 Mac, 0.000% MACs, (512,), eps=1e-05, elementwise_affine=True)
        (dropout): Dropout(0, 0.000% Params, 0.0 Mac, 0.000% MACs, p=0.05, inplace=False)
      )
    )
    (norm): LayerNorm(0, 0.000% Params, 0.0 Mac, 0.000% MACs, (512,), eps=1e-05, elementwise_affine=True)
    (projection): Linear(164.67 k, 1.004% Params, 23.67 MMac, 1.765% MACs, in_features=512, out_features=321, bias=True)
  )
)
Computational complexity:       1.34 GMac
Number of parameters:           16.39 M 
