…
INFO: Trainable parameter count: 24.90M
INFO: Trainable parameter count: 24.90M
INFO: Trainable parameter count: 24.90M
INFO: Trainable parameter count: 24.90M
INFO: Trainable parameter count: 24.90M
INFO: Trainable parameter count: 24.90M
INFO: Trainable parameter count: 24.90M
INFO: Trainable parameter count: 25.07M
INFO: Trainable parameter count: 25.07M
Model(
  25.05 M, 99.926% Params, 2.89 GMac, 100.000% MACs, 
  (enc_embedding): DataEmbedding(
    495.1 k, 1.975% Params, 47.53 MMac, 1.642% MACs, 
    (value_embedding): TokenEmbedding(
      493.06 k, 1.967% Params, 47.33 MMac, 1.635% MACs, 
      (tokenConv): Conv1d(493.06 k, 1.967% Params, 47.33 MMac, 1.635% MACs, 321, 512, kernel_size=(3,), stride=(1,), padding=(1,), bias=False, padding_mode=circular)
    )
    (position_embedding): PositionalEmbedding(0, 0.000% Params, 0.0 Mac, 0.000% MACs, )
    (temporal_embedding): TimeFeatureEmbedding(
      2.05 k, 0.008% Params, 196.61 KMac, 0.007% MACs, 
      (embed): Linear(2.05 k, 0.008% Params, 196.61 KMac, 0.007% MACs, in_features=4, out_features=512, bias=False)
    )
    (dropout): Dropout(0, 0.000% Params, 0.0 Mac, 0.000% MACs, p=0.05, inplace=False)
  )
  (dec_embedding): DataEmbedding(
    495.1 k, 1.975% Params, 71.29 MMac, 2.463% MACs, 
    (value_embedding): TokenEmbedding(
      493.06 k, 1.967% Params, 71.0 MMac, 2.453% MACs, 
      (tokenConv): Conv1d(493.06 k, 1.967% Params, 71.0 MMac, 2.453% MACs, 321, 512, kernel_size=(3,), stride=(1,), padding=(1,), bias=False, padding_mode=circular)
    )
    (position_embedding): PositionalEmbedding(0, 0.000% Params, 0.0 Mac, 0.000% MACs, )
    (temporal_embedding): TimeFeatureEmbedding(
      2.05 k, 0.008% Params, 294.91 KMac, 0.010% MACs, 
      (embed): Linear(2.05 k, 0.008% Params, 294.91 KMac, 0.010% MACs, in_features=4, out_features=512, bias=False)
    )
    (dropout): Dropout(0, 0.000% Params, 0.0 Mac, 0.000% MACs, p=0.05, inplace=False)
  )
  (encoder): Encoder(
    7.09 M, 28.280% Params, 533.83 MMac, 18.443% MACs, 
    (attn_layers): ModuleList(
      6.3 M, 25.137% Params, 456.51 MMac, 15.771% MACs, 
      (0): EncoderLayer(
        3.15 M, 12.568% Params, 302.24 MMac, 10.442% MACs, 
        (attention): AttentionLayer(
          1.05 M, 4.191% Params, 100.67 MMac, 3.478% MACs, 
          (inner_attention): ProbAttention(
            0, 0.000% Params, 0.0 Mac, 0.000% MACs, 
            (dropout): Dropout(0, 0.000% Params, 0.0 Mac, 0.000% MACs, p=0.05, inplace=False)
          )
          (query_projection): Linear(262.66 k, 1.048% Params, 25.17 MMac, 0.869% MACs, in_features=512, out_features=512, bias=True)
          (key_projection): Linear(262.66 k, 1.048% Params, 25.17 MMac, 0.869% MACs, in_features=512, out_features=512, bias=True)
          (value_projection): Linear(262.66 k, 1.048% Params, 25.17 MMac, 0.869% MACs, in_features=512, out_features=512, bias=True)
          (out_projection): Linear(262.66 k, 1.048% Params, 25.17 MMac, 0.869% MACs, in_features=512, out_features=512, bias=True)
        )
        (conv1): Conv1d(1.05 M, 4.191% Params, 100.86 MMac, 3.485% MACs, 512, 2048, kernel_size=(1,), stride=(1,))
        (conv2): Conv1d(1.05 M, 4.185% Params, 100.71 MMac, 3.479% MACs, 2048, 512, kernel_size=(1,), stride=(1,))
        (norm1): LayerNorm(0, 0.000% Params, 0.0 Mac, 0.000% MACs, (512,), eps=1e-05, elementwise_affine=True)
        (norm2): LayerNorm(0, 0.000% Params, 0.0 Mac, 0.000% MACs, (512,), eps=1e-05, elementwise_affine=True)
        (dropout): Dropout(0, 0.000% Params, 0.0 Mac, 0.000% MACs, p=0.05, inplace=False)
      )
      (1): EncoderLayer(
        3.15 M, 12.568% Params, 154.27 MMac, 5.330% MACs, 
        (attention): AttentionLayer(
          1.05 M, 4.191% Params, 51.38 MMac, 1.775% MACs, 
          (inner_attention): ProbAttention(
            0, 0.000% Params, 0.0 Mac, 0.000% MACs, 
            (dropout): Dropout(0, 0.000% Params, 0.0 Mac, 0.000% MACs, p=0.05, inplace=False)
          )
          (query_projection): Linear(262.66 k, 1.048% Params, 12.85 MMac, 0.444% MACs, in_features=512, out_features=512, bias=True)
          (key_projection): Linear(262.66 k, 1.048% Params, 12.85 MMac, 0.444% MACs, in_features=512, out_features=512, bias=True)
          (value_projection): Linear(262.66 k, 1.048% Params, 12.85 MMac, 0.444% MACs, in_features=512, out_features=512, bias=True)
          (out_projection): Linear(262.66 k, 1.048% Params, 12.85 MMac, 0.444% MACs, in_features=512, out_features=512, bias=True)
        )
        (conv1): Conv1d(1.05 M, 4.191% Params, 51.48 MMac, 1.779% MACs, 512, 2048, kernel_size=(1,), stride=(1,))
        (conv2): Conv1d(1.05 M, 4.185% Params, 51.41 MMac, 1.776% MACs, 2048, 512, kernel_size=(1,), stride=(1,))
        (norm1): LayerNorm(0, 0.000% Params, 0.0 Mac, 0.000% MACs, (512,), eps=1e-05, elementwise_affine=True)
        (norm2): LayerNorm(0, 0.000% Params, 0.0 Mac, 0.000% MACs, (512,), eps=1e-05, elementwise_affine=True)
        (dropout): Dropout(0, 0.000% Params, 0.0 Mac, 0.000% MACs, p=0.05, inplace=False)
      )
    )
    (conv_layers): ModuleList(
      787.97 k, 3.144% Params, 77.32 MMac, 2.671% MACs, 
      (0): ConvLayer(
        787.97 k, 3.144% Params, 77.32 MMac, 2.671% MACs, 
        (downConv): Conv1d(786.94 k, 3.140% Params, 77.12 MMac, 2.664% MACs, 512, 512, kernel_size=(3,), stride=(1,), padding=(2,), padding_mode=circular)
        (norm): BatchNorm1d(1.02 k, 0.004% Params, 100.35 KMac, 0.003% MACs, 512, eps=1e-05, momentum=0.1, affine=True, track_running_stats=True)
        (activation): ELU(0, 0.000% Params, 50.18 KMac, 0.002% MACs, alpha=1.0)
        (maxPool): MaxPool1d(0, 0.000% Params, 50.18 KMac, 0.002% MACs, kernel_size=3, stride=2, padding=1, dilation=1, ceil_mode=False)
      )
    )
    (norm): LayerNorm(0, 0.000% Params, 0.0 Mac, 0.000% MACs, (512,), eps=1e-05, elementwise_affine=True)
  )
  (decoder): Decoder(
    16.97 M, 67.696% Params, 2.24 GMac, 77.452% MACs, 
    (layers): ModuleList(
      16.8 M, 67.039% Params, 2.22 GMac, 76.634% MACs, 
      (0): DecoderLayer(
        4.2 M, 16.760% Params, 554.55 MMac, 19.159% MACs, 
        (self_attention): AttentionLayer(
          1.05 M, 4.191% Params, 151.0 MMac, 5.217% MACs, 
          (inner_attention): ProbAttention(
            0, 0.000% Params, 0.0 Mac, 0.000% MACs, 
            (dropout): Dropout(0, 0.000% Params, 0.0 Mac, 0.000% MACs, p=0.05, inplace=False)
          )
          (query_projection): Linear(262.66 k, 1.048% Params, 37.75 MMac, 1.304% MACs, in_features=512, out_features=512, bias=True)
          (key_projection): Linear(262.66 k, 1.048% Params, 37.75 MMac, 1.304% MACs, in_features=512, out_features=512, bias=True)
          (value_projection): Linear(262.66 k, 1.048% Params, 37.75 MMac, 1.304% MACs, in_features=512, out_features=512, bias=True)
          (out_projection): Linear(262.66 k, 1.048% Params, 37.75 MMac, 1.304% MACs, in_features=512, out_features=512, bias=True)
        )
        (cross_attention): AttentionLayer(
          1.05 M, 4.191% Params, 101.19 MMac, 3.496% MACs, 
          (inner_attention): ProbAttention(
            0, 0.000% Params, 0.0 Mac, 0.000% MACs, 
            (dropout): Dropout(0, 0.000% Params, 0.0 Mac, 0.000% MACs, p=0.05, inplace=False)
          )
          (query_projection): Linear(262.66 k, 1.048% Params, 37.75 MMac, 1.304% MACs, in_features=512, out_features=512, bias=True)
          (key_projection): Linear(262.66 k, 1.048% Params, 12.85 MMac, 0.444% MACs, in_features=512, out_features=512, bias=True)
          (value_projection): Linear(262.66 k, 1.048% Params, 12.85 MMac, 0.444% MACs, in_features=512, out_features=512, bias=True)
          (out_projection): Linear(262.66 k, 1.048% Params, 37.75 MMac, 1.304% MACs, in_features=512, out_features=512, bias=True)
        )
        (conv1): Conv1d(1.05 M, 4.191% Params, 151.29 MMac, 5.227% MACs, 512, 2048, kernel_size=(1,), stride=(1,))
        (conv2): Conv1d(1.05 M, 4.185% Params, 151.07 MMac, 5.219% MACs, 2048, 512, kernel_size=(1,), stride=(1,))
        (norm1): LayerNorm(0, 0.000% Params, 0.0 Mac, 0.000% MACs, (512,), eps=1e-05, elementwise_affine=True)
        (norm2): LayerNorm(0, 0.000% Params, 0.0 Mac, 0.000% MACs, (512,), eps=1e-05, elementwise_affine=True)
        (norm3): LayerNorm(0, 0.000% Params, 0.0 Mac, 0.000% MACs, (512,), eps=1e-05, elementwise_affine=True)
        (dropout): Dropout(0, 0.000% Params, 0.0 Mac, 0.000% MACs, p=0.05, inplace=False)
      )
      (1): DecoderLayer(
        4.2 M, 16.760% Params, 554.55 MMac, 19.159% MACs, 
        (self_attention): AttentionLayer(
          1.05 M, 4.191% Params, 151.0 MMac, 5.217% MACs, 
          (inner_attention): ProbAttention(
            0, 0.000% Params, 0.0 Mac, 0.000% MACs, 
            (dropout): Dropout(0, 0.000% Params, 0.0 Mac, 0.000% MACs, p=0.05, inplace=False)
          )
          (query_projection): Linear(262.66 k, 1.048% Params, 37.75 MMac, 1.304% MACs, in_features=512, out_features=512, bias=True)
          (key_projection): Linear(262.66 k, 1.048% Params, 37.75 MMac, 1.304% MACs, in_features=512, out_features=512, bias=True)
          (value_projection): Linear(262.66 k, 1.048% Params, 37.75 MMac, 1.304% MACs, in_features=512, out_features=512, bias=True)
          (out_projection): Linear(262.66 k, 1.048% Params, 37.75 MMac, 1.304% MACs, in_features=512, out_features=512, bias=True)
        )
        (cross_attention): AttentionLayer(
          1.05 M, 4.191% Params, 101.19 MMac, 3.496% MACs, 
          (inner_attention): ProbAttention(
            0, 0.000% Params, 0.0 Mac, 0.000% MACs, 
            (dropout): Dropout(0, 0.000% Params, 0.0 Mac, 0.000% MACs, p=0.05, inplace=False)
          )
          (query_projection): Linear(262.66 k, 1.048% Params, 37.75 MMac, 1.304% MACs, in_features=512, out_features=512, bias=True)
          (key_projection): Linear(262.66 k, 1.048% Params, 12.85 MMac, 0.444% MACs, in_features=512, out_features=512, bias=True)
          (value_projection): Linear(262.66 k, 1.048% Params, 12.85 MMac, 0.444% MACs, in_features=512, out_features=512, bias=True)
          (out_projection): Linear(262.66 k, 1.048% Params, 37.75 MMac, 1.304% MACs, in_features=512, out_features=512, bias=True)
        )
        (conv1): Conv1d(1.05 M, 4.191% Params, 151.29 MMac, 5.227% MACs, 512, 2048, kernel_size=(1,), stride=(1,))
        (conv2): Conv1d(1.05 M, 4.185% Params, 151.07 MMac, 5.219% MACs, 2048, 512, kernel_size=(1,), stride=(1,))
        (norm1): LayerNorm(0, 0.000% Params, 0.0 Mac, 0.000% MACs, (512,), eps=1e-05, elementwise_affine=True)
        (norm2): LayerNorm(0, 0.000% Params, 0.0 Mac, 0.000% MACs, (512,), eps=1e-05, elementwise_affine=True)
        (norm3): LayerNorm(0, 0.000% Params, 0.0 Mac, 0.000% MACs, (512,), eps=1e-05, elementwise_affine=True)
        (dropout): Dropout(0, 0.000% Params, 0.0 Mac, 0.000% MACs, p=0.05, inplace=False)
      )
      (2): DecoderLayer(
        4.2 M, 16.760% Params, 554.55 MMac, 19.159% MACs, 
        (self_attention): AttentionLayer(
          1.05 M, 4.191% Params, 151.0 MMac, 5.217% MACs, 
          (inner_attention): ProbAttention(
            0, 0.000% Params, 0.0 Mac, 0.000% MACs, 
            (dropout): Dropout(0, 0.000% Params, 0.0 Mac, 0.000% MACs, p=0.05, inplace=False)
          )
          (query_projection): Linear(262.66 k, 1.048% Params, 37.75 MMac, 1.304% MACs, in_features=512, out_features=512, bias=True)
          (key_projection): Linear(262.66 k, 1.048% Params, 37.75 MMac, 1.304% MACs, in_features=512, out_features=512, bias=True)
          (value_projection): Linear(262.66 k, 1.048% Params, 37.75 MMac, 1.304% MACs, in_features=512, out_features=512, bias=True)
          (out_projection): Linear(262.66 k, 1.048% Params, 37.75 MMac, 1.304% MACs, in_features=512, out_features=512, bias=True)
        )
        (cross_attention): AttentionLayer(
          1.05 M, 4.191% Params, 101.19 MMac, 3.496% MACs, 
          (inner_attention): ProbAttention(
            0, 0.000% Params, 0.0 Mac, 0.000% MACs, 
            (dropout): Dropout(0, 0.000% Params, 0.0 Mac, 0.000% MACs, p=0.05, inplace=False)
          )
          (query_projection): Linear(262.66 k, 1.048% Params, 37.75 MMac, 1.304% MACs, in_features=512, out_features=512, bias=True)
          (key_projection): Linear(262.66 k, 1.048% Params, 12.85 MMac, 0.444% MACs, in_features=512, out_features=512, bias=True)
          (value_projection): Linear(262.66 k, 1.048% Params, 12.85 MMac, 0.444% MACs, in_features=512, out_features=512, bias=True)
          (out_projection): Linear(262.66 k, 1.048% Params, 37.75 MMac, 1.304% MACs, in_features=512, out_features=512, bias=True)
        )
        (conv1): Conv1d(1.05 M, 4.191% Params, 151.29 MMac, 5.227% MACs, 512, 2048, kernel_size=(1,), stride=(1,))
        (conv2): Conv1d(1.05 M, 4.185% Params, 151.07 MMac, 5.219% MACs, 2048, 512, kernel_size=(1,), stride=(1,))
        (norm1): LayerNorm(0, 0.000% Params, 0.0 Mac, 0.000% MACs, (512,), eps=1e-05, elementwise_affine=True)
        (norm2): LayerNorm(0, 0.000% Params, 0.0 Mac, 0.000% MACs, (512,), eps=1e-05, elementwise_affine=True)
        (norm3): LayerNorm(0, 0.000% Params, 0.0 Mac, 0.000% MACs, (512,), eps=1e-05, elementwise_affine=True)
        (dropout): Dropout(0, 0.000% Params, 0.0 Mac, 0.000% MACs, p=0.05, inplace=False)
      )
      (3): DecoderLayer(
        4.2 M, 16.760% Params, 554.55 MMac, 19.159% MACs, 
        (self_attention): AttentionLayer(
          1.05 M, 4.191% Params, 151.0 MMac, 5.217% MACs, 
          (inner_attention): ProbAttention(
            0, 0.000% Params, 0.0 Mac, 0.000% MACs, 
            (dropout): Dropout(0, 0.000% Params, 0.0 Mac, 0.000% MACs, p=0.05, inplace=False)
          )
          (query_projection): Linear(262.66 k, 1.048% Params, 37.75 MMac, 1.304% MACs, in_features=512, out_features=512, bias=True)
          (key_projection): Linear(262.66 k, 1.048% Params, 37.75 MMac, 1.304% MACs, in_features=512, out_features=512, bias=True)
          (value_projection): Linear(262.66 k, 1.048% Params, 37.75 MMac, 1.304% MACs, in_features=512, out_features=512, bias=True)
          (out_projection): Linear(262.66 k, 1.048% Params, 37.75 MMac, 1.304% MACs, in_features=512, out_features=512, bias=True)
        )
        (cross_attention): AttentionLayer(
          1.05 M, 4.191% Params, 101.19 MMac, 3.496% MACs, 
          (inner_attention): ProbAttention(
            0, 0.000% Params, 0.0 Mac, 0.000% MACs, 
            (dropout): Dropout(0, 0.000% Params, 0.0 Mac, 0.000% MACs, p=0.05, inplace=False)
          )
          (query_projection): Linear(262.66 k, 1.048% Params, 37.75 MMac, 1.304% MACs, in_features=512, out_features=512, bias=True)
          (key_projection): Linear(262.66 k, 1.048% Params, 12.85 MMac, 0.444% MACs, in_features=512, out_features=512, bias=True)
          (value_projection): Linear(262.66 k, 1.048% Params, 12.85 MMac, 0.444% MACs, in_features=512, out_features=512, bias=True)
          (out_projection): Linear(262.66 k, 1.048% Params, 37.75 MMac, 1.304% MACs, in_features=512, out_features=512, bias=True)
        )
        (conv1): Conv1d(1.05 M, 4.191% Params, 151.29 MMac, 5.227% MACs, 512, 2048, kernel_size=(1,), stride=(1,))
        (conv2): Conv1d(1.05 M, 4.185% Params, 151.07 MMac, 5.219% MACs, 2048, 512, kernel_size=(1,), stride=(1,))
        (norm1): LayerNorm(0, 0.000% Params, 0.0 Mac, 0.000% MACs, (512,), eps=1e-05, elementwise_affine=True)
        (norm2): LayerNorm(0, 0.000% Params, 0.0 Mac, 0.000% MACs, (512,), eps=1e-05, elementwise_affine=True)
        (norm3): LayerNorm(0, 0.000% Params, 0.0 Mac, 0.000% MACs, (512,), eps=1e-05, elementwise_affine=True)
        (dropout): Dropout(0, 0.000% Params, 0.0 Mac, 0.000% MACs, p=0.05, inplace=False)
      )
    )
    (norm): LayerNorm(0, 0.000% Params, 0.0 Mac, 0.000% MACs, (512,), eps=1e-05, elementwise_affine=True)
    (projection): Linear(164.67 k, 0.657% Params, 23.67 MMac, 0.818% MACs, in_features=512, out_features=321, bias=True)
  )
)
Computational complexity:       2.89 GMac
Number of parameters:           25.07 M 
