…
INFO: Trainable parameter count: 20.43M
INFO: Trainable parameter count: 20.43M
INFO: Trainable parameter count: 20.43M
INFO: Trainable parameter count: 20.43M
INFO: Trainable parameter count: 20.43M
INFO: Trainable parameter count: 20.43M
INFO: Trainable parameter count: 20.43M
INFO: Trainable parameter count: 20.60M
INFO: Trainable parameter count: 20.60M
Model(
  20.58 M, 99.930% Params, 1.88 GMac, 100.000% MACs, 
  (enc_embedding): DataEmbedding(
    495.1 k, 2.404% Params, 47.53 MMac, 2.524% MACs, 
    (value_embedding): TokenEmbedding(
      493.06 k, 2.394% Params, 47.33 MMac, 2.513% MACs, 
      (tokenConv): Conv1d(493.06 k, 2.394% Params, 47.33 MMac, 2.513% MACs, 321, 512, kernel_size=(3,), stride=(1,), padding=(1,), bias=False, padding_mode=circular)
    )
    (position_embedding): PositionalEmbedding(0, 0.000% Params, 0.0 Mac, 0.000% MACs, )
    (temporal_embedding): TimeFeatureEmbedding(
      2.05 k, 0.010% Params, 196.61 KMac, 0.010% MACs, 
      (embed): Linear(2.05 k, 0.010% Params, 196.61 KMac, 0.010% MACs, in_features=4, out_features=512, bias=False)
    )
    (dropout): Dropout(0, 0.000% Params, 0.0 Mac, 0.000% MACs, p=0.05, inplace=False)
  )
  (dec_embedding): DataEmbedding(
    495.1 k, 2.404% Params, 71.29 MMac, 3.785% MACs, 
    (value_embedding): TokenEmbedding(
      493.06 k, 2.394% Params, 71.0 MMac, 3.770% MACs, 
      (tokenConv): Conv1d(493.06 k, 2.394% Params, 71.0 MMac, 3.770% MACs, 321, 512, kernel_size=(3,), stride=(1,), padding=(1,), bias=False, padding_mode=circular)
    )
    (position_embedding): PositionalEmbedding(0, 0.000% Params, 0.0 Mac, 0.000% MACs, )
    (temporal_embedding): TimeFeatureEmbedding(
      2.05 k, 0.010% Params, 294.91 KMac, 0.016% MACs, 
      (embed): Linear(2.05 k, 0.010% Params, 294.91 KMac, 0.016% MACs, in_features=4, out_features=512, bias=False)
    )
    (dropout): Dropout(0, 0.000% Params, 0.0 Mac, 0.000% MACs, p=0.05, inplace=False)
  )
  (encoder): Encoder(
    11.03 M, 53.534% Params, 655.92 MMac, 34.827% MACs, 
    (attn_layers): ModuleList(
      9.45 M, 45.883% Params, 538.36 MMac, 28.585% MACs, 
      (0): EncoderLayer(
        3.15 M, 15.294% Params, 302.24 MMac, 16.048% MACs, 
        (attention): AttentionLayer(
          1.05 M, 5.101% Params, 100.67 MMac, 5.345% MACs, 
          (inner_attention): ProbAttention(
            0, 0.000% Params, 0.0 Mac, 0.000% MACs, 
            (dropout): Dropout(0, 0.000% Params, 0.0 Mac, 0.000% MACs, p=0.05, inplace=False)
          )
          (query_projection): Linear(262.66 k, 1.275% Params, 25.17 MMac, 1.336% MACs, in_features=512, out_features=512, bias=True)
          (key_projection): Linear(262.66 k, 1.275% Params, 25.17 MMac, 1.336% MACs, in_features=512, out_features=512, bias=True)
          (value_projection): Linear(262.66 k, 1.275% Params, 25.17 MMac, 1.336% MACs, in_features=512, out_features=512, bias=True)
          (out_projection): Linear(262.66 k, 1.275% Params, 25.17 MMac, 1.336% MACs, in_features=512, out_features=512, bias=True)
        )
        (conv1): Conv1d(1.05 M, 5.101% Params, 100.86 MMac, 5.355% MACs, 512, 2048, kernel_size=(1,), stride=(1,))
        (conv2): Conv1d(1.05 M, 5.093% Params, 100.71 MMac, 5.347% MACs, 2048, 512, kernel_size=(1,), stride=(1,))
        (norm1): LayerNorm(0, 0.000% Params, 0.0 Mac, 0.000% MACs, (512,), eps=1e-05, elementwise_affine=True)
        (norm2): LayerNorm(0, 0.000% Params, 0.0 Mac, 0.000% MACs, (512,), eps=1e-05, elementwise_affine=True)
        (dropout): Dropout(0, 0.000% Params, 0.0 Mac, 0.000% MACs, p=0.05, inplace=False)
      )
      (1): EncoderLayer(
        3.15 M, 15.294% Params, 154.27 MMac, 8.191% MACs, 
        (attention): AttentionLayer(
          1.05 M, 5.101% Params, 51.38 MMac, 2.728% MACs, 
          (inner_attention): ProbAttention(
            0, 0.000% Params, 0.0 Mac, 0.000% MACs, 
            (dropout): Dropout(0, 0.000% Params, 0.0 Mac, 0.000% MACs, p=0.05, inplace=False)
          )
          (query_projection): Linear(262.66 k, 1.275% Params, 12.85 MMac, 0.682% MACs, in_features=512, out_features=512, bias=True)
          (key_projection): Linear(262.66 k, 1.275% Params, 12.85 MMac, 0.682% MACs, in_features=512, out_features=512, bias=True)
          (value_projection): Linear(262.66 k, 1.275% Params, 12.85 MMac, 0.682% MACs, in_features=512, out_features=512, bias=True)
          (out_projection): Linear(262.66 k, 1.275% Params, 12.85 MMac, 0.682% MACs, in_features=512, out_features=512, bias=True)
        )
        (conv1): Conv1d(1.05 M, 5.101% Params, 51.48 MMac, 2.733% MACs, 512, 2048, kernel_size=(1,), stride=(1,))
        (conv2): Conv1d(1.05 M, 5.093% Params, 51.41 MMac, 2.729% MACs, 2048, 512, kernel_size=(1,), stride=(1,))
        (norm1): LayerNorm(0, 0.000% Params, 0.0 Mac, 0.000% MACs, (512,), eps=1e-05, elementwise_affine=True)
        (norm2): LayerNorm(0, 0.000% Params, 0.0 Mac, 0.000% MACs, (512,), eps=1e-05, elementwise_affine=True)
        (dropout): Dropout(0, 0.000% Params, 0.0 Mac, 0.000% MACs, p=0.05, inplace=False)
      )
      (2): EncoderLayer(
        3.15 M, 15.294% Params, 81.86 MMac, 4.346% MACs, 
        (attention): AttentionLayer(
          1.05 M, 5.101% Params, 27.27 MMac, 1.448% MACs, 
          (inner_attention): ProbAttention(
            0, 0.000% Params, 0.0 Mac, 0.000% MACs, 
            (dropout): Dropout(0, 0.000% Params, 0.0 Mac, 0.000% MACs, p=0.05, inplace=False)
          )
          (query_projection): Linear(262.66 k, 1.275% Params, 6.82 MMac, 0.362% MACs, in_features=512, out_features=512, bias=True)
          (key_projection): Linear(262.66 k, 1.275% Params, 6.82 MMac, 0.362% MACs, in_features=512, out_features=512, bias=True)
          (value_projection): Linear(262.66 k, 1.275% Params, 6.82 MMac, 0.362% MACs, in_features=512, out_features=512, bias=True)
          (out_projection): Linear(262.66 k, 1.275% Params, 6.82 MMac, 0.362% MACs, in_features=512, out_features=512, bias=True)
        )
        (conv1): Conv1d(1.05 M, 5.101% Params, 27.32 MMac, 1.450% MACs, 512, 2048, kernel_size=(1,), stride=(1,))
        (conv2): Conv1d(1.05 M, 5.093% Params, 27.28 MMac, 1.448% MACs, 2048, 512, kernel_size=(1,), stride=(1,))
        (norm1): LayerNorm(0, 0.000% Params, 0.0 Mac, 0.000% MACs, (512,), eps=1e-05, elementwise_affine=True)
        (norm2): LayerNorm(0, 0.000% Params, 0.0 Mac, 0.000% MACs, (512,), eps=1e-05, elementwise_affine=True)
        (dropout): Dropout(0, 0.000% Params, 0.0 Mac, 0.000% MACs, p=0.05, inplace=False)
      )
    )
    (conv_layers): ModuleList(
      1.58 M, 7.651% Params, 117.56 MMac, 6.242% MACs, 
      (0): ConvLayer(
        787.97 k, 3.825% Params, 77.32 MMac, 4.105% MACs, 
        (downConv): Conv1d(786.94 k, 3.820% Params, 77.12 MMac, 4.095% MACs, 512, 512, kernel_size=(3,), stride=(1,), padding=(2,), padding_mode=circular)
        (norm): BatchNorm1d(1.02 k, 0.005% Params, 100.35 KMac, 0.005% MACs, 512, eps=1e-05, momentum=0.1, affine=True, track_running_stats=True)
        (activation): ELU(0, 0.000% Params, 50.18 KMac, 0.003% MACs, alpha=1.0)
        (maxPool): MaxPool1d(0, 0.000% Params, 50.18 KMac, 0.003% MACs, kernel_size=3, stride=2, padding=1, dilation=1, ceil_mode=False)
      )
      (1): ConvLayer(
        787.97 k, 3.825% Params, 40.24 MMac, 2.137% MACs, 
        (downConv): Conv1d(786.94 k, 3.820% Params, 40.13 MMac, 2.131% MACs, 512, 512, kernel_size=(3,), stride=(1,), padding=(2,), padding_mode=circular)
        (norm): BatchNorm1d(1.02 k, 0.005% Params, 52.22 KMac, 0.003% MACs, 512, eps=1e-05, momentum=0.1, affine=True, track_running_stats=True)
        (activation): ELU(0, 0.000% Params, 26.11 KMac, 0.001% MACs, alpha=1.0)
        (maxPool): MaxPool1d(0, 0.000% Params, 26.11 KMac, 0.001% MACs, kernel_size=3, stride=2, padding=1, dilation=1, ceil_mode=False)
      )
    )
    (norm): LayerNorm(0, 0.000% Params, 0.0 Mac, 0.000% MACs, (512,), eps=1e-05, elementwise_affine=True)
  )
  (decoder): Decoder(
    8.57 M, 41.589% Params, 1.11 GMac, 58.864% MACs, 
    (layers): ModuleList(
      8.4 M, 40.790% Params, 1.08 GMac, 57.608% MACs, 
      (0): DecoderLayer(
        4.2 M, 20.395% Params, 542.49 MMac, 28.804% MACs, 
        (self_attention): AttentionLayer(
          1.05 M, 5.101% Params, 151.0 MMac, 8.017% MACs, 
          (inner_attention): ProbAttention(
            0, 0.000% Params, 0.0 Mac, 0.000% MACs, 
            (dropout): Dropout(0, 0.000% Params, 0.0 Mac, 0.000% MACs, p=0.05, inplace=False)
          )
          (query_projection): Linear(262.66 k, 1.275% Params, 37.75 MMac, 2.004% MACs, in_features=512, out_features=512, bias=True)
          (key_projection): Linear(262.66 k, 1.275% Params, 37.75 MMac, 2.004% MACs, in_features=512, out_features=512, bias=True)
          (value_projection): Linear(262.66 k, 1.275% Params, 37.75 MMac, 2.004% MACs, in_features=512, out_features=512, bias=True)
          (out_projection): Linear(262.66 k, 1.275% Params, 37.75 MMac, 2.004% MACs, in_features=512, out_features=512, bias=True)
        )
        (cross_attention): AttentionLayer(
          1.05 M, 5.101% Params, 89.13 MMac, 4.732% MACs, 
          (inner_attention): ProbAttention(
            0, 0.000% Params, 0.0 Mac, 0.000% MACs, 
            (dropout): Dropout(0, 0.000% Params, 0.0 Mac, 0.000% MACs, p=0.05, inplace=False)
          )
          (query_projection): Linear(262.66 k, 1.275% Params, 37.75 MMac, 2.004% MACs, in_features=512, out_features=512, bias=True)
          (key_projection): Linear(262.66 k, 1.275% Params, 6.82 MMac, 0.362% MACs, in_features=512, out_features=512, bias=True)
          (value_projection): Linear(262.66 k, 1.275% Params, 6.82 MMac, 0.362% MACs, in_features=512, out_features=512, bias=True)
          (out_projection): Linear(262.66 k, 1.275% Params, 37.75 MMac, 2.004% MACs, in_features=512, out_features=512, bias=True)
        )
        (conv1): Conv1d(1.05 M, 5.101% Params, 151.29 MMac, 8.033% MACs, 512, 2048, kernel_size=(1,), stride=(1,))
        (conv2): Conv1d(1.05 M, 5.093% Params, 151.07 MMac, 8.021% MACs, 2048, 512, kernel_size=(1,), stride=(1,))
        (norm1): LayerNorm(0, 0.000% Params, 0.0 Mac, 0.000% MACs, (512,), eps=1e-05, elementwise_affine=True)
        (norm2): LayerNorm(0, 0.000% Params, 0.0 Mac, 0.000% MACs, (512,), eps=1e-05, elementwise_affine=True)
        (norm3): LayerNorm(0, 0.000% Params, 0.0 Mac, 0.000% MACs, (512,), eps=1e-05, elementwise_affine=True)
        (dropout): Dropout(0, 0.000% Params, 0.0 Mac, 0.000% MACs, p=0.05, inplace=False)
      )
      (1): DecoderLayer(
        4.2 M, 20.395% Params, 542.49 MMac, 28.804% MACs, 
        (self_attention): AttentionLayer(
          1.05 M, 5.101% Params, 151.0 MMac, 8.017% MACs, 
          (inner_attention): ProbAttention(
            0, 0.000% Params, 0.0 Mac, 0.000% MACs, 
            (dropout): Dropout(0, 0.000% Params, 0.0 Mac, 0.000% MACs, p=0.05, inplace=False)
          )
          (query_projection): Linear(262.66 k, 1.275% Params, 37.75 MMac, 2.004% MACs, in_features=512, out_features=512, bias=True)
          (key_projection): Linear(262.66 k, 1.275% Params, 37.75 MMac, 2.004% MACs, in_features=512, out_features=512, bias=True)
          (value_projection): Linear(262.66 k, 1.275% Params, 37.75 MMac, 2.004% MACs, in_features=512, out_features=512, bias=True)
          (out_projection): Linear(262.66 k, 1.275% Params, 37.75 MMac, 2.004% MACs, in_features=512, out_features=512, bias=True)
        )
        (cross_attention): AttentionLayer(
          1.05 M, 5.101% Params, 89.13 MMac, 4.732% MACs, 
          (inner_attention): ProbAttention(
            0, 0.000% Params, 0.0 Mac, 0.000% MACs, 
            (dropout): Dropout(0, 0.000% Params, 0.0 Mac, 0.000% MACs, p=0.05, inplace=False)
          )
          (query_projection): Linear(262.66 k, 1.275% Params, 37.75 MMac, 2.004% MACs, in_features=512, out_features=512, bias=True)
          (key_projection): Linear(262.66 k, 1.275% Params, 6.82 MMac, 0.362% MACs, in_features=512, out_features=512, bias=True)
          (value_projection): Linear(262.66 k, 1.275% Params, 6.82 MMac, 0.362% MACs, in_features=512, out_features=512, bias=True)
          (out_projection): Linear(262.66 k, 1.275% Params, 37.75 MMac, 2.004% MACs, in_features=512, out_features=512, bias=True)
        )
        (conv1): Conv1d(1.05 M, 5.101% Params, 151.29 MMac, 8.033% MACs, 512, 2048, kernel_size=(1,), stride=(1,))
        (conv2): Conv1d(1.05 M, 5.093% Params, 151.07 MMac, 8.021% MACs, 2048, 512, kernel_size=(1,), stride=(1,))
        (norm1): LayerNorm(0, 0.000% Params, 0.0 Mac, 0.000% MACs, (512,), eps=1e-05, elementwise_affine=True)
        (norm2): LayerNorm(0, 0.000% Params, 0.0 Mac, 0.000% MACs, (512,), eps=1e-05, elementwise_affine=True)
        (norm3): LayerNorm(0, 0.000% Params, 0.0 Mac, 0.000% MACs, (512,), eps=1e-05, elementwise_affine=True)
        (dropout): Dropout(0, 0.000% Params, 0.0 Mac, 0.000% MACs, p=0.05, inplace=False)
      )
    )
    (norm): LayerNorm(0, 0.000% Params, 0.0 Mac, 0.000% MACs, (512,), eps=1e-05, elementwise_affine=True)
    (projection): Linear(164.67 k, 0.799% Params, 23.67 MMac, 1.257% MACs, in_features=512, out_features=321, bias=True)
  )
)
Computational complexity:       1.88 GMac
Number of parameters:           20.6 M  
