…
INFO: Trainable parameter count: 28.57M
INFO: Trainable parameter count: 28.58M
INFO: Trainable parameter count: 28.58M
INFO: Trainable parameter count: 28.58M
INFO: Trainable parameter count: 28.58M
INFO: Trainable parameter count: 28.58M
INFO: Trainable parameter count: 28.58M
INFO: Trainable parameter count: 28.74M
INFO: Trainable parameter count: 28.74M
Model(
  28.72 M, 99.932% Params, 2.47 GMac, 100.000% MACs, 
  (enc_embedding): DataEmbedding(
    495.1 k, 1.723% Params, 47.53 MMac, 1.922% MACs, 
    (value_embedding): TokenEmbedding(
      493.06 k, 1.715% Params, 47.33 MMac, 1.914% MACs, 
      (tokenConv): Conv1d(493.06 k, 1.715% Params, 47.33 MMac, 1.914% MACs, 321, 512, kernel_size=(3,), stride=(1,), padding=(1,), bias=False, padding_mode=circular)
    )
    (position_embedding): PositionalEmbedding(0, 0.000% Params, 0.0 Mac, 0.000% MACs, )
    (temporal_embedding): TimeFeatureEmbedding(
      2.05 k, 0.007% Params, 196.61 KMac, 0.008% MACs, 
      (embed): Linear(2.05 k, 0.007% Params, 196.61 KMac, 0.008% MACs, in_features=4, out_features=512, bias=False)
    )
    (dropout): Dropout(0, 0.000% Params, 0.0 Mac, 0.000% MACs, p=0.05, inplace=False)
  )
  (dec_embedding): DataEmbedding(
    495.1 k, 1.723% Params, 71.29 MMac, 2.883% MACs, 
    (value_embedding): TokenEmbedding(
      493.06 k, 1.715% Params, 71.0 MMac, 2.871% MACs, 
      (tokenConv): Conv1d(493.06 k, 1.715% Params, 71.0 MMac, 2.871% MACs, 321, 512, kernel_size=(3,), stride=(1,), padding=(1,), bias=False, padding_mode=circular)
    )
    (position_embedding): PositionalEmbedding(0, 0.000% Params, 0.0 Mac, 0.000% MACs, )
    (temporal_embedding): TimeFeatureEmbedding(
      2.05 k, 0.007% Params, 294.91 KMac, 0.012% MACs, 
      (embed): Linear(2.05 k, 0.007% Params, 294.91 KMac, 0.012% MACs, in_features=4, out_features=512, bias=False)
    )
    (dropout): Dropout(0, 0.000% Params, 0.0 Mac, 0.000% MACs, p=0.05, inplace=False)
  )
  (encoder): Encoder(
    14.97 M, 52.067% Params, 722.09 MMac, 29.197% MACs, 
    (attn_layers): ModuleList(
      12.6 M, 43.842% Params, 582.44 MMac, 23.550% MACs, 
      (0): EncoderLayer(
        3.15 M, 10.961% Params, 302.24 MMac, 12.221% MACs, 
        (attention): AttentionLayer(
          1.05 M, 3.655% Params, 100.67 MMac, 4.070% MACs, 
          (inner_attention): ProbAttention(
            0, 0.000% Params, 0.0 Mac, 0.000% MACs, 
            (dropout): Dropout(0, 0.000% Params, 0.0 Mac, 0.000% MACs, p=0.05, inplace=False)
          )
          (query_projection): Linear(262.66 k, 0.914% Params, 25.17 MMac, 1.018% MACs, in_features=512, out_features=512, bias=True)
          (key_projection): Linear(262.66 k, 0.914% Params, 25.17 MMac, 1.018% MACs, in_features=512, out_features=512, bias=True)
          (value_projection): Linear(262.66 k, 0.914% Params, 25.17 MMac, 1.018% MACs, in_features=512, out_features=512, bias=True)
          (out_projection): Linear(262.66 k, 0.914% Params, 25.17 MMac, 1.018% MACs, in_features=512, out_features=512, bias=True)
        )
        (conv1): Conv1d(1.05 M, 3.655% Params, 100.86 MMac, 4.078% MACs, 512, 2048, kernel_size=(1,), stride=(1,))
        (conv2): Conv1d(1.05 M, 3.650% Params, 100.71 MMac, 4.072% MACs, 2048, 512, kernel_size=(1,), stride=(1,))
        (norm1): LayerNorm(0, 0.000% Params, 0.0 Mac, 0.000% MACs, (512,), eps=1e-05, elementwise_affine=True)
        (norm2): LayerNorm(0, 0.000% Params, 0.0 Mac, 0.000% MACs, (512,), eps=1e-05, elementwise_affine=True)
        (dropout): Dropout(0, 0.000% Params, 0.0 Mac, 0.000% MACs, p=0.05, inplace=False)
      )
      (1): EncoderLayer(
        3.15 M, 10.961% Params, 154.27 MMac, 6.238% MACs, 
        (attention): AttentionLayer(
          1.05 M, 3.655% Params, 51.38 MMac, 2.078% MACs, 
          (inner_attention): ProbAttention(
            0, 0.000% Params, 0.0 Mac, 0.000% MACs, 
            (dropout): Dropout(0, 0.000% Params, 0.0 Mac, 0.000% MACs, p=0.05, inplace=False)
          )
          (query_projection): Linear(262.66 k, 0.914% Params, 12.85 MMac, 0.519% MACs, in_features=512, out_features=512, bias=True)
          (key_projection): Linear(262.66 k, 0.914% Params, 12.85 MMac, 0.519% MACs, in_features=512, out_features=512, bias=True)
          (value_projection): Linear(262.66 k, 0.914% Params, 12.85 MMac, 0.519% MACs, in_features=512, out_features=512, bias=True)
          (out_projection): Linear(262.66 k, 0.914% Params, 12.85 MMac, 0.519% MACs, in_features=512, out_features=512, bias=True)
        )
        (conv1): Conv1d(1.05 M, 3.655% Params, 51.48 MMac, 2.082% MACs, 512, 2048, kernel_size=(1,), stride=(1,))
        (conv2): Conv1d(1.05 M, 3.650% Params, 51.41 MMac, 2.079% MACs, 2048, 512, kernel_size=(1,), stride=(1,))
        (norm1): LayerNorm(0, 0.000% Params, 0.0 Mac, 0.000% MACs, (512,), eps=1e-05, elementwise_affine=True)
        (norm2): LayerNorm(0, 0.000% Params, 0.0 Mac, 0.000% MACs, (512,), eps=1e-05, elementwise_affine=True)
        (dropout): Dropout(0, 0.000% Params, 0.0 Mac, 0.000% MACs, p=0.05, inplace=False)
      )
      (2): EncoderLayer(
        3.15 M, 10.961% Params, 81.86 MMac, 3.310% MACs, 
        (attention): AttentionLayer(
          1.05 M, 3.655% Params, 27.27 MMac, 1.102% MACs, 
          (inner_attention): ProbAttention(
            0, 0.000% Params, 0.0 Mac, 0.000% MACs, 
            (dropout): Dropout(0, 0.000% Params, 0.0 Mac, 0.000% MACs, p=0.05, inplace=False)
          )
          (query_projection): Linear(262.66 k, 0.914% Params, 6.82 MMac, 0.276% MACs, in_features=512, out_features=512, bias=True)
          (key_projection): Linear(262.66 k, 0.914% Params, 6.82 MMac, 0.276% MACs, in_features=512, out_features=512, bias=True)
          (value_projection): Linear(262.66 k, 0.914% Params, 6.82 MMac, 0.276% MACs, in_features=512, out_features=512, bias=True)
          (out_projection): Linear(262.66 k, 0.914% Params, 6.82 MMac, 0.276% MACs, in_features=512, out_features=512, bias=True)
        )
        (conv1): Conv1d(1.05 M, 3.655% Params, 27.32 MMac, 1.105% MACs, 512, 2048, kernel_size=(1,), stride=(1,))
        (conv2): Conv1d(1.05 M, 3.650% Params, 27.28 MMac, 1.103% MACs, 2048, 512, kernel_size=(1,), stride=(1,))
        (norm1): LayerNorm(0, 0.000% Params, 0.0 Mac, 0.000% MACs, (512,), eps=1e-05, elementwise_affine=True)
        (norm2): LayerNorm(0, 0.000% Params, 0.0 Mac, 0.000% MACs, (512,), eps=1e-05, elementwise_affine=True)
        (dropout): Dropout(0, 0.000% Params, 0.0 Mac, 0.000% MACs, p=0.05, inplace=False)
      )
      (3): EncoderLayer(
        3.15 M, 10.961% Params, 44.08 MMac, 1.782% MACs, 
        (attention): AttentionLayer(
          1.05 M, 3.655% Params, 14.68 MMac, 0.594% MACs, 
          (inner_attention): ProbAttention(
            0, 0.000% Params, 0.0 Mac, 0.000% MACs, 
            (dropout): Dropout(0, 0.000% Params, 0.0 Mac, 0.000% MACs, p=0.05, inplace=False)
          )
          (query_projection): Linear(262.66 k, 0.914% Params, 3.67 MMac, 0.148% MACs, in_features=512, out_features=512, bias=True)
          (key_projection): Linear(262.66 k, 0.914% Params, 3.67 MMac, 0.148% MACs, in_features=512, out_features=512, bias=True)
          (value_projection): Linear(262.66 k, 0.914% Params, 3.67 MMac, 0.148% MACs, in_features=512, out_features=512, bias=True)
          (out_projection): Linear(262.66 k, 0.914% Params, 3.67 MMac, 0.148% MACs, in_features=512, out_features=512, bias=True)
        )
        (conv1): Conv1d(1.05 M, 3.655% Params, 14.71 MMac, 0.595% MACs, 512, 2048, kernel_size=(1,), stride=(1,))
        (conv2): Conv1d(1.05 M, 3.650% Params, 14.69 MMac, 0.594% MACs, 2048, 512, kernel_size=(1,), stride=(1,))
        (norm1): LayerNorm(0, 0.000% Params, 0.0 Mac, 0.000% MACs, (512,), eps=1e-05, elementwise_affine=True)
        (norm2): LayerNorm(0, 0.000% Params, 0.0 Mac, 0.000% MACs, (512,), eps=1e-05, elementwise_affine=True)
        (dropout): Dropout(0, 0.000% Params, 0.0 Mac, 0.000% MACs, p=0.05, inplace=False)
      )
    )
    (conv_layers): ModuleList(
      2.36 M, 8.224% Params, 139.65 MMac, 5.647% MACs, 
      (0): ConvLayer(
        787.97 k, 2.741% Params, 77.32 MMac, 3.126% MACs, 
        (downConv): Conv1d(786.94 k, 2.738% Params, 77.12 MMac, 3.118% MACs, 512, 512, kernel_size=(3,), stride=(1,), padding=(2,), padding_mode=circular)
        (norm): BatchNorm1d(1.02 k, 0.004% Params, 100.35 KMac, 0.004% MACs, 512, eps=1e-05, momentum=0.1, affine=True, track_running_stats=True)
        (activation): ELU(0, 0.000% Params, 50.18 KMac, 0.002% MACs, alpha=1.0)
        (maxPool): MaxPool1d(0, 0.000% Params, 50.18 KMac, 0.002% MACs, kernel_size=3, stride=2, padding=1, dilation=1, ceil_mode=False)
      )
      (1): ConvLayer(
        787.97 k, 2.741% Params, 40.24 MMac, 1.627% MACs, 
        (downConv): Conv1d(786.94 k, 2.738% Params, 40.13 MMac, 1.623% MACs, 512, 512, kernel_size=(3,), stride=(1,), padding=(2,), padding_mode=circular)
        (norm): BatchNorm1d(1.02 k, 0.004% Params, 52.22 KMac, 0.002% MACs, 512, eps=1e-05, momentum=0.1, affine=True, track_running_stats=True)
        (activation): ELU(0, 0.000% Params, 26.11 KMac, 0.001% MACs, alpha=1.0)
        (maxPool): MaxPool1d(0, 0.000% Params, 26.11 KMac, 0.001% MACs, kernel_size=3, stride=2, padding=1, dilation=1, ceil_mode=False)
      )
      (2): ConvLayer(
        787.97 k, 2.741% Params, 22.09 MMac, 0.893% MACs, 
        (downConv): Conv1d(786.94 k, 2.738% Params, 22.03 MMac, 0.891% MACs, 512, 512, kernel_size=(3,), stride=(1,), padding=(2,), padding_mode=circular)
        (norm): BatchNorm1d(1.02 k, 0.004% Params, 28.67 KMac, 0.001% MACs, 512, eps=1e-05, momentum=0.1, affine=True, track_running_stats=True)
        (activation): ELU(0, 0.000% Params, 14.34 KMac, 0.001% MACs, alpha=1.0)
        (maxPool): MaxPool1d(0, 0.000% Params, 14.34 KMac, 0.001% MACs, kernel_size=3, stride=2, padding=1, dilation=1, ceil_mode=False)
      )
    )
    (norm): LayerNorm(0, 0.000% Params, 0.0 Mac, 0.000% MACs, (512,), eps=1e-05, elementwise_affine=True)
  )
  (decoder): Decoder(
    12.77 M, 44.421% Params, 1.63 GMac, 65.998% MACs, 
    (layers): ModuleList(
      12.6 M, 43.848% Params, 1.61 GMac, 65.041% MACs, 
      (0): DecoderLayer(
        4.2 M, 14.616% Params, 536.2 MMac, 21.680% MACs, 
        (self_attention): AttentionLayer(
          1.05 M, 3.655% Params, 151.0 MMac, 6.105% MACs, 
          (inner_attention): ProbAttention(
            0, 0.000% Params, 0.0 Mac, 0.000% MACs, 
            (dropout): Dropout(0, 0.000% Params, 0.0 Mac, 0.000% MACs, p=0.05, inplace=False)
          )
          (query_projection): Linear(262.66 k, 0.914% Params, 37.75 MMac, 1.526% MACs, in_features=512, out_features=512, bias=True)
          (key_projection): Linear(262.66 k, 0.914% Params, 37.75 MMac, 1.526% MACs, in_features=512, out_features=512, bias=True)
          (value_projection): Linear(262.66 k, 0.914% Params, 37.75 MMac, 1.526% MACs, in_features=512, out_features=512, bias=True)
          (out_projection): Linear(262.66 k, 0.914% Params, 37.75 MMac, 1.526% MACs, in_features=512, out_features=512, bias=True)
        )
        (cross_attention): AttentionLayer(
          1.05 M, 3.655% Params, 82.84 MMac, 3.350% MACs, 
          (inner_attention): ProbAttention(
            0, 0.000% Params, 0.0 Mac, 0.000% MACs, 
            (dropout): Dropout(0, 0.000% Params, 0.0 Mac, 0.000% MACs, p=0.05, inplace=False)
          )
          (query_projection): Linear(262.66 k, 0.914% Params, 37.75 MMac, 1.526% MACs, in_features=512, out_features=512, bias=True)
          (key_projection): Linear(262.66 k, 0.914% Params, 3.67 MMac, 0.148% MACs, in_features=512, out_features=512, bias=True)
          (value_projection): Linear(262.66 k, 0.914% Params, 3.67 MMac, 0.148% MACs, in_features=512, out_features=512, bias=True)
          (out_projection): Linear(262.66 k, 0.914% Params, 37.75 MMac, 1.526% MACs, in_features=512, out_features=512, bias=True)
        )
        (conv1): Conv1d(1.05 M, 3.655% Params, 151.29 MMac, 6.117% MACs, 512, 2048, kernel_size=(1,), stride=(1,))
        (conv2): Conv1d(1.05 M, 3.650% Params, 151.07 MMac, 6.108% MACs, 2048, 512, kernel_size=(1,), stride=(1,))
        (norm1): LayerNorm(0, 0.000% Params, 0.0 Mac, 0.000% MACs, (512,), eps=1e-05, elementwise_affine=True)
        (norm2): LayerNorm(0, 0.000% Params, 0.0 Mac, 0.000% MACs, (512,), eps=1e-05, elementwise_affine=True)
        (norm3): LayerNorm(0, 0.000% Params, 0.0 Mac, 0.000% MACs, (512,), eps=1e-05, elementwise_affine=True)
        (dropout): Dropout(0, 0.000% Params, 0.0 Mac, 0.000% MACs, p=0.05, inplace=False)
      )
      (1): DecoderLayer(
        4.2 M, 14.616% Params, 536.2 MMac, 21.680% MACs, 
        (self_attention): AttentionLayer(
          1.05 M, 3.655% Params, 151.0 MMac, 6.105% MACs, 
          (inner_attention): ProbAttention(
            0, 0.000% Params, 0.0 Mac, 0.000% MACs, 
            (dropout): Dropout(0, 0.000% Params, 0.0 Mac, 0.000% MACs, p=0.05, inplace=False)
          )
          (query_projection): Linear(262.66 k, 0.914% Params, 37.75 MMac, 1.526% MACs, in_features=512, out_features=512, bias=True)
          (key_projection): Linear(262.66 k, 0.914% Params, 37.75 MMac, 1.526% MACs, in_features=512, out_features=512, bias=True)
          (value_projection): Linear(262.66 k, 0.914% Params, 37.75 MMac, 1.526% MACs, in_features=512, out_features=512, bias=True)
          (out_projection): Linear(262.66 k, 0.914% Params, 37.75 MMac, 1.526% MACs, in_features=512, out_features=512, bias=True)
        )
        (cross_attention): AttentionLayer(
          1.05 M, 3.655% Params, 82.84 MMac, 3.350% MACs, 
          (inner_attention): ProbAttention(
            0, 0.000% Params, 0.0 Mac, 0.000% MACs, 
            (dropout): Dropout(0, 0.000% Params, 0.0 Mac, 0.000% MACs, p=0.05, inplace=False)
          )
          (query_projection): Linear(262.66 k, 0.914% Params, 37.75 MMac, 1.526% MACs, in_features=512, out_features=512, bias=True)
          (key_projection): Linear(262.66 k, 0.914% Params, 3.67 MMac, 0.148% MACs, in_features=512, out_features=512, bias=True)
          (value_projection): Linear(262.66 k, 0.914% Params, 3.67 MMac, 0.148% MACs, in_features=512, out_features=512, bias=True)
          (out_projection): Linear(262.66 k, 0.914% Params, 37.75 MMac, 1.526% MACs, in_features=512, out_features=512, bias=True)
        )
        (conv1): Conv1d(1.05 M, 3.655% Params, 151.29 MMac, 6.117% MACs, 512, 2048, kernel_size=(1,), stride=(1,))
        (conv2): Conv1d(1.05 M, 3.650% Params, 151.07 MMac, 6.108% MACs, 2048, 512, kernel_size=(1,), stride=(1,))
        (norm1): LayerNorm(0, 0.000% Params, 0.0 Mac, 0.000% MACs, (512,), eps=1e-05, elementwise_affine=True)
        (norm2): LayerNorm(0, 0.000% Params, 0.0 Mac, 0.000% MACs, (512,), eps=1e-05, elementwise_affine=True)
        (norm3): LayerNorm(0, 0.000% Params, 0.0 Mac, 0.000% MACs, (512,), eps=1e-05, elementwise_affine=True)
        (dropout): Dropout(0, 0.000% Params, 0.0 Mac, 0.000% MACs, p=0.05, inplace=False)
      )
      (2): DecoderLayer(
        4.2 M, 14.616% Params, 536.2 MMac, 21.680% MACs, 
        (self_attention): AttentionLayer(
          1.05 M, 3.655% Params, 151.0 MMac, 6.105% MACs, 
          (inner_attention): ProbAttention(
            0, 0.000% Params, 0.0 Mac, 0.000% MACs, 
            (dropout): Dropout(0, 0.000% Params, 0.0 Mac, 0.000% MACs, p=0.05, inplace=False)
          )
          (query_projection): Linear(262.66 k, 0.914% Params, 37.75 MMac, 1.526% MACs, in_features=512, out_features=512, bias=True)
          (key_projection): Linear(262.66 k, 0.914% Params, 37.75 MMac, 1.526% MACs, in_features=512, out_features=512, bias=True)
          (value_projection): Linear(262.66 k, 0.914% Params, 37.75 MMac, 1.526% MACs, in_features=512, out_features=512, bias=True)
          (out_projection): Linear(262.66 k, 0.914% Params, 37.75 MMac, 1.526% MACs, in_features=512, out_features=512, bias=True)
        )
        (cross_attention): AttentionLayer(
          1.05 M, 3.655% Params, 82.84 MMac, 3.350% MACs, 
          (inner_attention): ProbAttention(
            0, 0.000% Params, 0.0 Mac, 0.000% MACs, 
            (dropout): Dropout(0, 0.000% Params, 0.0 Mac, 0.000% MACs, p=0.05, inplace=False)
          )
          (query_projection): Linear(262.66 k, 0.914% Params, 37.75 MMac, 1.526% MACs, in_features=512, out_features=512, bias=True)
          (key_projection): Linear(262.66 k, 0.914% Params, 3.67 MMac, 0.148% MACs, in_features=512, out_features=512, bias=True)
          (value_projection): Linear(262.66 k, 0.914% Params, 3.67 MMac, 0.148% MACs, in_features=512, out_features=512, bias=True)
          (out_projection): Linear(262.66 k, 0.914% Params, 37.75 MMac, 1.526% MACs, in_features=512, out_features=512, bias=True)
        )
        (conv1): Conv1d(1.05 M, 3.655% Params, 151.29 MMac, 6.117% MACs, 512, 2048, kernel_size=(1,), stride=(1,))
        (conv2): Conv1d(1.05 M, 3.650% Params, 151.07 MMac, 6.108% MACs, 2048, 512, kernel_size=(1,), stride=(1,))
        (norm1): LayerNorm(0, 0.000% Params, 0.0 Mac, 0.000% MACs, (512,), eps=1e-05, elementwise_affine=True)
        (norm2): LayerNorm(0, 0.000% Params, 0.0 Mac, 0.000% MACs, (512,), eps=1e-05, elementwise_affine=True)
        (norm3): LayerNorm(0, 0.000% Params, 0.0 Mac, 0.000% MACs, (512,), eps=1e-05, elementwise_affine=True)
        (dropout): Dropout(0, 0.000% Params, 0.0 Mac, 0.000% MACs, p=0.05, inplace=False)
      )
    )
    (norm): LayerNorm(0, 0.000% Params, 0.0 Mac, 0.000% MACs, (512,), eps=1e-05, elementwise_affine=True)
    (projection): Linear(164.67 k, 0.573% Params, 23.67 MMac, 0.957% MACs, in_features=512, out_features=321, bias=True)
  )
)
Computational complexity:       2.47 GMac
Number of parameters:           28.74 M 
