…
INFO: Trainable parameter count: 31.81M
INFO: Trainable parameter count: 31.81M
INFO: Trainable parameter count: 31.82M
INFO: Trainable parameter count: 31.82M
INFO: Trainable parameter count: 31.82M
INFO: Trainable parameter count: 31.82M
INFO: Trainable parameter count: 31.82M
INFO: Trainable parameter count: 31.82M
INFO: Trainable parameter count: 31.82M
Model(
  31.8 M, 99.929% Params, 2.87 GMac, 100.000% MACs, 
  (enc_embedding): DataEmbedding(
    12.8 k, 0.040% Params, 1.23 MMac, 0.043% MACs, 
    (value_embedding): TokenEmbedding(
      10.75 k, 0.034% Params, 1.03 MMac, 0.036% MACs, 
      (tokenConv): Conv1d(10.75 k, 0.034% Params, 1.03 MMac, 0.036% MACs, 7, 512, kernel_size=(3,), stride=(1,), padding=(1,), bias=False, padding_mode=circular)
    )
    (position_embedding): PositionalEmbedding(0, 0.000% Params, 0.0 Mac, 0.000% MACs, )
    (temporal_embedding): TimeFeatureEmbedding(
      2.05 k, 0.006% Params, 196.61 KMac, 0.007% MACs, 
      (embed): Linear(2.05 k, 0.006% Params, 196.61 KMac, 0.007% MACs, in_features=4, out_features=512, bias=False)
    )
    (dropout): Dropout(0, 0.000% Params, 0.0 Mac, 0.000% MACs, p=0.05, inplace=False)
  )
  (dec_embedding): DataEmbedding(
    12.8 k, 0.040% Params, 1.84 MMac, 0.064% MACs, 
    (value_embedding): TokenEmbedding(
      10.75 k, 0.034% Params, 1.55 MMac, 0.054% MACs, 
      (tokenConv): Conv1d(10.75 k, 0.034% Params, 1.55 MMac, 0.054% MACs, 7, 512, kernel_size=(3,), stride=(1,), padding=(1,), bias=False, padding_mode=circular)
    )
    (position_embedding): PositionalEmbedding(0, 0.000% Params, 0.0 Mac, 0.000% MACs, )
    (temporal_embedding): TimeFeatureEmbedding(
      2.05 k, 0.006% Params, 294.91 KMac, 0.010% MACs, 
      (embed): Linear(2.05 k, 0.006% Params, 294.91 KMac, 0.010% MACs, in_features=4, out_features=512, bias=False)
    )
    (dropout): Dropout(0, 0.000% Params, 0.0 Mac, 0.000% MACs, p=0.05, inplace=False)
  )
  (encoder): Encoder(
    14.97 M, 47.030% Params, 722.09 MMac, 25.156% MACs, 
    (attn_layers): ModuleList(
      12.6 M, 39.601% Params, 582.44 MMac, 20.291% MACs, 
      (0): EncoderLayer(
        3.15 M, 9.900% Params, 302.24 MMac, 10.529% MACs, 
        (attention): AttentionLayer(
          1.05 M, 3.302% Params, 100.67 MMac, 3.507% MACs, 
          (inner_attention): ProbAttention(
            0, 0.000% Params, 0.0 Mac, 0.000% MACs, 
            (dropout): Dropout(0, 0.000% Params, 0.0 Mac, 0.000% MACs, p=0.05, inplace=False)
          )
          (query_projection): Linear(262.66 k, 0.825% Params, 25.17 MMac, 0.877% MACs, in_features=512, out_features=512, bias=True)
          (key_projection): Linear(262.66 k, 0.825% Params, 25.17 MMac, 0.877% MACs, in_features=512, out_features=512, bias=True)
          (value_projection): Linear(262.66 k, 0.825% Params, 25.17 MMac, 0.877% MACs, in_features=512, out_features=512, bias=True)
          (out_projection): Linear(262.66 k, 0.825% Params, 25.17 MMac, 0.877% MACs, in_features=512, out_features=512, bias=True)
        )
        (conv1): Conv1d(1.05 M, 3.302% Params, 100.86 MMac, 3.514% MACs, 512, 2048, kernel_size=(1,), stride=(1,))
        (conv2): Conv1d(1.05 M, 3.297% Params, 100.71 MMac, 3.509% MACs, 2048, 512, kernel_size=(1,), stride=(1,))
        (norm1): LayerNorm(0, 0.000% Params, 0.0 Mac, 0.000% MACs, (512,), eps=1e-05, elementwise_affine=True)
        (norm2): LayerNorm(0, 0.000% Params, 0.0 Mac, 0.000% MACs, (512,), eps=1e-05, elementwise_affine=True)
        (dropout): Dropout(0, 0.000% Params, 0.0 Mac, 0.000% MACs, p=0.05, inplace=False)
      )
      (1): EncoderLayer(
        3.15 M, 9.900% Params, 154.27 MMac, 5.374% MACs, 
        (attention): AttentionLayer(
          1.05 M, 3.302% Params, 51.38 MMac, 1.790% MACs, 
          (inner_attention): ProbAttention(
            0, 0.000% Params, 0.0 Mac, 0.000% MACs, 
            (dropout): Dropout(0, 0.000% Params, 0.0 Mac, 0.000% MACs, p=0.05, inplace=False)
          )
          (query_projection): Linear(262.66 k, 0.825% Params, 12.85 MMac, 0.448% MACs, in_features=512, out_features=512, bias=True)
          (key_projection): Linear(262.66 k, 0.825% Params, 12.85 MMac, 0.448% MACs, in_features=512, out_features=512, bias=True)
          (value_projection): Linear(262.66 k, 0.825% Params, 12.85 MMac, 0.448% MACs, in_features=512, out_features=512, bias=True)
          (out_projection): Linear(262.66 k, 0.825% Params, 12.85 MMac, 0.448% MACs, in_features=512, out_features=512, bias=True)
        )
        (conv1): Conv1d(1.05 M, 3.302% Params, 51.48 MMac, 1.793% MACs, 512, 2048, kernel_size=(1,), stride=(1,))
        (conv2): Conv1d(1.05 M, 3.297% Params, 51.41 MMac, 1.791% MACs, 2048, 512, kernel_size=(1,), stride=(1,))
        (norm1): LayerNorm(0, 0.000% Params, 0.0 Mac, 0.000% MACs, (512,), eps=1e-05, elementwise_affine=True)
        (norm2): LayerNorm(0, 0.000% Params, 0.0 Mac, 0.000% MACs, (512,), eps=1e-05, elementwise_affine=True)
        (dropout): Dropout(0, 0.000% Params, 0.0 Mac, 0.000% MACs, p=0.05, inplace=False)
      )
      (2): EncoderLayer(
        3.15 M, 9.900% Params, 81.86 MMac, 2.852% MACs, 
        (attention): AttentionLayer(
          1.05 M, 3.302% Params, 27.27 MMac, 0.950% MACs, 
          (inner_attention): ProbAttention(
            0, 0.000% Params, 0.0 Mac, 0.000% MACs, 
            (dropout): Dropout(0, 0.000% Params, 0.0 Mac, 0.000% MACs, p=0.05, inplace=False)
          )
          (query_projection): Linear(262.66 k, 0.825% Params, 6.82 MMac, 0.237% MACs, in_features=512, out_features=512, bias=True)
          (key_projection): Linear(262.66 k, 0.825% Params, 6.82 MMac, 0.237% MACs, in_features=512, out_features=512, bias=True)
          (value_projection): Linear(262.66 k, 0.825% Params, 6.82 MMac, 0.237% MACs, in_features=512, out_features=512, bias=True)
          (out_projection): Linear(262.66 k, 0.825% Params, 6.82 MMac, 0.237% MACs, in_features=512, out_features=512, bias=True)
        )
        (conv1): Conv1d(1.05 M, 3.302% Params, 27.32 MMac, 0.952% MACs, 512, 2048, kernel_size=(1,), stride=(1,))
        (conv2): Conv1d(1.05 M, 3.297% Params, 27.28 MMac, 0.950% MACs, 2048, 512, kernel_size=(1,), stride=(1,))
        (norm1): LayerNorm(0, 0.000% Params, 0.0 Mac, 0.000% MACs, (512,), eps=1e-05, elementwise_affine=True)
        (norm2): LayerNorm(0, 0.000% Params, 0.0 Mac, 0.000% MACs, (512,), eps=1e-05, elementwise_affine=True)
        (dropout): Dropout(0, 0.000% Params, 0.0 Mac, 0.000% MACs, p=0.05, inplace=False)
      )
      (3): EncoderLayer(
        3.15 M, 9.900% Params, 44.08 MMac, 1.536% MACs, 
        (attention): AttentionLayer(
          1.05 M, 3.302% Params, 14.68 MMac, 0.511% MACs, 
          (inner_attention): ProbAttention(
            0, 0.000% Params, 0.0 Mac, 0.000% MACs, 
            (dropout): Dropout(0, 0.000% Params, 0.0 Mac, 0.000% MACs, p=0.05, inplace=False)
          )
          (query_projection): Linear(262.66 k, 0.825% Params, 3.67 MMac, 0.128% MACs, in_features=512, out_features=512, bias=True)
          (key_projection): Linear(262.66 k, 0.825% Params, 3.67 MMac, 0.128% MACs, in_features=512, out_features=512, bias=True)
          (value_projection): Linear(262.66 k, 0.825% Params, 3.67 MMac, 0.128% MACs, in_features=512, out_features=512, bias=True)
          (out_projection): Linear(262.66 k, 0.825% Params, 3.67 MMac, 0.128% MACs, in_features=512, out_features=512, bias=True)
        )
        (conv1): Conv1d(1.05 M, 3.302% Params, 14.71 MMac, 0.512% MACs, 512, 2048, kernel_size=(1,), stride=(1,))
        (conv2): Conv1d(1.05 M, 3.297% Params, 14.69 MMac, 0.512% MACs, 2048, 512, kernel_size=(1,), stride=(1,))
        (norm1): LayerNorm(0, 0.000% Params, 0.0 Mac, 0.000% MACs, (512,), eps=1e-05, elementwise_affine=True)
        (norm2): LayerNorm(0, 0.000% Params, 0.0 Mac, 0.000% MACs, (512,), eps=1e-05, elementwise_affine=True)
        (dropout): Dropout(0, 0.000% Params, 0.0 Mac, 0.000% MACs, p=0.05, inplace=False)
      )
    )
    (conv_layers): ModuleList(
      2.36 M, 7.429% Params, 139.65 MMac, 4.865% MACs, 
      (0): ConvLayer(
        787.97 k, 2.476% Params, 77.32 MMac, 2.694% MACs, 
        (downConv): Conv1d(786.94 k, 2.473% Params, 77.12 MMac, 2.687% MACs, 512, 512, kernel_size=(3,), stride=(1,), padding=(2,), padding_mode=circular)
        (norm): BatchNorm1d(1.02 k, 0.003% Params, 100.35 KMac, 0.003% MACs, 512, eps=1e-05, momentum=0.1, affine=True, track_running_stats=True)
        (activation): ELU(0, 0.000% Params, 50.18 KMac, 0.002% MACs, alpha=1.0)
        (maxPool): MaxPool1d(0, 0.000% Params, 50.18 KMac, 0.002% MACs, kernel_size=3, stride=2, padding=1, dilation=1, ceil_mode=False)
      )
      (1): ConvLayer(
        787.97 k, 2.476% Params, 40.24 MMac, 1.402% MACs, 
        (downConv): Conv1d(786.94 k, 2.473% Params, 40.13 MMac, 1.398% MACs, 512, 512, kernel_size=(3,), stride=(1,), padding=(2,), padding_mode=circular)
        (norm): BatchNorm1d(1.02 k, 0.003% Params, 52.22 KMac, 0.002% MACs, 512, eps=1e-05, momentum=0.1, affine=True, track_running_stats=True)
        (activation): ELU(0, 0.000% Params, 26.11 KMac, 0.001% MACs, alpha=1.0)
        (maxPool): MaxPool1d(0, 0.000% Params, 26.11 KMac, 0.001% MACs, kernel_size=3, stride=2, padding=1, dilation=1, ceil_mode=False)
      )
      (2): ConvLayer(
        787.97 k, 2.476% Params, 22.09 MMac, 0.770% MACs, 
        (downConv): Conv1d(786.94 k, 2.473% Params, 22.03 MMac, 0.768% MACs, 512, 512, kernel_size=(3,), stride=(1,), padding=(2,), padding_mode=circular)
        (norm): BatchNorm1d(1.02 k, 0.003% Params, 28.67 KMac, 0.001% MACs, 512, eps=1e-05, momentum=0.1, affine=True, track_running_stats=True)
        (activation): ELU(0, 0.000% Params, 14.34 KMac, 0.000% MACs, alpha=1.0)
        (maxPool): MaxPool1d(0, 0.000% Params, 14.34 KMac, 0.000% MACs, kernel_size=3, stride=2, padding=1, dilation=1, ceil_mode=False)
      )
    )
    (norm): LayerNorm(0, 0.000% Params, 0.0 Mac, 0.000% MACs, (512,), eps=1e-05, elementwise_affine=True)
  )
  (decoder): Decoder(
    16.81 M, 52.819% Params, 2.15 GMac, 74.737% MACs, 
    (layers): ModuleList(
      16.8 M, 52.808% Params, 2.14 GMac, 74.719% MACs, 
      (0): DecoderLayer(
        4.2 M, 13.202% Params, 536.2 MMac, 18.680% MACs, 
        (self_attention): AttentionLayer(
          1.05 M, 3.302% Params, 151.0 MMac, 5.260% MACs, 
          (inner_attention): ProbAttention(
            0, 0.000% Params, 0.0 Mac, 0.000% MACs, 
            (dropout): Dropout(0, 0.000% Params, 0.0 Mac, 0.000% MACs, p=0.05, inplace=False)
          )
          (query_projection): Linear(262.66 k, 0.825% Params, 37.75 MMac, 1.315% MACs, in_features=512, out_features=512, bias=True)
          (key_projection): Linear(262.66 k, 0.825% Params, 37.75 MMac, 1.315% MACs, in_features=512, out_features=512, bias=True)
          (value_projection): Linear(262.66 k, 0.825% Params, 37.75 MMac, 1.315% MACs, in_features=512, out_features=512, bias=True)
          (out_projection): Linear(262.66 k, 0.825% Params, 37.75 MMac, 1.315% MACs, in_features=512, out_features=512, bias=True)
        )
        (cross_attention): AttentionLayer(
          1.05 M, 3.302% Params, 82.84 MMac, 2.886% MACs, 
          (inner_attention): ProbAttention(
            0, 0.000% Params, 0.0 Mac, 0.000% MACs, 
            (dropout): Dropout(0, 0.000% Params, 0.0 Mac, 0.000% MACs, p=0.05, inplace=False)
          )
          (query_projection): Linear(262.66 k, 0.825% Params, 37.75 MMac, 1.315% MACs, in_features=512, out_features=512, bias=True)
          (key_projection): Linear(262.66 k, 0.825% Params, 3.67 MMac, 0.128% MACs, in_features=512, out_features=512, bias=True)
          (value_projection): Linear(262.66 k, 0.825% Params, 3.67 MMac, 0.128% MACs, in_features=512, out_features=512, bias=True)
          (out_projection): Linear(262.66 k, 0.825% Params, 37.75 MMac, 1.315% MACs, in_features=512, out_features=512, bias=True)
        )
        (conv1): Conv1d(1.05 M, 3.302% Params, 151.29 MMac, 5.271% MACs, 512, 2048, kernel_size=(1,), stride=(1,))
        (conv2): Conv1d(1.05 M, 3.297% Params, 151.07 MMac, 5.263% MACs, 2048, 512, kernel_size=(1,), stride=(1,))
        (norm1): LayerNorm(0, 0.000% Params, 0.0 Mac, 0.000% MACs, (512,), eps=1e-05, elementwise_affine=True)
        (norm2): LayerNorm(0, 0.000% Params, 0.0 Mac, 0.000% MACs, (512,), eps=1e-05, elementwise_affine=True)
        (norm3): LayerNorm(0, 0.000% Params, 0.0 Mac, 0.000% MACs, (512,), eps=1e-05, elementwise_affine=True)
        (dropout): Dropout(0, 0.000% Params, 0.0 Mac, 0.000% MACs, p=0.05, inplace=False)
      )
      (1): DecoderLayer(
        4.2 M, 13.202% Params, 536.2 MMac, 18.680% MACs, 
        (self_attention): AttentionLayer(
          1.05 M, 3.302% Params, 151.0 MMac, 5.260% MACs, 
          (inner_attention): ProbAttention(
            0, 0.000% Params, 0.0 Mac, 0.000% MACs, 
            (dropout): Dropout(0, 0.000% Params, 0.0 Mac, 0.000% MACs, p=0.05, inplace=False)
          )
          (query_projection): Linear(262.66 k, 0.825% Params, 37.75 MMac, 1.315% MACs, in_features=512, out_features=512, bias=True)
          (key_projection): Linear(262.66 k, 0.825% Params, 37.75 MMac, 1.315% MACs, in_features=512, out_features=512, bias=True)
          (value_projection): Linear(262.66 k, 0.825% Params, 37.75 MMac, 1.315% MACs, in_features=512, out_features=512, bias=True)
          (out_projection): Linear(262.66 k, 0.825% Params, 37.75 MMac, 1.315% MACs, in_features=512, out_features=512, bias=True)
        )
        (cross_attention): AttentionLayer(
          1.05 M, 3.302% Params, 82.84 MMac, 2.886% MACs, 
          (inner_attention): ProbAttention(
            0, 0.000% Params, 0.0 Mac, 0.000% MACs, 
            (dropout): Dropout(0, 0.000% Params, 0.0 Mac, 0.000% MACs, p=0.05, inplace=False)
          )
          (query_projection): Linear(262.66 k, 0.825% Params, 37.75 MMac, 1.315% MACs, in_features=512, out_features=512, bias=True)
          (key_projection): Linear(262.66 k, 0.825% Params, 3.67 MMac, 0.128% MACs, in_features=512, out_features=512, bias=True)
          (value_projection): Linear(262.66 k, 0.825% Params, 3.67 MMac, 0.128% MACs, in_features=512, out_features=512, bias=True)
          (out_projection): Linear(262.66 k, 0.825% Params, 37.75 MMac, 1.315% MACs, in_features=512, out_features=512, bias=True)
        )
        (conv1): Conv1d(1.05 M, 3.302% Params, 151.29 MMac, 5.271% MACs, 512, 2048, kernel_size=(1,), stride=(1,))
        (conv2): Conv1d(1.05 M, 3.297% Params, 151.07 MMac, 5.263% MACs, 2048, 512, kernel_size=(1,), stride=(1,))
        (norm1): LayerNorm(0, 0.000% Params, 0.0 Mac, 0.000% MACs, (512,), eps=1e-05, elementwise_affine=True)
        (norm2): LayerNorm(0, 0.000% Params, 0.0 Mac, 0.000% MACs, (512,), eps=1e-05, elementwise_affine=True)
        (norm3): LayerNorm(0, 0.000% Params, 0.0 Mac, 0.000% MACs, (512,), eps=1e-05, elementwise_affine=True)
        (dropout): Dropout(0, 0.000% Params, 0.0 Mac, 0.000% MACs, p=0.05, inplace=False)
      )
      (2): DecoderLayer(
        4.2 M, 13.202% Params, 536.2 MMac, 18.680% MACs, 
        (self_attention): AttentionLayer(
          1.05 M, 3.302% Params, 151.0 MMac, 5.260% MACs, 
          (inner_attention): ProbAttention(
            0, 0.000% Params, 0.0 Mac, 0.000% MACs, 
            (dropout): Dropout(0, 0.000% Params, 0.0 Mac, 0.000% MACs, p=0.05, inplace=False)
          )
          (query_projection): Linear(262.66 k, 0.825% Params, 37.75 MMac, 1.315% MACs, in_features=512, out_features=512, bias=True)
          (key_projection): Linear(262.66 k, 0.825% Params, 37.75 MMac, 1.315% MACs, in_features=512, out_features=512, bias=True)
          (value_projection): Linear(262.66 k, 0.825% Params, 37.75 MMac, 1.315% MACs, in_features=512, out_features=512, bias=True)
          (out_projection): Linear(262.66 k, 0.825% Params, 37.75 MMac, 1.315% MACs, in_features=512, out_features=512, bias=True)
        )
        (cross_attention): AttentionLayer(
          1.05 M, 3.302% Params, 82.84 MMac, 2.886% MACs, 
          (inner_attention): ProbAttention(
            0, 0.000% Params, 0.0 Mac, 0.000% MACs, 
            (dropout): Dropout(0, 0.000% Params, 0.0 Mac, 0.000% MACs, p=0.05, inplace=False)
          )
          (query_projection): Linear(262.66 k, 0.825% Params, 37.75 MMac, 1.315% MACs, in_features=512, out_features=512, bias=True)
          (key_projection): Linear(262.66 k, 0.825% Params, 3.67 MMac, 0.128% MACs, in_features=512, out_features=512, bias=True)
          (value_projection): Linear(262.66 k, 0.825% Params, 3.67 MMac, 0.128% MACs, in_features=512, out_features=512, bias=True)
          (out_projection): Linear(262.66 k, 0.825% Params, 37.75 MMac, 1.315% MACs, in_features=512, out_features=512, bias=True)
        )
        (conv1): Conv1d(1.05 M, 3.302% Params, 151.29 MMac, 5.271% MACs, 512, 2048, kernel_size=(1,), stride=(1,))
        (conv2): Conv1d(1.05 M, 3.297% Params, 151.07 MMac, 5.263% MACs, 2048, 512, kernel_size=(1,), stride=(1,))
        (norm1): LayerNorm(0, 0.000% Params, 0.0 Mac, 0.000% MACs, (512,), eps=1e-05, elementwise_affine=True)
        (norm2): LayerNorm(0, 0.000% Params, 0.0 Mac, 0.000% MACs, (512,), eps=1e-05, elementwise_affine=True)
        (norm3): LayerNorm(0, 0.000% Params, 0.0 Mac, 0.000% MACs, (512,), eps=1e-05, elementwise_affine=True)
        (dropout): Dropout(0, 0.000% Params, 0.0 Mac, 0.000% MACs, p=0.05, inplace=False)
      )
      (3): DecoderLayer(
        4.2 M, 13.202% Params, 536.2 MMac, 18.680% MACs, 
        (self_attention): AttentionLayer(
          1.05 M, 3.302% Params, 151.0 MMac, 5.260% MACs, 
          (inner_attention): ProbAttention(
            0, 0.000% Params, 0.0 Mac, 0.000% MACs, 
            (dropout): Dropout(0, 0.000% Params, 0.0 Mac, 0.000% MACs, p=0.05, inplace=False)
          )
          (query_projection): Linear(262.66 k, 0.825% Params, 37.75 MMac, 1.315% MACs, in_features=512, out_features=512, bias=True)
          (key_projection): Linear(262.66 k, 0.825% Params, 37.75 MMac, 1.315% MACs, in_features=512, out_features=512, bias=True)
          (value_projection): Linear(262.66 k, 0.825% Params, 37.75 MMac, 1.315% MACs, in_features=512, out_features=512, bias=True)
          (out_projection): Linear(262.66 k, 0.825% Params, 37.75 MMac, 1.315% MACs, in_features=512, out_features=512, bias=True)
        )
        (cross_attention): AttentionLayer(
          1.05 M, 3.302% Params, 82.84 MMac, 2.886% MACs, 
          (inner_attention): ProbAttention(
            0, 0.000% Params, 0.0 Mac, 0.000% MACs, 
            (dropout): Dropout(0, 0.000% Params, 0.0 Mac, 0.000% MACs, p=0.05, inplace=False)
          )
          (query_projection): Linear(262.66 k, 0.825% Params, 37.75 MMac, 1.315% MACs, in_features=512, out_features=512, bias=True)
          (key_projection): Linear(262.66 k, 0.825% Params, 3.67 MMac, 0.128% MACs, in_features=512, out_features=512, bias=True)
          (value_projection): Linear(262.66 k, 0.825% Params, 3.67 MMac, 0.128% MACs, in_features=512, out_features=512, bias=True)
          (out_projection): Linear(262.66 k, 0.825% Params, 37.75 MMac, 1.315% MACs, in_features=512, out_features=512, bias=True)
        )
        (conv1): Conv1d(1.05 M, 3.302% Params, 151.29 MMac, 5.271% MACs, 512, 2048, kernel_size=(1,), stride=(1,))
        (conv2): Conv1d(1.05 M, 3.297% Params, 151.07 MMac, 5.263% MACs, 2048, 512, kernel_size=(1,), stride=(1,))
        (norm1): LayerNorm(0, 0.000% Params, 0.0 Mac, 0.000% MACs, (512,), eps=1e-05, elementwise_affine=True)
        (norm2): LayerNorm(0, 0.000% Params, 0.0 Mac, 0.000% MACs, (512,), eps=1e-05, elementwise_affine=True)
        (norm3): LayerNorm(0, 0.000% Params, 0.0 Mac, 0.000% MACs, (512,), eps=1e-05, elementwise_affine=True)
        (dropout): Dropout(0, 0.000% Params, 0.0 Mac, 0.000% MACs, p=0.05, inplace=False)
      )
    )
    (norm): LayerNorm(0, 0.000% Params, 0.0 Mac, 0.000% MACs, (512,), eps=1e-05, elementwise_affine=True)
    (projection): Linear(3.59 k, 0.011% Params, 516.1 KMac, 0.018% MACs, in_features=512, out_features=7, bias=True)
  )
)
Computational complexity:       2.87 GMac
Number of parameters:           31.82 M 
