…
INFO: Trainable parameter count: 24.37M
INFO: Trainable parameter count: 24.37M
INFO: Trainable parameter count: 24.37M
INFO: Trainable parameter count: 24.37M
INFO: Trainable parameter count: 24.37M
INFO: Trainable parameter count: 24.37M
INFO: Trainable parameter count: 24.37M
INFO: Trainable parameter count: 24.54M
INFO: Trainable parameter count: 24.54M
Model(
  24.52 M, 99.933% Params, 1.94 GMac, 100.000% MACs, 
  (enc_embedding): DataEmbedding(
    495.1 k, 2.018% Params, 47.53 MMac, 2.454% MACs, 
    (value_embedding): TokenEmbedding(
      493.06 k, 2.009% Params, 47.33 MMac, 2.444% MACs, 
      (tokenConv): Conv1d(493.06 k, 2.009% Params, 47.33 MMac, 2.444% MACs, 321, 512, kernel_size=(3,), stride=(1,), padding=(1,), bias=False, padding_mode=circular)
    )
    (position_embedding): PositionalEmbedding(0, 0.000% Params, 0.0 Mac, 0.000% MACs, )
    (temporal_embedding): TimeFeatureEmbedding(
      2.05 k, 0.008% Params, 196.61 KMac, 0.010% MACs, 
      (embed): Linear(2.05 k, 0.008% Params, 196.61 KMac, 0.010% MACs, in_features=4, out_features=512, bias=False)
    )
    (dropout): Dropout(0, 0.000% Params, 0.0 Mac, 0.000% MACs, p=0.05, inplace=False)
  )
  (dec_embedding): DataEmbedding(
    495.1 k, 2.018% Params, 71.29 MMac, 3.681% MACs, 
    (value_embedding): TokenEmbedding(
      493.06 k, 2.009% Params, 71.0 MMac, 3.666% MACs, 
      (tokenConv): Conv1d(493.06 k, 2.009% Params, 71.0 MMac, 3.666% MACs, 321, 512, kernel_size=(3,), stride=(1,), padding=(1,), bias=False, padding_mode=circular)
    )
    (position_embedding): PositionalEmbedding(0, 0.000% Params, 0.0 Mac, 0.000% MACs, )
    (temporal_embedding): TimeFeatureEmbedding(
      2.05 k, 0.008% Params, 294.91 KMac, 0.015% MACs, 
      (embed): Linear(2.05 k, 0.008% Params, 294.91 KMac, 0.015% MACs, in_features=4, out_features=512, bias=False)
    )
    (dropout): Dropout(0, 0.000% Params, 0.0 Mac, 0.000% MACs, p=0.05, inplace=False)
  )
  (encoder): Encoder(
    14.97 M, 60.987% Params, 722.09 MMac, 37.279% MACs, 
    (attn_layers): ModuleList(
      12.6 M, 51.353% Params, 582.44 MMac, 30.070% MACs, 
      (0): EncoderLayer(
        3.15 M, 12.838% Params, 302.24 MMac, 15.604% MACs, 
        (attention): AttentionLayer(
          1.05 M, 4.282% Params, 100.67 MMac, 5.197% MACs, 
          (inner_attention): ProbAttention(
            0, 0.000% Params, 0.0 Mac, 0.000% MACs, 
            (dropout): Dropout(0, 0.000% Params, 0.0 Mac, 0.000% MACs, p=0.05, inplace=False)
          )
          (query_projection): Linear(262.66 k, 1.070% Params, 25.17 MMac, 1.299% MACs, in_features=512, out_features=512, bias=True)
          (key_projection): Linear(262.66 k, 1.070% Params, 25.17 MMac, 1.299% MACs, in_features=512, out_features=512, bias=True)
          (value_projection): Linear(262.66 k, 1.070% Params, 25.17 MMac, 1.299% MACs, in_features=512, out_features=512, bias=True)
          (out_projection): Linear(262.66 k, 1.070% Params, 25.17 MMac, 1.299% MACs, in_features=512, out_features=512, bias=True)
        )
        (conv1): Conv1d(1.05 M, 4.282% Params, 100.86 MMac, 5.207% MACs, 512, 2048, kernel_size=(1,), stride=(1,))
        (conv2): Conv1d(1.05 M, 4.275% Params, 100.71 MMac, 5.199% MACs, 2048, 512, kernel_size=(1,), stride=(1,))
        (norm1): LayerNorm(0, 0.000% Params, 0.0 Mac, 0.000% MACs, (512,), eps=1e-05, elementwise_affine=True)
        (norm2): LayerNorm(0, 0.000% Params, 0.0 Mac, 0.000% MACs, (512,), eps=1e-05, elementwise_affine=True)
        (dropout): Dropout(0, 0.000% Params, 0.0 Mac, 0.000% MACs, p=0.05, inplace=False)
      )
      (1): EncoderLayer(
        3.15 M, 12.838% Params, 154.27 MMac, 7.964% MACs, 
        (attention): AttentionLayer(
          1.05 M, 4.282% Params, 51.38 MMac, 2.653% MACs, 
          (inner_attention): ProbAttention(
            0, 0.000% Params, 0.0 Mac, 0.000% MACs, 
            (dropout): Dropout(0, 0.000% Params, 0.0 Mac, 0.000% MACs, p=0.05, inplace=False)
          )
          (query_projection): Linear(262.66 k, 1.070% Params, 12.85 MMac, 0.663% MACs, in_features=512, out_features=512, bias=True)
          (key_projection): Linear(262.66 k, 1.070% Params, 12.85 MMac, 0.663% MACs, in_features=512, out_features=512, bias=True)
          (value_projection): Linear(262.66 k, 1.070% Params, 12.85 MMac, 0.663% MACs, in_features=512, out_features=512, bias=True)
          (out_projection): Linear(262.66 k, 1.070% Params, 12.85 MMac, 0.663% MACs, in_features=512, out_features=512, bias=True)
        )
        (conv1): Conv1d(1.05 M, 4.282% Params, 51.48 MMac, 2.658% MACs, 512, 2048, kernel_size=(1,), stride=(1,))
        (conv2): Conv1d(1.05 M, 4.275% Params, 51.41 MMac, 2.654% MACs, 2048, 512, kernel_size=(1,), stride=(1,))
        (norm1): LayerNorm(0, 0.000% Params, 0.0 Mac, 0.000% MACs, (512,), eps=1e-05, elementwise_affine=True)
        (norm2): LayerNorm(0, 0.000% Params, 0.0 Mac, 0.000% MACs, (512,), eps=1e-05, elementwise_affine=True)
        (dropout): Dropout(0, 0.000% Params, 0.0 Mac, 0.000% MACs, p=0.05, inplace=False)
      )
      (2): EncoderLayer(
        3.15 M, 12.838% Params, 81.86 MMac, 4.226% MACs, 
        (attention): AttentionLayer(
          1.05 M, 4.282% Params, 27.27 MMac, 1.408% MACs, 
          (inner_attention): ProbAttention(
            0, 0.000% Params, 0.0 Mac, 0.000% MACs, 
            (dropout): Dropout(0, 0.000% Params, 0.0 Mac, 0.000% MACs, p=0.05, inplace=False)
          )
          (query_projection): Linear(262.66 k, 1.070% Params, 6.82 MMac, 0.352% MACs, in_features=512, out_features=512, bias=True)
          (key_projection): Linear(262.66 k, 1.070% Params, 6.82 MMac, 0.352% MACs, in_features=512, out_features=512, bias=True)
          (value_projection): Linear(262.66 k, 1.070% Params, 6.82 MMac, 0.352% MACs, in_features=512, out_features=512, bias=True)
          (out_projection): Linear(262.66 k, 1.070% Params, 6.82 MMac, 0.352% MACs, in_features=512, out_features=512, bias=True)
        )
        (conv1): Conv1d(1.05 M, 4.282% Params, 27.32 MMac, 1.410% MACs, 512, 2048, kernel_size=(1,), stride=(1,))
        (conv2): Conv1d(1.05 M, 4.275% Params, 27.28 MMac, 1.408% MACs, 2048, 512, kernel_size=(1,), stride=(1,))
        (norm1): LayerNorm(0, 0.000% Params, 0.0 Mac, 0.000% MACs, (512,), eps=1e-05, elementwise_affine=True)
        (norm2): LayerNorm(0, 0.000% Params, 0.0 Mac, 0.000% MACs, (512,), eps=1e-05, elementwise_affine=True)
        (dropout): Dropout(0, 0.000% Params, 0.0 Mac, 0.000% MACs, p=0.05, inplace=False)
      )
      (3): EncoderLayer(
        3.15 M, 12.838% Params, 44.08 MMac, 2.276% MACs, 
        (attention): AttentionLayer(
          1.05 M, 4.282% Params, 14.68 MMac, 0.758% MACs, 
          (inner_attention): ProbAttention(
            0, 0.000% Params, 0.0 Mac, 0.000% MACs, 
            (dropout): Dropout(0, 0.000% Params, 0.0 Mac, 0.000% MACs, p=0.05, inplace=False)
          )
          (query_projection): Linear(262.66 k, 1.070% Params, 3.67 MMac, 0.189% MACs, in_features=512, out_features=512, bias=True)
          (key_projection): Linear(262.66 k, 1.070% Params, 3.67 MMac, 0.189% MACs, in_features=512, out_features=512, bias=True)
          (value_projection): Linear(262.66 k, 1.070% Params, 3.67 MMac, 0.189% MACs, in_features=512, out_features=512, bias=True)
          (out_projection): Linear(262.66 k, 1.070% Params, 3.67 MMac, 0.189% MACs, in_features=512, out_features=512, bias=True)
        )
        (conv1): Conv1d(1.05 M, 4.282% Params, 14.71 MMac, 0.759% MACs, 512, 2048, kernel_size=(1,), stride=(1,))
        (conv2): Conv1d(1.05 M, 4.275% Params, 14.69 MMac, 0.758% MACs, 2048, 512, kernel_size=(1,), stride=(1,))
        (norm1): LayerNorm(0, 0.000% Params, 0.0 Mac, 0.000% MACs, (512,), eps=1e-05, elementwise_affine=True)
        (norm2): LayerNorm(0, 0.000% Params, 0.0 Mac, 0.000% MACs, (512,), eps=1e-05, elementwise_affine=True)
        (dropout): Dropout(0, 0.000% Params, 0.0 Mac, 0.000% MACs, p=0.05, inplace=False)
      )
    )
    (conv_layers): ModuleList(
      2.36 M, 9.633% Params, 139.65 MMac, 7.210% MACs, 
      (0): ConvLayer(
        787.97 k, 3.211% Params, 77.32 MMac, 3.992% MACs, 
        (downConv): Conv1d(786.94 k, 3.207% Params, 77.12 MMac, 3.981% MACs, 512, 512, kernel_size=(3,), stride=(1,), padding=(2,), padding_mode=circular)
        (norm): BatchNorm1d(1.02 k, 0.004% Params, 100.35 KMac, 0.005% MACs, 512, eps=1e-05, momentum=0.1, affine=True, track_running_stats=True)
        (activation): ELU(0, 0.000% Params, 50.18 KMac, 0.003% MACs, alpha=1.0)
        (maxPool): MaxPool1d(0, 0.000% Params, 50.18 KMac, 0.003% MACs, kernel_size=3, stride=2, padding=1, dilation=1, ceil_mode=False)
      )
      (1): ConvLayer(
        787.97 k, 3.211% Params, 40.24 MMac, 2.077% MACs, 
        (downConv): Conv1d(786.94 k, 3.207% Params, 40.13 MMac, 2.072% MACs, 512, 512, kernel_size=(3,), stride=(1,), padding=(2,), padding_mode=circular)
        (norm): BatchNorm1d(1.02 k, 0.004% Params, 52.22 KMac, 0.003% MACs, 512, eps=1e-05, momentum=0.1, affine=True, track_running_stats=True)
        (activation): ELU(0, 0.000% Params, 26.11 KMac, 0.001% MACs, alpha=1.0)
        (maxPool): MaxPool1d(0, 0.000% Params, 26.11 KMac, 0.001% MACs, kernel_size=3, stride=2, padding=1, dilation=1, ceil_mode=False)
      )
      (2): ConvLayer(
        787.97 k, 3.211% Params, 22.09 MMac, 1.141% MACs, 
        (downConv): Conv1d(786.94 k, 3.207% Params, 22.03 MMac, 1.138% MACs, 512, 512, kernel_size=(3,), stride=(1,), padding=(2,), padding_mode=circular)
        (norm): BatchNorm1d(1.02 k, 0.004% Params, 28.67 KMac, 0.001% MACs, 512, eps=1e-05, momentum=0.1, affine=True, track_running_stats=True)
        (activation): ELU(0, 0.000% Params, 14.34 KMac, 0.001% MACs, alpha=1.0)
        (maxPool): MaxPool1d(0, 0.000% Params, 14.34 KMac, 0.001% MACs, kernel_size=3, stride=2, padding=1, dilation=1, ceil_mode=False)
      )
    )
    (norm): LayerNorm(0, 0.000% Params, 0.0 Mac, 0.000% MACs, (512,), eps=1e-05, elementwise_affine=True)
  )
  (decoder): Decoder(
    8.57 M, 34.911% Params, 1.1 GMac, 56.586% MACs, 
    (layers): ModuleList(
      8.4 M, 34.240% Params, 1.07 GMac, 55.364% MACs, 
      (0): DecoderLayer(
        4.2 M, 17.120% Params, 536.2 MMac, 27.682% MACs, 
        (self_attention): AttentionLayer(
          1.05 M, 4.282% Params, 151.0 MMac, 7.796% MACs, 
          (inner_attention): ProbAttention(
            0, 0.000% Params, 0.0 Mac, 0.000% MACs, 
            (dropout): Dropout(0, 0.000% Params, 0.0 Mac, 0.000% MACs, p=0.05, inplace=False)
          )
          (query_projection): Linear(262.66 k, 1.070% Params, 37.75 MMac, 1.949% MACs, in_features=512, out_features=512, bias=True)
          (key_projection): Linear(262.66 k, 1.070% Params, 37.75 MMac, 1.949% MACs, in_features=512, out_features=512, bias=True)
          (value_projection): Linear(262.66 k, 1.070% Params, 37.75 MMac, 1.949% MACs, in_features=512, out_features=512, bias=True)
          (out_projection): Linear(262.66 k, 1.070% Params, 37.75 MMac, 1.949% MACs, in_features=512, out_features=512, bias=True)
        )
        (cross_attention): AttentionLayer(
          1.05 M, 4.282% Params, 82.84 MMac, 4.277% MACs, 
          (inner_attention): ProbAttention(
            0, 0.000% Params, 0.0 Mac, 0.000% MACs, 
            (dropout): Dropout(0, 0.000% Params, 0.0 Mac, 0.000% MACs, p=0.05, inplace=False)
          )
          (query_projection): Linear(262.66 k, 1.070% Params, 37.75 MMac, 1.949% MACs, in_features=512, out_features=512, bias=True)
          (key_projection): Linear(262.66 k, 1.070% Params, 3.67 MMac, 0.189% MACs, in_features=512, out_features=512, bias=True)
          (value_projection): Linear(262.66 k, 1.070% Params, 3.67 MMac, 0.189% MACs, in_features=512, out_features=512, bias=True)
          (out_projection): Linear(262.66 k, 1.070% Params, 37.75 MMac, 1.949% MACs, in_features=512, out_features=512, bias=True)
        )
        (conv1): Conv1d(1.05 M, 4.282% Params, 151.29 MMac, 7.811% MACs, 512, 2048, kernel_size=(1,), stride=(1,))
        (conv2): Conv1d(1.05 M, 4.275% Params, 151.07 MMac, 7.799% MACs, 2048, 512, kernel_size=(1,), stride=(1,))
        (norm1): LayerNorm(0, 0.000% Params, 0.0 Mac, 0.000% MACs, (512,), eps=1e-05, elementwise_affine=True)
        (norm2): LayerNorm(0, 0.000% Params, 0.0 Mac, 0.000% MACs, (512,), eps=1e-05, elementwise_affine=True)
        (norm3): LayerNorm(0, 0.000% Params, 0.0 Mac, 0.000% MACs, (512,), eps=1e-05, elementwise_affine=True)
        (dropout): Dropout(0, 0.000% Params, 0.0 Mac, 0.000% MACs, p=0.05, inplace=False)
      )
      (1): DecoderLayer(
        4.2 M, 17.120% Params, 536.2 MMac, 27.682% MACs, 
        (self_attention): AttentionLayer(
          1.05 M, 4.282% Params, 151.0 MMac, 7.796% MACs, 
          (inner_attention): ProbAttention(
            0, 0.000% Params, 0.0 Mac, 0.000% MACs, 
            (dropout): Dropout(0, 0.000% Params, 0.0 Mac, 0.000% MACs, p=0.05, inplace=False)
          )
          (query_projection): Linear(262.66 k, 1.070% Params, 37.75 MMac, 1.949% MACs, in_features=512, out_features=512, bias=True)
          (key_projection): Linear(262.66 k, 1.070% Params, 37.75 MMac, 1.949% MACs, in_features=512, out_features=512, bias=True)
          (value_projection): Linear(262.66 k, 1.070% Params, 37.75 MMac, 1.949% MACs, in_features=512, out_features=512, bias=True)
          (out_projection): Linear(262.66 k, 1.070% Params, 37.75 MMac, 1.949% MACs, in_features=512, out_features=512, bias=True)
        )
        (cross_attention): AttentionLayer(
          1.05 M, 4.282% Params, 82.84 MMac, 4.277% MACs, 
          (inner_attention): ProbAttention(
            0, 0.000% Params, 0.0 Mac, 0.000% MACs, 
            (dropout): Dropout(0, 0.000% Params, 0.0 Mac, 0.000% MACs, p=0.05, inplace=False)
          )
          (query_projection): Linear(262.66 k, 1.070% Params, 37.75 MMac, 1.949% MACs, in_features=512, out_features=512, bias=True)
          (key_projection): Linear(262.66 k, 1.070% Params, 3.67 MMac, 0.189% MACs, in_features=512, out_features=512, bias=True)
          (value_projection): Linear(262.66 k, 1.070% Params, 3.67 MMac, 0.189% MACs, in_features=512, out_features=512, bias=True)
          (out_projection): Linear(262.66 k, 1.070% Params, 37.75 MMac, 1.949% MACs, in_features=512, out_features=512, bias=True)
        )
        (conv1): Conv1d(1.05 M, 4.282% Params, 151.29 MMac, 7.811% MACs, 512, 2048, kernel_size=(1,), stride=(1,))
        (conv2): Conv1d(1.05 M, 4.275% Params, 151.07 MMac, 7.799% MACs, 2048, 512, kernel_size=(1,), stride=(1,))
        (norm1): LayerNorm(0, 0.000% Params, 0.0 Mac, 0.000% MACs, (512,), eps=1e-05, elementwise_affine=True)
        (norm2): LayerNorm(0, 0.000% Params, 0.0 Mac, 0.000% MACs, (512,), eps=1e-05, elementwise_affine=True)
        (norm3): LayerNorm(0, 0.000% Params, 0.0 Mac, 0.000% MACs, (512,), eps=1e-05, elementwise_affine=True)
        (dropout): Dropout(0, 0.000% Params, 0.0 Mac, 0.000% MACs, p=0.05, inplace=False)
      )
    )
    (norm): LayerNorm(0, 0.000% Params, 0.0 Mac, 0.000% MACs, (512,), eps=1e-05, elementwise_affine=True)
    (projection): Linear(164.67 k, 0.671% Params, 23.67 MMac, 1.222% MACs, in_features=512, out_features=321, bias=True)
  )
)
Computational complexity:       1.94 GMac
Number of parameters:           24.54 M 
