…
INFO: Trainable parameter count: 15.53M
INFO: Trainable parameter count: 15.53M
INFO: Trainable parameter count: 15.53M
INFO: Trainable parameter count: 15.53M
INFO: Trainable parameter count: 15.53M
INFO: Trainable parameter count: 15.53M
INFO: Trainable parameter count: 15.53M
INFO: Trainable parameter count: 15.53M
INFO: Trainable parameter count: 15.53M
Model(
  15.52 M, 99.921% Params, 1.65 GMac, 100.000% MACs, 
  (enc_embedding): DataEmbedding(
    12.8 k, 0.082% Params, 1.23 MMac, 0.075% MACs, 
    (value_embedding): TokenEmbedding(
      10.75 k, 0.069% Params, 1.03 MMac, 0.063% MACs, 
      (tokenConv): Conv1d(10.75 k, 0.069% Params, 1.03 MMac, 0.063% MACs, 7, 512, kernel_size=(3,), stride=(1,), padding=(1,), bias=False, padding_mode=circular)
    )
    (position_embedding): PositionalEmbedding(0, 0.000% Params, 0.0 Mac, 0.000% MACs, )
    (temporal_embedding): TimeFeatureEmbedding(
      2.05 k, 0.013% Params, 196.61 KMac, 0.012% MACs, 
      (embed): Linear(2.05 k, 0.013% Params, 196.61 KMac, 0.012% MACs, in_features=4, out_features=512, bias=False)
    )
    (dropout): Dropout(0, 0.000% Params, 0.0 Mac, 0.000% MACs, p=0.05, inplace=False)
  )
  (dec_embedding): DataEmbedding(
    12.8 k, 0.082% Params, 1.84 MMac, 0.112% MACs, 
    (value_embedding): TokenEmbedding(
      10.75 k, 0.069% Params, 1.55 MMac, 0.094% MACs, 
      (tokenConv): Conv1d(10.75 k, 0.069% Params, 1.55 MMac, 0.094% MACs, 7, 512, kernel_size=(3,), stride=(1,), padding=(1,), bias=False, padding_mode=circular)
    )
    (position_embedding): PositionalEmbedding(0, 0.000% Params, 0.0 Mac, 0.000% MACs, )
    (temporal_embedding): TimeFeatureEmbedding(
      2.05 k, 0.013% Params, 294.91 KMac, 0.018% MACs, 
      (embed): Linear(2.05 k, 0.013% Params, 294.91 KMac, 0.018% MACs, in_features=4, out_features=512, bias=False)
    )
    (dropout): Dropout(0, 0.000% Params, 0.0 Mac, 0.000% MACs, p=0.05, inplace=False)
  )
  (encoder): Encoder(
    7.09 M, 45.639% Params, 533.83 MMac, 32.422% MACs, 
    (attn_layers): ModuleList(
      6.3 M, 40.566% Params, 456.51 MMac, 27.726% MACs, 
      (0): EncoderLayer(
        3.15 M, 20.283% Params, 302.24 MMac, 18.356% MACs, 
        (attention): AttentionLayer(
          1.05 M, 6.764% Params, 100.67 MMac, 6.114% MACs, 
          (inner_attention): ProbAttention(
            0, 0.000% Params, 0.0 Mac, 0.000% MACs, 
            (dropout): Dropout(0, 0.000% Params, 0.0 Mac, 0.000% MACs, p=0.05, inplace=False)
          )
          (query_projection): Linear(262.66 k, 1.691% Params, 25.17 MMac, 1.528% MACs, in_features=512, out_features=512, bias=True)
          (key_projection): Linear(262.66 k, 1.691% Params, 25.17 MMac, 1.528% MACs, in_features=512, out_features=512, bias=True)
          (value_projection): Linear(262.66 k, 1.691% Params, 25.17 MMac, 1.528% MACs, in_features=512, out_features=512, bias=True)
          (out_projection): Linear(262.66 k, 1.691% Params, 25.17 MMac, 1.528% MACs, in_features=512, out_features=512, bias=True)
        )
        (conv1): Conv1d(1.05 M, 6.764% Params, 100.86 MMac, 6.126% MACs, 512, 2048, kernel_size=(1,), stride=(1,))
        (conv2): Conv1d(1.05 M, 6.754% Params, 100.71 MMac, 6.117% MACs, 2048, 512, kernel_size=(1,), stride=(1,))
        (norm1): LayerNorm(0, 0.000% Params, 0.0 Mac, 0.000% MACs, (512,), eps=1e-05, elementwise_affine=True)
        (norm2): LayerNorm(0, 0.000% Params, 0.0 Mac, 0.000% MACs, (512,), eps=1e-05, elementwise_affine=True)
        (dropout): Dropout(0, 0.000% Params, 0.0 Mac, 0.000% MACs, p=0.05, inplace=False)
      )
      (1): EncoderLayer(
        3.15 M, 20.283% Params, 154.27 MMac, 9.369% MACs, 
        (attention): AttentionLayer(
          1.05 M, 6.764% Params, 51.38 MMac, 3.121% MACs, 
          (inner_attention): ProbAttention(
            0, 0.000% Params, 0.0 Mac, 0.000% MACs, 
            (dropout): Dropout(0, 0.000% Params, 0.0 Mac, 0.000% MACs, p=0.05, inplace=False)
          )
          (query_projection): Linear(262.66 k, 1.691% Params, 12.85 MMac, 0.780% MACs, in_features=512, out_features=512, bias=True)
          (key_projection): Linear(262.66 k, 1.691% Params, 12.85 MMac, 0.780% MACs, in_features=512, out_features=512, bias=True)
          (value_projection): Linear(262.66 k, 1.691% Params, 12.85 MMac, 0.780% MACs, in_features=512, out_features=512, bias=True)
          (out_projection): Linear(262.66 k, 1.691% Params, 12.85 MMac, 0.780% MACs, in_features=512, out_features=512, bias=True)
        )
        (conv1): Conv1d(1.05 M, 6.764% Params, 51.48 MMac, 3.127% MACs, 512, 2048, kernel_size=(1,), stride=(1,))
        (conv2): Conv1d(1.05 M, 6.754% Params, 51.41 MMac, 3.122% MACs, 2048, 512, kernel_size=(1,), stride=(1,))
        (norm1): LayerNorm(0, 0.000% Params, 0.0 Mac, 0.000% MACs, (512,), eps=1e-05, elementwise_affine=True)
        (norm2): LayerNorm(0, 0.000% Params, 0.0 Mac, 0.000% MACs, (512,), eps=1e-05, elementwise_affine=True)
        (dropout): Dropout(0, 0.000% Params, 0.0 Mac, 0.000% MACs, p=0.05, inplace=False)
      )
    )
    (conv_layers): ModuleList(
      787.97 k, 5.073% Params, 77.32 MMac, 4.696% MACs, 
      (0): ConvLayer(
        787.97 k, 5.073% Params, 77.32 MMac, 4.696% MACs, 
        (downConv): Conv1d(786.94 k, 5.067% Params, 77.12 MMac, 4.684% MACs, 512, 512, kernel_size=(3,), stride=(1,), padding=(2,), padding_mode=circular)
        (norm): BatchNorm1d(1.02 k, 0.007% Params, 100.35 KMac, 0.006% MACs, 512, eps=1e-05, momentum=0.1, affine=True, track_running_stats=True)
        (activation): ELU(0, 0.000% Params, 50.18 KMac, 0.003% MACs, alpha=1.0)
        (maxPool): MaxPool1d(0, 0.000% Params, 50.18 KMac, 0.003% MACs, kernel_size=3, stride=2, padding=1, dilation=1, ceil_mode=False)
      )
    )
    (norm): LayerNorm(0, 0.000% Params, 0.0 Mac, 0.000% MACs, (512,), eps=1e-05, elementwise_affine=True)
  )
  (decoder): Decoder(
    8.41 M, 54.117% Params, 1.11 GMac, 67.392% MACs, 
    (layers): ModuleList(
      8.4 M, 54.094% Params, 1.11 GMac, 67.360% MACs, 
      (0): DecoderLayer(
        4.2 M, 27.047% Params, 554.55 MMac, 33.680% MACs, 
        (self_attention): AttentionLayer(
          1.05 M, 6.764% Params, 151.0 MMac, 9.171% MACs, 
          (inner_attention): ProbAttention(
            0, 0.000% Params, 0.0 Mac, 0.000% MACs, 
            (dropout): Dropout(0, 0.000% Params, 0.0 Mac, 0.000% MACs, p=0.05, inplace=False)
          )
          (query_projection): Linear(262.66 k, 1.691% Params, 37.75 MMac, 2.293% MACs, in_features=512, out_features=512, bias=True)
          (key_projection): Linear(262.66 k, 1.691% Params, 37.75 MMac, 2.293% MACs, in_features=512, out_features=512, bias=True)
          (value_projection): Linear(262.66 k, 1.691% Params, 37.75 MMac, 2.293% MACs, in_features=512, out_features=512, bias=True)
          (out_projection): Linear(262.66 k, 1.691% Params, 37.75 MMac, 2.293% MACs, in_features=512, out_features=512, bias=True)
        )
        (cross_attention): AttentionLayer(
          1.05 M, 6.764% Params, 101.19 MMac, 6.146% MACs, 
          (inner_attention): ProbAttention(
            0, 0.000% Params, 0.0 Mac, 0.000% MACs, 
            (dropout): Dropout(0, 0.000% Params, 0.0 Mac, 0.000% MACs, p=0.05, inplace=False)
          )
          (query_projection): Linear(262.66 k, 1.691% Params, 37.75 MMac, 2.293% MACs, in_features=512, out_features=512, bias=True)
          (key_projection): Linear(262.66 k, 1.691% Params, 12.85 MMac, 0.780% MACs, in_features=512, out_features=512, bias=True)
          (value_projection): Linear(262.66 k, 1.691% Params, 12.85 MMac, 0.780% MACs, in_features=512, out_features=512, bias=True)
          (out_projection): Linear(262.66 k, 1.691% Params, 37.75 MMac, 2.293% MACs, in_features=512, out_features=512, bias=True)
        )
        (conv1): Conv1d(1.05 M, 6.764% Params, 151.29 MMac, 9.189% MACs, 512, 2048, kernel_size=(1,), stride=(1,))
        (conv2): Conv1d(1.05 M, 6.754% Params, 151.07 MMac, 9.175% MACs, 2048, 512, kernel_size=(1,), stride=(1,))
        (norm1): LayerNorm(0, 0.000% Params, 0.0 Mac, 0.000% MACs, (512,), eps=1e-05, elementwise_affine=True)
        (norm2): LayerNorm(0, 0.000% Params, 0.0 Mac, 0.000% MACs, (512,), eps=1e-05, elementwise_affine=True)
        (norm3): LayerNorm(0, 0.000% Params, 0.0 Mac, 0.000% MACs, (512,), eps=1e-05, elementwise_affine=True)
        (dropout): Dropout(0, 0.000% Params, 0.0 Mac, 0.000% MACs, p=0.05, inplace=False)
      )
      (1): DecoderLayer(
        4.2 M, 27.047% Params, 554.55 MMac, 33.680% MACs, 
        (self_attention): AttentionLayer(
          1.05 M, 6.764% Params, 151.0 MMac, 9.171% MACs, 
          (inner_attention): ProbAttention(
            0, 0.000% Params, 0.0 Mac, 0.000% MACs, 
            (dropout): Dropout(0, 0.000% Params, 0.0 Mac, 0.000% MACs, p=0.05, inplace=False)
          )
          (query_projection): Linear(262.66 k, 1.691% Params, 37.75 MMac, 2.293% MACs, in_features=512, out_features=512, bias=True)
          (key_projection): Linear(262.66 k, 1.691% Params, 37.75 MMac, 2.293% MACs, in_features=512, out_features=512, bias=True)
          (value_projection): Linear(262.66 k, 1.691% Params, 37.75 MMac, 2.293% MACs, in_features=512, out_features=512, bias=True)
          (out_projection): Linear(262.66 k, 1.691% Params, 37.75 MMac, 2.293% MACs, in_features=512, out_features=512, bias=True)
        )
        (cross_attention): AttentionLayer(
          1.05 M, 6.764% Params, 101.19 MMac, 6.146% MACs, 
          (inner_attention): ProbAttention(
            0, 0.000% Params, 0.0 Mac, 0.000% MACs, 
            (dropout): Dropout(0, 0.000% Params, 0.0 Mac, 0.000% MACs, p=0.05, inplace=False)
          )
          (query_projection): Linear(262.66 k, 1.691% Params, 37.75 MMac, 2.293% MACs, in_features=512, out_features=512, bias=True)
          (key_projection): Linear(262.66 k, 1.691% Params, 12.85 MMac, 0.780% MACs, in_features=512, out_features=512, bias=True)
          (value_projection): Linear(262.66 k, 1.691% Params, 12.85 MMac, 0.780% MACs, in_features=512, out_features=512, bias=True)
          (out_projection): Linear(262.66 k, 1.691% Params, 37.75 MMac, 2.293% MACs, in_features=512, out_features=512, bias=True)
        )
        (conv1): Conv1d(1.05 M, 6.764% Params, 151.29 MMac, 9.189% MACs, 512, 2048, kernel_size=(1,), stride=(1,))
        (conv2): Conv1d(1.05 M, 6.754% Params, 151.07 MMac, 9.175% MACs, 2048, 512, kernel_size=(1,), stride=(1,))
        (norm1): LayerNorm(0, 0.000% Params, 0.0 Mac, 0.000% MACs, (512,), eps=1e-05, elementwise_affine=True)
        (norm2): LayerNorm(0, 0.000% Params, 0.0 Mac, 0.000% MACs, (512,), eps=1e-05, elementwise_affine=True)
        (norm3): LayerNorm(0, 0.000% Params, 0.0 Mac, 0.000% MACs, (512,), eps=1e-05, elementwise_affine=True)
        (dropout): Dropout(0, 0.000% Params, 0.0 Mac, 0.000% MACs, p=0.05, inplace=False)
      )
    )
    (norm): LayerNorm(0, 0.000% Params, 0.0 Mac, 0.000% MACs, (512,), eps=1e-05, elementwise_affine=True)
    (projection): Linear(3.59 k, 0.023% Params, 516.1 KMac, 0.031% MACs, in_features=512, out_features=7, bias=True)
  )
)
Computational complexity:       1.65 GMac
Number of parameters:           15.53 M 
