…
INFO: Trainable parameter count: 32.78M
INFO: Trainable parameter count: 32.78M
INFO: Trainable parameter count: 32.78M
INFO: Trainable parameter count: 32.78M
INFO: Trainable parameter count: 32.78M
INFO: Trainable parameter count: 32.78M
INFO: Trainable parameter count: 32.78M
INFO: Trainable parameter count: 32.95M
INFO: Trainable parameter count: 32.95M
Model(
  32.92 M, 99.932% Params, 3.01 GMac, 100.000% MACs, 
  (enc_embedding): DataEmbedding(
    495.1 k, 1.503% Params, 47.53 MMac, 1.579% MACs, 
    (value_embedding): TokenEmbedding(
      493.06 k, 1.497% Params, 47.33 MMac, 1.573% MACs, 
      (tokenConv): Conv1d(493.06 k, 1.497% Params, 47.33 MMac, 1.573% MACs, 321, 512, kernel_size=(3,), stride=(1,), padding=(1,), bias=False, padding_mode=circular)
    )
    (position_embedding): PositionalEmbedding(0, 0.000% Params, 0.0 Mac, 0.000% MACs, )
    (temporal_embedding): TimeFeatureEmbedding(
      2.05 k, 0.006% Params, 196.61 KMac, 0.007% MACs, 
      (embed): Linear(2.05 k, 0.006% Params, 196.61 KMac, 0.007% MACs, in_features=4, out_features=512, bias=False)
    )
    (dropout): Dropout(0, 0.000% Params, 0.0 Mac, 0.000% MACs, p=0.05, inplace=False)
  )
  (dec_embedding): DataEmbedding(
    495.1 k, 1.503% Params, 71.29 MMac, 2.369% MACs, 
    (value_embedding): TokenEmbedding(
      493.06 k, 1.497% Params, 71.0 MMac, 2.359% MACs, 
      (tokenConv): Conv1d(493.06 k, 1.497% Params, 71.0 MMac, 2.359% MACs, 321, 512, kernel_size=(3,), stride=(1,), padding=(1,), bias=False, padding_mode=circular)
    )
    (position_embedding): PositionalEmbedding(0, 0.000% Params, 0.0 Mac, 0.000% MACs, )
    (temporal_embedding): TimeFeatureEmbedding(
      2.05 k, 0.006% Params, 294.91 KMac, 0.010% MACs, 
      (embed): Linear(2.05 k, 0.006% Params, 294.91 KMac, 0.010% MACs, in_features=4, out_features=512, bias=False)
    )
    (dropout): Dropout(0, 0.000% Params, 0.0 Mac, 0.000% MACs, p=0.05, inplace=False)
  )
  (encoder): Encoder(
    14.97 M, 45.423% Params, 722.09 MMac, 23.995% MACs, 
    (attn_layers): ModuleList(
      12.6 M, 38.248% Params, 582.44 MMac, 19.354% MACs, 
      (0): EncoderLayer(
        3.15 M, 9.562% Params, 302.24 MMac, 10.043% MACs, 
        (attention): AttentionLayer(
          1.05 M, 3.189% Params, 100.67 MMac, 3.345% MACs, 
          (inner_attention): ProbAttention(
            0, 0.000% Params, 0.0 Mac, 0.000% MACs, 
            (dropout): Dropout(0, 0.000% Params, 0.0 Mac, 0.000% MACs, p=0.05, inplace=False)
          )
          (query_projection): Linear(262.66 k, 0.797% Params, 25.17 MMac, 0.836% MACs, in_features=512, out_features=512, bias=True)
          (key_projection): Linear(262.66 k, 0.797% Params, 25.17 MMac, 0.836% MACs, in_features=512, out_features=512, bias=True)
          (value_projection): Linear(262.66 k, 0.797% Params, 25.17 MMac, 0.836% MACs, in_features=512, out_features=512, bias=True)
          (out_projection): Linear(262.66 k, 0.797% Params, 25.17 MMac, 0.836% MACs, in_features=512, out_features=512, bias=True)
        )
        (conv1): Conv1d(1.05 M, 3.189% Params, 100.86 MMac, 3.352% MACs, 512, 2048, kernel_size=(1,), stride=(1,))
        (conv2): Conv1d(1.05 M, 3.184% Params, 100.71 MMac, 3.347% MACs, 2048, 512, kernel_size=(1,), stride=(1,))
        (norm1): LayerNorm(0, 0.000% Params, 0.0 Mac, 0.000% MACs, (512,), eps=1e-05, elementwise_affine=True)
        (norm2): LayerNorm(0, 0.000% Params, 0.0 Mac, 0.000% MACs, (512,), eps=1e-05, elementwise_affine=True)
        (dropout): Dropout(0, 0.000% Params, 0.0 Mac, 0.000% MACs, p=0.05, inplace=False)
      )
      (1): EncoderLayer(
        3.15 M, 9.562% Params, 154.27 MMac, 5.126% MACs, 
        (attention): AttentionLayer(
          1.05 M, 3.189% Params, 51.38 MMac, 1.707% MACs, 
          (inner_attention): ProbAttention(
            0, 0.000% Params, 0.0 Mac, 0.000% MACs, 
            (dropout): Dropout(0, 0.000% Params, 0.0 Mac, 0.000% MACs, p=0.05, inplace=False)
          )
          (query_projection): Linear(262.66 k, 0.797% Params, 12.85 MMac, 0.427% MACs, in_features=512, out_features=512, bias=True)
          (key_projection): Linear(262.66 k, 0.797% Params, 12.85 MMac, 0.427% MACs, in_features=512, out_features=512, bias=True)
          (value_projection): Linear(262.66 k, 0.797% Params, 12.85 MMac, 0.427% MACs, in_features=512, out_features=512, bias=True)
          (out_projection): Linear(262.66 k, 0.797% Params, 12.85 MMac, 0.427% MACs, in_features=512, out_features=512, bias=True)
        )
        (conv1): Conv1d(1.05 M, 3.189% Params, 51.48 MMac, 1.711% MACs, 512, 2048, kernel_size=(1,), stride=(1,))
        (conv2): Conv1d(1.05 M, 3.184% Params, 51.41 MMac, 1.708% MACs, 2048, 512, kernel_size=(1,), stride=(1,))
        (norm1): LayerNorm(0, 0.000% Params, 0.0 Mac, 0.000% MACs, (512,), eps=1e-05, elementwise_affine=True)
        (norm2): LayerNorm(0, 0.000% Params, 0.0 Mac, 0.000% MACs, (512,), eps=1e-05, elementwise_affine=True)
        (dropout): Dropout(0, 0.000% Params, 0.0 Mac, 0.000% MACs, p=0.05, inplace=False)
      )
      (2): EncoderLayer(
        3.15 M, 9.562% Params, 81.86 MMac, 2.720% MACs, 
        (attention): AttentionLayer(
          1.05 M, 3.189% Params, 27.27 MMac, 0.906% MACs, 
          (inner_attention): ProbAttention(
            0, 0.000% Params, 0.0 Mac, 0.000% MACs, 
            (dropout): Dropout(0, 0.000% Params, 0.0 Mac, 0.000% MACs, p=0.05, inplace=False)
          )
          (query_projection): Linear(262.66 k, 0.797% Params, 6.82 MMac, 0.227% MACs, in_features=512, out_features=512, bias=True)
          (key_projection): Linear(262.66 k, 0.797% Params, 6.82 MMac, 0.227% MACs, in_features=512, out_features=512, bias=True)
          (value_projection): Linear(262.66 k, 0.797% Params, 6.82 MMac, 0.227% MACs, in_features=512, out_features=512, bias=True)
          (out_projection): Linear(262.66 k, 0.797% Params, 6.82 MMac, 0.227% MACs, in_features=512, out_features=512, bias=True)
        )
        (conv1): Conv1d(1.05 M, 3.189% Params, 27.32 MMac, 0.908% MACs, 512, 2048, kernel_size=(1,), stride=(1,))
        (conv2): Conv1d(1.05 M, 3.184% Params, 27.28 MMac, 0.906% MACs, 2048, 512, kernel_size=(1,), stride=(1,))
        (norm1): LayerNorm(0, 0.000% Params, 0.0 Mac, 0.000% MACs, (512,), eps=1e-05, elementwise_affine=True)
        (norm2): LayerNorm(0, 0.000% Params, 0.0 Mac, 0.000% MACs, (512,), eps=1e-05, elementwise_affine=True)
        (dropout): Dropout(0, 0.000% Params, 0.0 Mac, 0.000% MACs, p=0.05, inplace=False)
      )
      (3): EncoderLayer(
        3.15 M, 9.562% Params, 44.08 MMac, 1.465% MACs, 
        (attention): AttentionLayer(
          1.05 M, 3.189% Params, 14.68 MMac, 0.488% MACs, 
          (inner_attention): ProbAttention(
            0, 0.000% Params, 0.0 Mac, 0.000% MACs, 
            (dropout): Dropout(0, 0.000% Params, 0.0 Mac, 0.000% MACs, p=0.05, inplace=False)
          )
          (query_projection): Linear(262.66 k, 0.797% Params, 3.67 MMac, 0.122% MACs, in_features=512, out_features=512, bias=True)
          (key_projection): Linear(262.66 k, 0.797% Params, 3.67 MMac, 0.122% MACs, in_features=512, out_features=512, bias=True)
          (value_projection): Linear(262.66 k, 0.797% Params, 3.67 MMac, 0.122% MACs, in_features=512, out_features=512, bias=True)
          (out_projection): Linear(262.66 k, 0.797% Params, 3.67 MMac, 0.122% MACs, in_features=512, out_features=512, bias=True)
        )
        (conv1): Conv1d(1.05 M, 3.189% Params, 14.71 MMac, 0.489% MACs, 512, 2048, kernel_size=(1,), stride=(1,))
        (conv2): Conv1d(1.05 M, 3.184% Params, 14.69 MMac, 0.488% MACs, 2048, 512, kernel_size=(1,), stride=(1,))
        (norm1): LayerNorm(0, 0.000% Params, 0.0 Mac, 0.000% MACs, (512,), eps=1e-05, elementwise_affine=True)
        (norm2): LayerNorm(0, 0.000% Params, 0.0 Mac, 0.000% MACs, (512,), eps=1e-05, elementwise_affine=True)
        (dropout): Dropout(0, 0.000% Params, 0.0 Mac, 0.000% MACs, p=0.05, inplace=False)
      )
    )
    (conv_layers): ModuleList(
      2.36 M, 7.175% Params, 139.65 MMac, 4.641% MACs, 
      (0): ConvLayer(
        787.97 k, 2.392% Params, 77.32 MMac, 2.569% MACs, 
        (downConv): Conv1d(786.94 k, 2.389% Params, 77.12 MMac, 2.563% MACs, 512, 512, kernel_size=(3,), stride=(1,), padding=(2,), padding_mode=circular)
        (norm): BatchNorm1d(1.02 k, 0.003% Params, 100.35 KMac, 0.003% MACs, 512, eps=1e-05, momentum=0.1, affine=True, track_running_stats=True)
        (activation): ELU(0, 0.000% Params, 50.18 KMac, 0.002% MACs, alpha=1.0)
        (maxPool): MaxPool1d(0, 0.000% Params, 50.18 KMac, 0.002% MACs, kernel_size=3, stride=2, padding=1, dilation=1, ceil_mode=False)
      )
      (1): ConvLayer(
        787.97 k, 2.392% Params, 40.24 MMac, 1.337% MACs, 
        (downConv): Conv1d(786.94 k, 2.389% Params, 40.13 MMac, 1.334% MACs, 512, 512, kernel_size=(3,), stride=(1,), padding=(2,), padding_mode=circular)
        (norm): BatchNorm1d(1.02 k, 0.003% Params, 52.22 KMac, 0.002% MACs, 512, eps=1e-05, momentum=0.1, affine=True, track_running_stats=True)
        (activation): ELU(0, 0.000% Params, 26.11 KMac, 0.001% MACs, alpha=1.0)
        (maxPool): MaxPool1d(0, 0.000% Params, 26.11 KMac, 0.001% MACs, kernel_size=3, stride=2, padding=1, dilation=1, ceil_mode=False)
      )
      (2): ConvLayer(
        787.97 k, 2.392% Params, 22.09 MMac, 0.734% MACs, 
        (downConv): Conv1d(786.94 k, 2.389% Params, 22.03 MMac, 0.732% MACs, 512, 512, kernel_size=(3,), stride=(1,), padding=(2,), padding_mode=circular)
        (norm): BatchNorm1d(1.02 k, 0.003% Params, 28.67 KMac, 0.001% MACs, 512, eps=1e-05, momentum=0.1, affine=True, track_running_stats=True)
        (activation): ELU(0, 0.000% Params, 14.34 KMac, 0.000% MACs, alpha=1.0)
        (maxPool): MaxPool1d(0, 0.000% Params, 14.34 KMac, 0.000% MACs, kernel_size=3, stride=2, padding=1, dilation=1, ceil_mode=False)
      )
    )
    (norm): LayerNorm(0, 0.000% Params, 0.0 Mac, 0.000% MACs, (512,), eps=1e-05, elementwise_affine=True)
  )
  (decoder): Decoder(
    16.97 M, 51.503% Params, 2.17 GMac, 72.057% MACs, 
    (layers): ModuleList(
      16.8 M, 51.003% Params, 2.14 GMac, 71.270% MACs, 
      (0): DecoderLayer(
        4.2 M, 12.751% Params, 536.2 MMac, 17.818% MACs, 
        (self_attention): AttentionLayer(
          1.05 M, 3.189% Params, 151.0 MMac, 5.018% MACs, 
          (inner_attention): ProbAttention(
            0, 0.000% Params, 0.0 Mac, 0.000% MACs, 
            (dropout): Dropout(0, 0.000% Params, 0.0 Mac, 0.000% MACs, p=0.05, inplace=False)
          )
          (query_projection): Linear(262.66 k, 0.797% Params, 37.75 MMac, 1.254% MACs, in_features=512, out_features=512, bias=True)
          (key_projection): Linear(262.66 k, 0.797% Params, 37.75 MMac, 1.254% MACs, in_features=512, out_features=512, bias=True)
          (value_projection): Linear(262.66 k, 0.797% Params, 37.75 MMac, 1.254% MACs, in_features=512, out_features=512, bias=True)
          (out_projection): Linear(262.66 k, 0.797% Params, 37.75 MMac, 1.254% MACs, in_features=512, out_features=512, bias=True)
        )
        (cross_attention): AttentionLayer(
          1.05 M, 3.189% Params, 82.84 MMac, 2.753% MACs, 
          (inner_attention): ProbAttention(
            0, 0.000% Params, 0.0 Mac, 0.000% MACs, 
            (dropout): Dropout(0, 0.000% Params, 0.0 Mac, 0.000% MACs, p=0.05, inplace=False)
          )
          (query_projection): Linear(262.66 k, 0.797% Params, 37.75 MMac, 1.254% MACs, in_features=512, out_features=512, bias=True)
          (key_projection): Linear(262.66 k, 0.797% Params, 3.67 MMac, 0.122% MACs, in_features=512, out_features=512, bias=True)
          (value_projection): Linear(262.66 k, 0.797% Params, 3.67 MMac, 0.122% MACs, in_features=512, out_features=512, bias=True)
          (out_projection): Linear(262.66 k, 0.797% Params, 37.75 MMac, 1.254% MACs, in_features=512, out_features=512, bias=True)
        )
        (conv1): Conv1d(1.05 M, 3.189% Params, 151.29 MMac, 5.027% MACs, 512, 2048, kernel_size=(1,), stride=(1,))
        (conv2): Conv1d(1.05 M, 3.184% Params, 151.07 MMac, 5.020% MACs, 2048, 512, kernel_size=(1,), stride=(1,))
        (norm1): LayerNorm(0, 0.000% Params, 0.0 Mac, 0.000% MACs, (512,), eps=1e-05, elementwise_affine=True)
        (norm2): LayerNorm(0, 0.000% Params, 0.0 Mac, 0.000% MACs, (512,), eps=1e-05, elementwise_affine=True)
        (norm3): LayerNorm(0, 0.000% Params, 0.0 Mac, 0.000% MACs, (512,), eps=1e-05, elementwise_affine=True)
        (dropout): Dropout(0, 0.000% Params, 0.0 Mac, 0.000% MACs, p=0.05, inplace=False)
      )
      (1): DecoderLayer(
        4.2 M, 12.751% Params, 536.2 MMac, 17.818% MACs, 
        (self_attention): AttentionLayer(
          1.05 M, 3.189% Params, 151.0 MMac, 5.018% MACs, 
          (inner_attention): ProbAttention(
            0, 0.000% Params, 0.0 Mac, 0.000% MACs, 
            (dropout): Dropout(0, 0.000% Params, 0.0 Mac, 0.000% MACs, p=0.05, inplace=False)
          )
          (query_projection): Linear(262.66 k, 0.797% Params, 37.75 MMac, 1.254% MACs, in_features=512, out_features=512, bias=True)
          (key_projection): Linear(262.66 k, 0.797% Params, 37.75 MMac, 1.254% MACs, in_features=512, out_features=512, bias=True)
          (value_projection): Linear(262.66 k, 0.797% Params, 37.75 MMac, 1.254% MACs, in_features=512, out_features=512, bias=True)
          (out_projection): Linear(262.66 k, 0.797% Params, 37.75 MMac, 1.254% MACs, in_features=512, out_features=512, bias=True)
        )
        (cross_attention): AttentionLayer(
          1.05 M, 3.189% Params, 82.84 MMac, 2.753% MACs, 
          (inner_attention): ProbAttention(
            0, 0.000% Params, 0.0 Mac, 0.000% MACs, 
            (dropout): Dropout(0, 0.000% Params, 0.0 Mac, 0.000% MACs, p=0.05, inplace=False)
          )
          (query_projection): Linear(262.66 k, 0.797% Params, 37.75 MMac, 1.254% MACs, in_features=512, out_features=512, bias=True)
          (key_projection): Linear(262.66 k, 0.797% Params, 3.67 MMac, 0.122% MACs, in_features=512, out_features=512, bias=True)
          (value_projection): Linear(262.66 k, 0.797% Params, 3.67 MMac, 0.122% MACs, in_features=512, out_features=512, bias=True)
          (out_projection): Linear(262.66 k, 0.797% Params, 37.75 MMac, 1.254% MACs, in_features=512, out_features=512, bias=True)
        )
        (conv1): Conv1d(1.05 M, 3.189% Params, 151.29 MMac, 5.027% MACs, 512, 2048, kernel_size=(1,), stride=(1,))
        (conv2): Conv1d(1.05 M, 3.184% Params, 151.07 MMac, 5.020% MACs, 2048, 512, kernel_size=(1,), stride=(1,))
        (norm1): LayerNorm(0, 0.000% Params, 0.0 Mac, 0.000% MACs, (512,), eps=1e-05, elementwise_affine=True)
        (norm2): LayerNorm(0, 0.000% Params, 0.0 Mac, 0.000% MACs, (512,), eps=1e-05, elementwise_affine=True)
        (norm3): LayerNorm(0, 0.000% Params, 0.0 Mac, 0.000% MACs, (512,), eps=1e-05, elementwise_affine=True)
        (dropout): Dropout(0, 0.000% Params, 0.0 Mac, 0.000% MACs, p=0.05, inplace=False)
      )
      (2): DecoderLayer(
        4.2 M, 12.751% Params, 536.2 MMac, 17.818% MACs, 
        (self_attention): AttentionLayer(
          1.05 M, 3.189% Params, 151.0 MMac, 5.018% MACs, 
          (inner_attention): ProbAttention(
            0, 0.000% Params, 0.0 Mac, 0.000% MACs, 
            (dropout): Dropout(0, 0.000% Params, 0.0 Mac, 0.000% MACs, p=0.05, inplace=False)
          )
          (query_projection): Linear(262.66 k, 0.797% Params, 37.75 MMac, 1.254% MACs, in_features=512, out_features=512, bias=True)
          (key_projection): Linear(262.66 k, 0.797% Params, 37.75 MMac, 1.254% MACs, in_features=512, out_features=512, bias=True)
          (value_projection): Linear(262.66 k, 0.797% Params, 37.75 MMac, 1.254% MACs, in_features=512, out_features=512, bias=True)
          (out_projection): Linear(262.66 k, 0.797% Params, 37.75 MMac, 1.254% MACs, in_features=512, out_features=512, bias=True)
        )
        (cross_attention): AttentionLayer(
          1.05 M, 3.189% Params, 82.84 MMac, 2.753% MACs, 
          (inner_attention): ProbAttention(
            0, 0.000% Params, 0.0 Mac, 0.000% MACs, 
            (dropout): Dropout(0, 0.000% Params, 0.0 Mac, 0.000% MACs, p=0.05, inplace=False)
          )
          (query_projection): Linear(262.66 k, 0.797% Params, 37.75 MMac, 1.254% MACs, in_features=512, out_features=512, bias=True)
          (key_projection): Linear(262.66 k, 0.797% Params, 3.67 MMac, 0.122% MACs, in_features=512, out_features=512, bias=True)
          (value_projection): Linear(262.66 k, 0.797% Params, 3.67 MMac, 0.122% MACs, in_features=512, out_features=512, bias=True)
          (out_projection): Linear(262.66 k, 0.797% Params, 37.75 MMac, 1.254% MACs, in_features=512, out_features=512, bias=True)
        )
        (conv1): Conv1d(1.05 M, 3.189% Params, 151.29 MMac, 5.027% MACs, 512, 2048, kernel_size=(1,), stride=(1,))
        (conv2): Conv1d(1.05 M, 3.184% Params, 151.07 MMac, 5.020% MACs, 2048, 512, kernel_size=(1,), stride=(1,))
        (norm1): LayerNorm(0, 0.000% Params, 0.0 Mac, 0.000% MACs, (512,), eps=1e-05, elementwise_affine=True)
        (norm2): LayerNorm(0, 0.000% Params, 0.0 Mac, 0.000% MACs, (512,), eps=1e-05, elementwise_affine=True)
        (norm3): LayerNorm(0, 0.000% Params, 0.0 Mac, 0.000% MACs, (512,), eps=1e-05, elementwise_affine=True)
        (dropout): Dropout(0, 0.000% Params, 0.0 Mac, 0.000% MACs, p=0.05, inplace=False)
      )
      (3): DecoderLayer(
        4.2 M, 12.751% Params, 536.2 MMac, 17.818% MACs, 
        (self_attention): AttentionLayer(
          1.05 M, 3.189% Params, 151.0 MMac, 5.018% MACs, 
          (inner_attention): ProbAttention(
            0, 0.000% Params, 0.0 Mac, 0.000% MACs, 
            (dropout): Dropout(0, 0.000% Params, 0.0 Mac, 0.000% MACs, p=0.05, inplace=False)
          )
          (query_projection): Linear(262.66 k, 0.797% Params, 37.75 MMac, 1.254% MACs, in_features=512, out_features=512, bias=True)
          (key_projection): Linear(262.66 k, 0.797% Params, 37.75 MMac, 1.254% MACs, in_features=512, out_features=512, bias=True)
          (value_projection): Linear(262.66 k, 0.797% Params, 37.75 MMac, 1.254% MACs, in_features=512, out_features=512, bias=True)
          (out_projection): Linear(262.66 k, 0.797% Params, 37.75 MMac, 1.254% MACs, in_features=512, out_features=512, bias=True)
        )
        (cross_attention): AttentionLayer(
          1.05 M, 3.189% Params, 82.84 MMac, 2.753% MACs, 
          (inner_attention): ProbAttention(
            0, 0.000% Params, 0.0 Mac, 0.000% MACs, 
            (dropout): Dropout(0, 0.000% Params, 0.0 Mac, 0.000% MACs, p=0.05, inplace=False)
          )
          (query_projection): Linear(262.66 k, 0.797% Params, 37.75 MMac, 1.254% MACs, in_features=512, out_features=512, bias=True)
          (key_projection): Linear(262.66 k, 0.797% Params, 3.67 MMac, 0.122% MACs, in_features=512, out_features=512, bias=True)
          (value_projection): Linear(262.66 k, 0.797% Params, 3.67 MMac, 0.122% MACs, in_features=512, out_features=512, bias=True)
          (out_projection): Linear(262.66 k, 0.797% Params, 37.75 MMac, 1.254% MACs, in_features=512, out_features=512, bias=True)
        )
        (conv1): Conv1d(1.05 M, 3.189% Params, 151.29 MMac, 5.027% MACs, 512, 2048, kernel_size=(1,), stride=(1,))
        (conv2): Conv1d(1.05 M, 3.184% Params, 151.07 MMac, 5.020% MACs, 2048, 512, kernel_size=(1,), stride=(1,))
        (norm1): LayerNorm(0, 0.000% Params, 0.0 Mac, 0.000% MACs, (512,), eps=1e-05, elementwise_affine=True)
        (norm2): LayerNorm(0, 0.000% Params, 0.0 Mac, 0.000% MACs, (512,), eps=1e-05, elementwise_affine=True)
        (norm3): LayerNorm(0, 0.000% Params, 0.0 Mac, 0.000% MACs, (512,), eps=1e-05, elementwise_affine=True)
        (dropout): Dropout(0, 0.000% Params, 0.0 Mac, 0.000% MACs, p=0.05, inplace=False)
      )
    )
    (norm): LayerNorm(0, 0.000% Params, 0.0 Mac, 0.000% MACs, (512,), eps=1e-05, elementwise_affine=True)
    (projection): Linear(164.67 k, 0.500% Params, 23.67 MMac, 0.786% MACs, in_features=512, out_features=321, bias=True)
  )
)
Computational complexity:       3.01 GMac
Number of parameters:           32.95 M 
