…
INFO: Trainable parameter count: 20.69M
INFO: Trainable parameter count: 20.69M
INFO: Trainable parameter count: 20.70M
INFO: Trainable parameter count: 20.70M
INFO: Trainable parameter count: 20.70M
INFO: Trainable parameter count: 20.70M
INFO: Trainable parameter count: 20.70M
INFO: Trainable parameter count: 20.86M
INFO: Trainable parameter count: 20.86M
Model(
  20.85 M, 99.926% Params, 2.34 GMac, 100.000% MACs, 
  (enc_embedding): DataEmbedding(
    495.1 k, 2.373% Params, 47.53 MMac, 2.031% MACs, 
    (value_embedding): TokenEmbedding(
      493.06 k, 2.363% Params, 47.33 MMac, 2.023% MACs, 
      (tokenConv): Conv1d(493.06 k, 2.363% Params, 47.33 MMac, 2.023% MACs, 321, 512, kernel_size=(3,), stride=(1,), padding=(1,), bias=False, padding_mode=circular)
    )
    (position_embedding): PositionalEmbedding(0, 0.000% Params, 0.0 Mac, 0.000% MACs, )
    (temporal_embedding): TimeFeatureEmbedding(
      2.05 k, 0.010% Params, 196.61 KMac, 0.008% MACs, 
      (embed): Linear(2.05 k, 0.010% Params, 196.61 KMac, 0.008% MACs, in_features=4, out_features=512, bias=False)
    )
    (dropout): Dropout(0, 0.000% Params, 0.0 Mac, 0.000% MACs, p=0.05, inplace=False)
  )
  (dec_embedding): DataEmbedding(
    495.1 k, 2.373% Params, 71.29 MMac, 3.047% MACs, 
    (value_embedding): TokenEmbedding(
      493.06 k, 2.363% Params, 71.0 MMac, 3.034% MACs, 
      (tokenConv): Conv1d(493.06 k, 2.363% Params, 71.0 MMac, 3.034% MACs, 321, 512, kernel_size=(3,), stride=(1,), padding=(1,), bias=False, padding_mode=circular)
    )
    (position_embedding): PositionalEmbedding(0, 0.000% Params, 0.0 Mac, 0.000% MACs, )
    (temporal_embedding): TimeFeatureEmbedding(
      2.05 k, 0.010% Params, 294.91 KMac, 0.013% MACs, 
      (embed): Linear(2.05 k, 0.010% Params, 294.91 KMac, 0.013% MACs, in_features=4, out_features=512, bias=False)
    )
    (dropout): Dropout(0, 0.000% Params, 0.0 Mac, 0.000% MACs, p=0.05, inplace=False)
  )
  (encoder): Encoder(
    7.09 M, 33.979% Params, 533.83 MMac, 22.814% MACs, 
    (attn_layers): ModuleList(
      6.3 M, 30.202% Params, 456.51 MMac, 19.509% MACs, 
      (0): EncoderLayer(
        3.15 M, 15.101% Params, 302.24 MMac, 12.916% MACs, 
        (attention): AttentionLayer(
          1.05 M, 5.036% Params, 100.67 MMac, 4.302% MACs, 
          (inner_attention): ProbAttention(
            0, 0.000% Params, 0.0 Mac, 0.000% MACs, 
            (dropout): Dropout(0, 0.000% Params, 0.0 Mac, 0.000% MACs, p=0.05, inplace=False)
          )
          (query_projection): Linear(262.66 k, 1.259% Params, 25.17 MMac, 1.076% MACs, in_features=512, out_features=512, bias=True)
          (key_projection): Linear(262.66 k, 1.259% Params, 25.17 MMac, 1.076% MACs, in_features=512, out_features=512, bias=True)
          (value_projection): Linear(262.66 k, 1.259% Params, 25.17 MMac, 1.076% MACs, in_features=512, out_features=512, bias=True)
          (out_projection): Linear(262.66 k, 1.259% Params, 25.17 MMac, 1.076% MACs, in_features=512, out_features=512, bias=True)
        )
        (conv1): Conv1d(1.05 M, 5.036% Params, 100.86 MMac, 4.310% MACs, 512, 2048, kernel_size=(1,), stride=(1,))
        (conv2): Conv1d(1.05 M, 5.029% Params, 100.71 MMac, 4.304% MACs, 2048, 512, kernel_size=(1,), stride=(1,))
        (norm1): LayerNorm(0, 0.000% Params, 0.0 Mac, 0.000% MACs, (512,), eps=1e-05, elementwise_affine=True)
        (norm2): LayerNorm(0, 0.000% Params, 0.0 Mac, 0.000% MACs, (512,), eps=1e-05, elementwise_affine=True)
        (dropout): Dropout(0, 0.000% Params, 0.0 Mac, 0.000% MACs, p=0.05, inplace=False)
      )
      (1): EncoderLayer(
        3.15 M, 15.101% Params, 154.27 MMac, 6.593% MACs, 
        (attention): AttentionLayer(
          1.05 M, 5.036% Params, 51.38 MMac, 2.196% MACs, 
          (inner_attention): ProbAttention(
            0, 0.000% Params, 0.0 Mac, 0.000% MACs, 
            (dropout): Dropout(0, 0.000% Params, 0.0 Mac, 0.000% MACs, p=0.05, inplace=False)
          )
          (query_projection): Linear(262.66 k, 1.259% Params, 12.85 MMac, 0.549% MACs, in_features=512, out_features=512, bias=True)
          (key_projection): Linear(262.66 k, 1.259% Params, 12.85 MMac, 0.549% MACs, in_features=512, out_features=512, bias=True)
          (value_projection): Linear(262.66 k, 1.259% Params, 12.85 MMac, 0.549% MACs, in_features=512, out_features=512, bias=True)
          (out_projection): Linear(262.66 k, 1.259% Params, 12.85 MMac, 0.549% MACs, in_features=512, out_features=512, bias=True)
        )
        (conv1): Conv1d(1.05 M, 5.036% Params, 51.48 MMac, 2.200% MACs, 512, 2048, kernel_size=(1,), stride=(1,))
        (conv2): Conv1d(1.05 M, 5.029% Params, 51.41 MMac, 2.197% MACs, 2048, 512, kernel_size=(1,), stride=(1,))
        (norm1): LayerNorm(0, 0.000% Params, 0.0 Mac, 0.000% MACs, (512,), eps=1e-05, elementwise_affine=True)
        (norm2): LayerNorm(0, 0.000% Params, 0.0 Mac, 0.000% MACs, (512,), eps=1e-05, elementwise_affine=True)
        (dropout): Dropout(0, 0.000% Params, 0.0 Mac, 0.000% MACs, p=0.05, inplace=False)
      )
    )
    (conv_layers): ModuleList(
      787.97 k, 3.777% Params, 77.32 MMac, 3.304% MACs, 
      (0): ConvLayer(
        787.97 k, 3.777% Params, 77.32 MMac, 3.304% MACs, 
        (downConv): Conv1d(786.94 k, 3.772% Params, 77.12 MMac, 3.296% MACs, 512, 512, kernel_size=(3,), stride=(1,), padding=(2,), padding_mode=circular)
        (norm): BatchNorm1d(1.02 k, 0.005% Params, 100.35 KMac, 0.004% MACs, 512, eps=1e-05, momentum=0.1, affine=True, track_running_stats=True)
        (activation): ELU(0, 0.000% Params, 50.18 KMac, 0.002% MACs, alpha=1.0)
        (maxPool): MaxPool1d(0, 0.000% Params, 50.18 KMac, 0.002% MACs, kernel_size=3, stride=2, padding=1, dilation=1, ceil_mode=False)
      )
    )
    (norm): LayerNorm(0, 0.000% Params, 0.0 Mac, 0.000% MACs, (512,), eps=1e-05, elementwise_affine=True)
  )
  (decoder): Decoder(
    12.77 M, 61.201% Params, 1.69 GMac, 72.108% MACs, 
    (layers): ModuleList(
      12.6 M, 60.411% Params, 1.66 GMac, 71.097% MACs, 
      (0): DecoderLayer(
        4.2 M, 20.137% Params, 554.55 MMac, 23.699% MACs, 
        (self_attention): AttentionLayer(
          1.05 M, 5.036% Params, 151.0 MMac, 6.453% MACs, 
          (inner_attention): ProbAttention(
            0, 0.000% Params, 0.0 Mac, 0.000% MACs, 
            (dropout): Dropout(0, 0.000% Params, 0.0 Mac, 0.000% MACs, p=0.05, inplace=False)
          )
          (query_projection): Linear(262.66 k, 1.259% Params, 37.75 MMac, 1.613% MACs, in_features=512, out_features=512, bias=True)
          (key_projection): Linear(262.66 k, 1.259% Params, 37.75 MMac, 1.613% MACs, in_features=512, out_features=512, bias=True)
          (value_projection): Linear(262.66 k, 1.259% Params, 37.75 MMac, 1.613% MACs, in_features=512, out_features=512, bias=True)
          (out_projection): Linear(262.66 k, 1.259% Params, 37.75 MMac, 1.613% MACs, in_features=512, out_features=512, bias=True)
        )
        (cross_attention): AttentionLayer(
          1.05 M, 5.036% Params, 101.19 MMac, 4.324% MACs, 
          (inner_attention): ProbAttention(
            0, 0.000% Params, 0.0 Mac, 0.000% MACs, 
            (dropout): Dropout(0, 0.000% Params, 0.0 Mac, 0.000% MACs, p=0.05, inplace=False)
          )
          (query_projection): Linear(262.66 k, 1.259% Params, 37.75 MMac, 1.613% MACs, in_features=512, out_features=512, bias=True)
          (key_projection): Linear(262.66 k, 1.259% Params, 12.85 MMac, 0.549% MACs, in_features=512, out_features=512, bias=True)
          (value_projection): Linear(262.66 k, 1.259% Params, 12.85 MMac, 0.549% MACs, in_features=512, out_features=512, bias=True)
          (out_projection): Linear(262.66 k, 1.259% Params, 37.75 MMac, 1.613% MACs, in_features=512, out_features=512, bias=True)
        )
        (conv1): Conv1d(1.05 M, 5.036% Params, 151.29 MMac, 6.466% MACs, 512, 2048, kernel_size=(1,), stride=(1,))
        (conv2): Conv1d(1.05 M, 5.029% Params, 151.07 MMac, 6.456% MACs, 2048, 512, kernel_size=(1,), stride=(1,))
        (norm1): LayerNorm(0, 0.000% Params, 0.0 Mac, 0.000% MACs, (512,), eps=1e-05, elementwise_affine=True)
        (norm2): LayerNorm(0, 0.000% Params, 0.0 Mac, 0.000% MACs, (512,), eps=1e-05, elementwise_affine=True)
        (norm3): LayerNorm(0, 0.000% Params, 0.0 Mac, 0.000% MACs, (512,), eps=1e-05, elementwise_affine=True)
        (dropout): Dropout(0, 0.000% Params, 0.0 Mac, 0.000% MACs, p=0.05, inplace=False)
      )
      (1): DecoderLayer(
        4.2 M, 20.137% Params, 554.55 MMac, 23.699% MACs, 
        (self_attention): AttentionLayer(
          1.05 M, 5.036% Params, 151.0 MMac, 6.453% MACs, 
          (inner_attention): ProbAttention(
            0, 0.000% Params, 0.0 Mac, 0.000% MACs, 
            (dropout): Dropout(0, 0.000% Params, 0.0 Mac, 0.000% MACs, p=0.05, inplace=False)
          )
          (query_projection): Linear(262.66 k, 1.259% Params, 37.75 MMac, 1.613% MACs, in_features=512, out_features=512, bias=True)
          (key_projection): Linear(262.66 k, 1.259% Params, 37.75 MMac, 1.613% MACs, in_features=512, out_features=512, bias=True)
          (value_projection): Linear(262.66 k, 1.259% Params, 37.75 MMac, 1.613% MACs, in_features=512, out_features=512, bias=True)
          (out_projection): Linear(262.66 k, 1.259% Params, 37.75 MMac, 1.613% MACs, in_features=512, out_features=512, bias=True)
        )
        (cross_attention): AttentionLayer(
          1.05 M, 5.036% Params, 101.19 MMac, 4.324% MACs, 
          (inner_attention): ProbAttention(
            0, 0.000% Params, 0.0 Mac, 0.000% MACs, 
            (dropout): Dropout(0, 0.000% Params, 0.0 Mac, 0.000% MACs, p=0.05, inplace=False)
          )
          (query_projection): Linear(262.66 k, 1.259% Params, 37.75 MMac, 1.613% MACs, in_features=512, out_features=512, bias=True)
          (key_projection): Linear(262.66 k, 1.259% Params, 12.85 MMac, 0.549% MACs, in_features=512, out_features=512, bias=True)
          (value_projection): Linear(262.66 k, 1.259% Params, 12.85 MMac, 0.549% MACs, in_features=512, out_features=512, bias=True)
          (out_projection): Linear(262.66 k, 1.259% Params, 37.75 MMac, 1.613% MACs, in_features=512, out_features=512, bias=True)
        )
        (conv1): Conv1d(1.05 M, 5.036% Params, 151.29 MMac, 6.466% MACs, 512, 2048, kernel_size=(1,), stride=(1,))
        (conv2): Conv1d(1.05 M, 5.029% Params, 151.07 MMac, 6.456% MACs, 2048, 512, kernel_size=(1,), stride=(1,))
        (norm1): LayerNorm(0, 0.000% Params, 0.0 Mac, 0.000% MACs, (512,), eps=1e-05, elementwise_affine=True)
        (norm2): LayerNorm(0, 0.000% Params, 0.0 Mac, 0.000% MACs, (512,), eps=1e-05, elementwise_affine=True)
        (norm3): LayerNorm(0, 0.000% Params, 0.0 Mac, 0.000% MACs, (512,), eps=1e-05, elementwise_affine=True)
        (dropout): Dropout(0, 0.000% Params, 0.0 Mac, 0.000% MACs, p=0.05, inplace=False)
      )
      (2): DecoderLayer(
        4.2 M, 20.137% Params, 554.55 MMac, 23.699% MACs, 
        (self_attention): AttentionLayer(
          1.05 M, 5.036% Params, 151.0 MMac, 6.453% MACs, 
          (inner_attention): ProbAttention(
            0, 0.000% Params, 0.0 Mac, 0.000% MACs, 
            (dropout): Dropout(0, 0.000% Params, 0.0 Mac, 0.000% MACs, p=0.05, inplace=False)
          )
          (query_projection): Linear(262.66 k, 1.259% Params, 37.75 MMac, 1.613% MACs, in_features=512, out_features=512, bias=True)
          (key_projection): Linear(262.66 k, 1.259% Params, 37.75 MMac, 1.613% MACs, in_features=512, out_features=512, bias=True)
          (value_projection): Linear(262.66 k, 1.259% Params, 37.75 MMac, 1.613% MACs, in_features=512, out_features=512, bias=True)
          (out_projection): Linear(262.66 k, 1.259% Params, 37.75 MMac, 1.613% MACs, in_features=512, out_features=512, bias=True)
        )
        (cross_attention): AttentionLayer(
          1.05 M, 5.036% Params, 101.19 MMac, 4.324% MACs, 
          (inner_attention): ProbAttention(
            0, 0.000% Params, 0.0 Mac, 0.000% MACs, 
            (dropout): Dropout(0, 0.000% Params, 0.0 Mac, 0.000% MACs, p=0.05, inplace=False)
          )
          (query_projection): Linear(262.66 k, 1.259% Params, 37.75 MMac, 1.613% MACs, in_features=512, out_features=512, bias=True)
          (key_projection): Linear(262.66 k, 1.259% Params, 12.85 MMac, 0.549% MACs, in_features=512, out_features=512, bias=True)
          (value_projection): Linear(262.66 k, 1.259% Params, 12.85 MMac, 0.549% MACs, in_features=512, out_features=512, bias=True)
          (out_projection): Linear(262.66 k, 1.259% Params, 37.75 MMac, 1.613% MACs, in_features=512, out_features=512, bias=True)
        )
        (conv1): Conv1d(1.05 M, 5.036% Params, 151.29 MMac, 6.466% MACs, 512, 2048, kernel_size=(1,), stride=(1,))
        (conv2): Conv1d(1.05 M, 5.029% Params, 151.07 MMac, 6.456% MACs, 2048, 512, kernel_size=(1,), stride=(1,))
        (norm1): LayerNorm(0, 0.000% Params, 0.0 Mac, 0.000% MACs, (512,), eps=1e-05, elementwise_affine=True)
        (norm2): LayerNorm(0, 0.000% Params, 0.0 Mac, 0.000% MACs, (512,), eps=1e-05, elementwise_affine=True)
        (norm3): LayerNorm(0, 0.000% Params, 0.0 Mac, 0.000% MACs, (512,), eps=1e-05, elementwise_affine=True)
        (dropout): Dropout(0, 0.000% Params, 0.0 Mac, 0.000% MACs, p=0.05, inplace=False)
      )
    )
    (norm): LayerNorm(0, 0.000% Params, 0.0 Mac, 0.000% MACs, (512,), eps=1e-05, elementwise_affine=True)
    (projection): Linear(164.67 k, 0.789% Params, 23.67 MMac, 1.011% MACs, in_features=512, out_features=321, bias=True)
  )
)
Computational complexity:       2.34 GMac
Number of parameters:           20.86 M 
