…
INFO: Trainable parameter count: 24.63M
INFO: Trainable parameter count: 24.63M
INFO: Trainable parameter count: 24.64M
INFO: Trainable parameter count: 24.64M
INFO: Trainable parameter count: 24.64M
INFO: Trainable parameter count: 24.64M
INFO: Trainable parameter count: 24.64M
INFO: Trainable parameter count: 24.80M
INFO: Trainable parameter count: 24.80M
Model(
  24.78 M, 99.930% Params, 2.43 GMac, 100.000% MACs, 
  (enc_embedding): DataEmbedding(
    495.1 k, 1.996% Params, 47.53 MMac, 1.959% MACs, 
    (value_embedding): TokenEmbedding(
      493.06 k, 1.988% Params, 47.33 MMac, 1.951% MACs, 
      (tokenConv): Conv1d(493.06 k, 1.988% Params, 47.33 MMac, 1.951% MACs, 321, 512, kernel_size=(3,), stride=(1,), padding=(1,), bias=False, padding_mode=circular)
    )
    (position_embedding): PositionalEmbedding(0, 0.000% Params, 0.0 Mac, 0.000% MACs, )
    (temporal_embedding): TimeFeatureEmbedding(
      2.05 k, 0.008% Params, 196.61 KMac, 0.008% MACs, 
      (embed): Linear(2.05 k, 0.008% Params, 196.61 KMac, 0.008% MACs, in_features=4, out_features=512, bias=False)
    )
    (dropout): Dropout(0, 0.000% Params, 0.0 Mac, 0.000% MACs, p=0.05, inplace=False)
  )
  (dec_embedding): DataEmbedding(
    495.1 k, 1.996% Params, 71.29 MMac, 2.939% MACs, 
    (value_embedding): TokenEmbedding(
      493.06 k, 1.988% Params, 71.0 MMac, 2.927% MACs, 
      (tokenConv): Conv1d(493.06 k, 1.988% Params, 71.0 MMac, 2.927% MACs, 321, 512, kernel_size=(3,), stride=(1,), padding=(1,), bias=False, padding_mode=circular)
    )
    (position_embedding): PositionalEmbedding(0, 0.000% Params, 0.0 Mac, 0.000% MACs, )
    (temporal_embedding): TimeFeatureEmbedding(
      2.05 k, 0.008% Params, 294.91 KMac, 0.012% MACs, 
      (embed): Linear(2.05 k, 0.008% Params, 294.91 KMac, 0.012% MACs, in_features=4, out_features=512, bias=False)
    )
    (dropout): Dropout(0, 0.000% Params, 0.0 Mac, 0.000% MACs, p=0.05, inplace=False)
  )
  (encoder): Encoder(
    11.03 M, 44.460% Params, 655.92 MMac, 27.039% MACs, 
    (attn_layers): ModuleList(
      9.45 M, 38.106% Params, 538.36 MMac, 22.193% MACs, 
      (0): EncoderLayer(
        3.15 M, 12.702% Params, 302.24 MMac, 12.459% MACs, 
        (attention): AttentionLayer(
          1.05 M, 4.236% Params, 100.67 MMac, 4.150% MACs, 
          (inner_attention): ProbAttention(
            0, 0.000% Params, 0.0 Mac, 0.000% MACs, 
            (dropout): Dropout(0, 0.000% Params, 0.0 Mac, 0.000% MACs, p=0.05, inplace=False)
          )
          (query_projection): Linear(262.66 k, 1.059% Params, 25.17 MMac, 1.037% MACs, in_features=512, out_features=512, bias=True)
          (key_projection): Linear(262.66 k, 1.059% Params, 25.17 MMac, 1.037% MACs, in_features=512, out_features=512, bias=True)
          (value_projection): Linear(262.66 k, 1.059% Params, 25.17 MMac, 1.037% MACs, in_features=512, out_features=512, bias=True)
          (out_projection): Linear(262.66 k, 1.059% Params, 25.17 MMac, 1.037% MACs, in_features=512, out_features=512, bias=True)
        )
        (conv1): Conv1d(1.05 M, 4.236% Params, 100.86 MMac, 4.158% MACs, 512, 2048, kernel_size=(1,), stride=(1,))
        (conv2): Conv1d(1.05 M, 4.230% Params, 100.71 MMac, 4.152% MACs, 2048, 512, kernel_size=(1,), stride=(1,))
        (norm1): LayerNorm(0, 0.000% Params, 0.0 Mac, 0.000% MACs, (512,), eps=1e-05, elementwise_affine=True)
        (norm2): LayerNorm(0, 0.000% Params, 0.0 Mac, 0.000% MACs, (512,), eps=1e-05, elementwise_affine=True)
        (dropout): Dropout(0, 0.000% Params, 0.0 Mac, 0.000% MACs, p=0.05, inplace=False)
      )
      (1): EncoderLayer(
        3.15 M, 12.702% Params, 154.27 MMac, 6.359% MACs, 
        (attention): AttentionLayer(
          1.05 M, 4.236% Params, 51.38 MMac, 2.118% MACs, 
          (inner_attention): ProbAttention(
            0, 0.000% Params, 0.0 Mac, 0.000% MACs, 
            (dropout): Dropout(0, 0.000% Params, 0.0 Mac, 0.000% MACs, p=0.05, inplace=False)
          )
          (query_projection): Linear(262.66 k, 1.059% Params, 12.85 MMac, 0.530% MACs, in_features=512, out_features=512, bias=True)
          (key_projection): Linear(262.66 k, 1.059% Params, 12.85 MMac, 0.530% MACs, in_features=512, out_features=512, bias=True)
          (value_projection): Linear(262.66 k, 1.059% Params, 12.85 MMac, 0.530% MACs, in_features=512, out_features=512, bias=True)
          (out_projection): Linear(262.66 k, 1.059% Params, 12.85 MMac, 0.530% MACs, in_features=512, out_features=512, bias=True)
        )
        (conv1): Conv1d(1.05 M, 4.236% Params, 51.48 MMac, 2.122% MACs, 512, 2048, kernel_size=(1,), stride=(1,))
        (conv2): Conv1d(1.05 M, 4.230% Params, 51.41 MMac, 2.119% MACs, 2048, 512, kernel_size=(1,), stride=(1,))
        (norm1): LayerNorm(0, 0.000% Params, 0.0 Mac, 0.000% MACs, (512,), eps=1e-05, elementwise_affine=True)
        (norm2): LayerNorm(0, 0.000% Params, 0.0 Mac, 0.000% MACs, (512,), eps=1e-05, elementwise_affine=True)
        (dropout): Dropout(0, 0.000% Params, 0.0 Mac, 0.000% MACs, p=0.05, inplace=False)
      )
      (2): EncoderLayer(
        3.15 M, 12.702% Params, 81.86 MMac, 3.374% MACs, 
        (attention): AttentionLayer(
          1.05 M, 4.236% Params, 27.27 MMac, 1.124% MACs, 
          (inner_attention): ProbAttention(
            0, 0.000% Params, 0.0 Mac, 0.000% MACs, 
            (dropout): Dropout(0, 0.000% Params, 0.0 Mac, 0.000% MACs, p=0.05, inplace=False)
          )
          (query_projection): Linear(262.66 k, 1.059% Params, 6.82 MMac, 0.281% MACs, in_features=512, out_features=512, bias=True)
          (key_projection): Linear(262.66 k, 1.059% Params, 6.82 MMac, 0.281% MACs, in_features=512, out_features=512, bias=True)
          (value_projection): Linear(262.66 k, 1.059% Params, 6.82 MMac, 0.281% MACs, in_features=512, out_features=512, bias=True)
          (out_projection): Linear(262.66 k, 1.059% Params, 6.82 MMac, 0.281% MACs, in_features=512, out_features=512, bias=True)
        )
        (conv1): Conv1d(1.05 M, 4.236% Params, 27.32 MMac, 1.126% MACs, 512, 2048, kernel_size=(1,), stride=(1,))
        (conv2): Conv1d(1.05 M, 4.230% Params, 27.28 MMac, 1.124% MACs, 2048, 512, kernel_size=(1,), stride=(1,))
        (norm1): LayerNorm(0, 0.000% Params, 0.0 Mac, 0.000% MACs, (512,), eps=1e-05, elementwise_affine=True)
        (norm2): LayerNorm(0, 0.000% Params, 0.0 Mac, 0.000% MACs, (512,), eps=1e-05, elementwise_affine=True)
        (dropout): Dropout(0, 0.000% Params, 0.0 Mac, 0.000% MACs, p=0.05, inplace=False)
      )
    )
    (conv_layers): ModuleList(
      1.58 M, 6.354% Params, 117.56 MMac, 4.846% MACs, 
      (0): ConvLayer(
        787.97 k, 3.177% Params, 77.32 MMac, 3.187% MACs, 
        (downConv): Conv1d(786.94 k, 3.173% Params, 77.12 MMac, 3.179% MACs, 512, 512, kernel_size=(3,), stride=(1,), padding=(2,), padding_mode=circular)
        (norm): BatchNorm1d(1.02 k, 0.004% Params, 100.35 KMac, 0.004% MACs, 512, eps=1e-05, momentum=0.1, affine=True, track_running_stats=True)
        (activation): ELU(0, 0.000% Params, 50.18 KMac, 0.002% MACs, alpha=1.0)
        (maxPool): MaxPool1d(0, 0.000% Params, 50.18 KMac, 0.002% MACs, kernel_size=3, stride=2, padding=1, dilation=1, ceil_mode=False)
      )
      (1): ConvLayer(
        787.97 k, 3.177% Params, 40.24 MMac, 1.659% MACs, 
        (downConv): Conv1d(786.94 k, 3.173% Params, 40.13 MMac, 1.654% MACs, 512, 512, kernel_size=(3,), stride=(1,), padding=(2,), padding_mode=circular)
        (norm): BatchNorm1d(1.02 k, 0.004% Params, 52.22 KMac, 0.002% MACs, 512, eps=1e-05, momentum=0.1, affine=True, track_running_stats=True)
        (activation): ELU(0, 0.000% Params, 26.11 KMac, 0.001% MACs, alpha=1.0)
        (maxPool): MaxPool1d(0, 0.000% Params, 26.11 KMac, 0.001% MACs, kernel_size=3, stride=2, padding=1, dilation=1, ceil_mode=False)
      )
    )
    (norm): LayerNorm(0, 0.000% Params, 0.0 Mac, 0.000% MACs, (512,), eps=1e-05, elementwise_affine=True)
  )
  (decoder): Decoder(
    12.77 M, 51.478% Params, 1.65 GMac, 68.063% MACs, 
    (layers): ModuleList(
      12.6 M, 50.814% Params, 1.63 GMac, 67.088% MACs, 
      (0): DecoderLayer(
        4.2 M, 16.938% Params, 542.49 MMac, 22.363% MACs, 
        (self_attention): AttentionLayer(
          1.05 M, 4.236% Params, 151.0 MMac, 6.224% MACs, 
          (inner_attention): ProbAttention(
            0, 0.000% Params, 0.0 Mac, 0.000% MACs, 
            (dropout): Dropout(0, 0.000% Params, 0.0 Mac, 0.000% MACs, p=0.05, inplace=False)
          )
          (query_projection): Linear(262.66 k, 1.059% Params, 37.75 MMac, 1.556% MACs, in_features=512, out_features=512, bias=True)
          (key_projection): Linear(262.66 k, 1.059% Params, 37.75 MMac, 1.556% MACs, in_features=512, out_features=512, bias=True)
          (value_projection): Linear(262.66 k, 1.059% Params, 37.75 MMac, 1.556% MACs, in_features=512, out_features=512, bias=True)
          (out_projection): Linear(262.66 k, 1.059% Params, 37.75 MMac, 1.556% MACs, in_features=512, out_features=512, bias=True)
        )
        (cross_attention): AttentionLayer(
          1.05 M, 4.236% Params, 89.13 MMac, 3.674% MACs, 
          (inner_attention): ProbAttention(
            0, 0.000% Params, 0.0 Mac, 0.000% MACs, 
            (dropout): Dropout(0, 0.000% Params, 0.0 Mac, 0.000% MACs, p=0.05, inplace=False)
          )
          (query_projection): Linear(262.66 k, 1.059% Params, 37.75 MMac, 1.556% MACs, in_features=512, out_features=512, bias=True)
          (key_projection): Linear(262.66 k, 1.059% Params, 6.82 MMac, 0.281% MACs, in_features=512, out_features=512, bias=True)
          (value_projection): Linear(262.66 k, 1.059% Params, 6.82 MMac, 0.281% MACs, in_features=512, out_features=512, bias=True)
          (out_projection): Linear(262.66 k, 1.059% Params, 37.75 MMac, 1.556% MACs, in_features=512, out_features=512, bias=True)
        )
        (conv1): Conv1d(1.05 M, 4.236% Params, 151.29 MMac, 6.237% MACs, 512, 2048, kernel_size=(1,), stride=(1,))
        (conv2): Conv1d(1.05 M, 4.230% Params, 151.07 MMac, 6.227% MACs, 2048, 512, kernel_size=(1,), stride=(1,))
        (norm1): LayerNorm(0, 0.000% Params, 0.0 Mac, 0.000% MACs, (512,), eps=1e-05, elementwise_affine=True)
        (norm2): LayerNorm(0, 0.000% Params, 0.0 Mac, 0.000% MACs, (512,), eps=1e-05, elementwise_affine=True)
        (norm3): LayerNorm(0, 0.000% Params, 0.0 Mac, 0.000% MACs, (512,), eps=1e-05, elementwise_affine=True)
        (dropout): Dropout(0, 0.000% Params, 0.0 Mac, 0.000% MACs, p=0.05, inplace=False)
      )
      (1): DecoderLayer(
        4.2 M, 16.938% Params, 542.49 MMac, 22.363% MACs, 
        (self_attention): AttentionLayer(
          1.05 M, 4.236% Params, 151.0 MMac, 6.224% MACs, 
          (inner_attention): ProbAttention(
            0, 0.000% Params, 0.0 Mac, 0.000% MACs, 
            (dropout): Dropout(0, 0.000% Params, 0.0 Mac, 0.000% MACs, p=0.05, inplace=False)
          )
          (query_projection): Linear(262.66 k, 1.059% Params, 37.75 MMac, 1.556% MACs, in_features=512, out_features=512, bias=True)
          (key_projection): Linear(262.66 k, 1.059% Params, 37.75 MMac, 1.556% MACs, in_features=512, out_features=512, bias=True)
          (value_projection): Linear(262.66 k, 1.059% Params, 37.75 MMac, 1.556% MACs, in_features=512, out_features=512, bias=True)
          (out_projection): Linear(262.66 k, 1.059% Params, 37.75 MMac, 1.556% MACs, in_features=512, out_features=512, bias=True)
        )
        (cross_attention): AttentionLayer(
          1.05 M, 4.236% Params, 89.13 MMac, 3.674% MACs, 
          (inner_attention): ProbAttention(
            0, 0.000% Params, 0.0 Mac, 0.000% MACs, 
            (dropout): Dropout(0, 0.000% Params, 0.0 Mac, 0.000% MACs, p=0.05, inplace=False)
          )
          (query_projection): Linear(262.66 k, 1.059% Params, 37.75 MMac, 1.556% MACs, in_features=512, out_features=512, bias=True)
          (key_projection): Linear(262.66 k, 1.059% Params, 6.82 MMac, 0.281% MACs, in_features=512, out_features=512, bias=True)
          (value_projection): Linear(262.66 k, 1.059% Params, 6.82 MMac, 0.281% MACs, in_features=512, out_features=512, bias=True)
          (out_projection): Linear(262.66 k, 1.059% Params, 37.75 MMac, 1.556% MACs, in_features=512, out_features=512, bias=True)
        )
        (conv1): Conv1d(1.05 M, 4.236% Params, 151.29 MMac, 6.237% MACs, 512, 2048, kernel_size=(1,), stride=(1,))
        (conv2): Conv1d(1.05 M, 4.230% Params, 151.07 MMac, 6.227% MACs, 2048, 512, kernel_size=(1,), stride=(1,))
        (norm1): LayerNorm(0, 0.000% Params, 0.0 Mac, 0.000% MACs, (512,), eps=1e-05, elementwise_affine=True)
        (norm2): LayerNorm(0, 0.000% Params, 0.0 Mac, 0.000% MACs, (512,), eps=1e-05, elementwise_affine=True)
        (norm3): LayerNorm(0, 0.000% Params, 0.0 Mac, 0.000% MACs, (512,), eps=1e-05, elementwise_affine=True)
        (dropout): Dropout(0, 0.000% Params, 0.0 Mac, 0.000% MACs, p=0.05, inplace=False)
      )
      (2): DecoderLayer(
        4.2 M, 16.938% Params, 542.49 MMac, 22.363% MACs, 
        (self_attention): AttentionLayer(
          1.05 M, 4.236% Params, 151.0 MMac, 6.224% MACs, 
          (inner_attention): ProbAttention(
            0, 0.000% Params, 0.0 Mac, 0.000% MACs, 
            (dropout): Dropout(0, 0.000% Params, 0.0 Mac, 0.000% MACs, p=0.05, inplace=False)
          )
          (query_projection): Linear(262.66 k, 1.059% Params, 37.75 MMac, 1.556% MACs, in_features=512, out_features=512, bias=True)
          (key_projection): Linear(262.66 k, 1.059% Params, 37.75 MMac, 1.556% MACs, in_features=512, out_features=512, bias=True)
          (value_projection): Linear(262.66 k, 1.059% Params, 37.75 MMac, 1.556% MACs, in_features=512, out_features=512, bias=True)
          (out_projection): Linear(262.66 k, 1.059% Params, 37.75 MMac, 1.556% MACs, in_features=512, out_features=512, bias=True)
        )
        (cross_attention): AttentionLayer(
          1.05 M, 4.236% Params, 89.13 MMac, 3.674% MACs, 
          (inner_attention): ProbAttention(
            0, 0.000% Params, 0.0 Mac, 0.000% MACs, 
            (dropout): Dropout(0, 0.000% Params, 0.0 Mac, 0.000% MACs, p=0.05, inplace=False)
          )
          (query_projection): Linear(262.66 k, 1.059% Params, 37.75 MMac, 1.556% MACs, in_features=512, out_features=512, bias=True)
          (key_projection): Linear(262.66 k, 1.059% Params, 6.82 MMac, 0.281% MACs, in_features=512, out_features=512, bias=True)
          (value_projection): Linear(262.66 k, 1.059% Params, 6.82 MMac, 0.281% MACs, in_features=512, out_features=512, bias=True)
          (out_projection): Linear(262.66 k, 1.059% Params, 37.75 MMac, 1.556% MACs, in_features=512, out_features=512, bias=True)
        )
        (conv1): Conv1d(1.05 M, 4.236% Params, 151.29 MMac, 6.237% MACs, 512, 2048, kernel_size=(1,), stride=(1,))
        (conv2): Conv1d(1.05 M, 4.230% Params, 151.07 MMac, 6.227% MACs, 2048, 512, kernel_size=(1,), stride=(1,))
        (norm1): LayerNorm(0, 0.000% Params, 0.0 Mac, 0.000% MACs, (512,), eps=1e-05, elementwise_affine=True)
        (norm2): LayerNorm(0, 0.000% Params, 0.0 Mac, 0.000% MACs, (512,), eps=1e-05, elementwise_affine=True)
        (norm3): LayerNorm(0, 0.000% Params, 0.0 Mac, 0.000% MACs, (512,), eps=1e-05, elementwise_affine=True)
        (dropout): Dropout(0, 0.000% Params, 0.0 Mac, 0.000% MACs, p=0.05, inplace=False)
      )
    )
    (norm): LayerNorm(0, 0.000% Params, 0.0 Mac, 0.000% MACs, (512,), eps=1e-05, elementwise_affine=True)
    (projection): Linear(164.67 k, 0.664% Params, 23.67 MMac, 0.976% MACs, in_features=512, out_features=321, bias=True)
  )
)
Computational complexity:       2.43 GMac
Number of parameters:           24.8 M  
