…
INFO: Trainable parameter count: 16.49M
INFO: Trainable parameter count: 16.49M
INFO: Trainable parameter count: 16.49M
INFO: Trainable parameter count: 16.49M
INFO: Trainable parameter count: 16.49M
INFO: Trainable parameter count: 16.49M
INFO: Trainable parameter count: 16.49M
INFO: Trainable parameter count: 16.66M
INFO: Trainable parameter count: 16.66M
Model(
  16.65 M, 99.926% Params, 1.79 GMac, 100.000% MACs, 
  (enc_embedding): DataEmbedding(
    495.1 k, 2.972% Params, 47.53 MMac, 2.662% MACs, 
    (value_embedding): TokenEmbedding(
      493.06 k, 2.960% Params, 47.33 MMac, 2.651% MACs, 
      (tokenConv): Conv1d(493.06 k, 2.960% Params, 47.33 MMac, 2.651% MACs, 321, 512, kernel_size=(3,), stride=(1,), padding=(1,), bias=False, padding_mode=circular)
    )
    (position_embedding): PositionalEmbedding(0, 0.000% Params, 0.0 Mac, 0.000% MACs, )
    (temporal_embedding): TimeFeatureEmbedding(
      2.05 k, 0.012% Params, 196.61 KMac, 0.011% MACs, 
      (embed): Linear(2.05 k, 0.012% Params, 196.61 KMac, 0.011% MACs, in_features=4, out_features=512, bias=False)
    )
    (dropout): Dropout(0, 0.000% Params, 0.0 Mac, 0.000% MACs, p=0.05, inplace=False)
  )
  (dec_embedding): DataEmbedding(
    495.1 k, 2.972% Params, 71.29 MMac, 3.993% MACs, 
    (value_embedding): TokenEmbedding(
      493.06 k, 2.960% Params, 71.0 MMac, 3.977% MACs, 
      (tokenConv): Conv1d(493.06 k, 2.960% Params, 71.0 MMac, 3.977% MACs, 321, 512, kernel_size=(3,), stride=(1,), padding=(1,), bias=False, padding_mode=circular)
    )
    (position_embedding): PositionalEmbedding(0, 0.000% Params, 0.0 Mac, 0.000% MACs, )
    (temporal_embedding): TimeFeatureEmbedding(
      2.05 k, 0.012% Params, 294.91 KMac, 0.017% MACs, 
      (embed): Linear(2.05 k, 0.012% Params, 294.91 KMac, 0.017% MACs, in_features=4, out_features=512, bias=False)
    )
    (dropout): Dropout(0, 0.000% Params, 0.0 Mac, 0.000% MACs, p=0.05, inplace=False)
  )
  (encoder): Encoder(
    7.09 M, 42.555% Params, 533.83 MMac, 29.899% MACs, 
    (attn_layers): ModuleList(
      6.3 M, 37.824% Params, 456.51 MMac, 25.569% MACs, 
      (0): EncoderLayer(
        3.15 M, 18.912% Params, 302.24 MMac, 16.928% MACs, 
        (attention): AttentionLayer(
          1.05 M, 6.307% Params, 100.67 MMac, 5.638% MACs, 
          (inner_attention): ProbAttention(
            0, 0.000% Params, 0.0 Mac, 0.000% MACs, 
            (dropout): Dropout(0, 0.000% Params, 0.0 Mac, 0.000% MACs, p=0.05, inplace=False)
          )
          (query_projection): Linear(262.66 k, 1.577% Params, 25.17 MMac, 1.410% MACs, in_features=512, out_features=512, bias=True)
          (key_projection): Linear(262.66 k, 1.577% Params, 25.17 MMac, 1.410% MACs, in_features=512, out_features=512, bias=True)
          (value_projection): Linear(262.66 k, 1.577% Params, 25.17 MMac, 1.410% MACs, in_features=512, out_features=512, bias=True)
          (out_projection): Linear(262.66 k, 1.577% Params, 25.17 MMac, 1.410% MACs, in_features=512, out_features=512, bias=True)
        )
        (conv1): Conv1d(1.05 M, 6.307% Params, 100.86 MMac, 5.649% MACs, 512, 2048, kernel_size=(1,), stride=(1,))
        (conv2): Conv1d(1.05 M, 6.298% Params, 100.71 MMac, 5.641% MACs, 2048, 512, kernel_size=(1,), stride=(1,))
        (norm1): LayerNorm(0, 0.000% Params, 0.0 Mac, 0.000% MACs, (512,), eps=1e-05, elementwise_affine=True)
        (norm2): LayerNorm(0, 0.000% Params, 0.0 Mac, 0.000% MACs, (512,), eps=1e-05, elementwise_affine=True)
        (dropout): Dropout(0, 0.000% Params, 0.0 Mac, 0.000% MACs, p=0.05, inplace=False)
      )
      (1): EncoderLayer(
        3.15 M, 18.912% Params, 154.27 MMac, 8.640% MACs, 
        (attention): AttentionLayer(
          1.05 M, 6.307% Params, 51.38 MMac, 2.878% MACs, 
          (inner_attention): ProbAttention(
            0, 0.000% Params, 0.0 Mac, 0.000% MACs, 
            (dropout): Dropout(0, 0.000% Params, 0.0 Mac, 0.000% MACs, p=0.05, inplace=False)
          )
          (query_projection): Linear(262.66 k, 1.577% Params, 12.85 MMac, 0.719% MACs, in_features=512, out_features=512, bias=True)
          (key_projection): Linear(262.66 k, 1.577% Params, 12.85 MMac, 0.719% MACs, in_features=512, out_features=512, bias=True)
          (value_projection): Linear(262.66 k, 1.577% Params, 12.85 MMac, 0.719% MACs, in_features=512, out_features=512, bias=True)
          (out_projection): Linear(262.66 k, 1.577% Params, 12.85 MMac, 0.719% MACs, in_features=512, out_features=512, bias=True)
        )
        (conv1): Conv1d(1.05 M, 6.307% Params, 51.48 MMac, 2.883% MACs, 512, 2048, kernel_size=(1,), stride=(1,))
        (conv2): Conv1d(1.05 M, 6.298% Params, 51.41 MMac, 2.879% MACs, 2048, 512, kernel_size=(1,), stride=(1,))
        (norm1): LayerNorm(0, 0.000% Params, 0.0 Mac, 0.000% MACs, (512,), eps=1e-05, elementwise_affine=True)
        (norm2): LayerNorm(0, 0.000% Params, 0.0 Mac, 0.000% MACs, (512,), eps=1e-05, elementwise_affine=True)
        (dropout): Dropout(0, 0.000% Params, 0.0 Mac, 0.000% MACs, p=0.05, inplace=False)
      )
    )
    (conv_layers): ModuleList(
      787.97 k, 4.730% Params, 77.32 MMac, 4.331% MACs, 
      (0): ConvLayer(
        787.97 k, 4.730% Params, 77.32 MMac, 4.331% MACs, 
        (downConv): Conv1d(786.94 k, 4.724% Params, 77.12 MMac, 4.319% MACs, 512, 512, kernel_size=(3,), stride=(1,), padding=(2,), padding_mode=circular)
        (norm): BatchNorm1d(1.02 k, 0.006% Params, 100.35 KMac, 0.006% MACs, 512, eps=1e-05, momentum=0.1, affine=True, track_running_stats=True)
        (activation): ELU(0, 0.000% Params, 50.18 KMac, 0.003% MACs, alpha=1.0)
        (maxPool): MaxPool1d(0, 0.000% Params, 50.18 KMac, 0.003% MACs, kernel_size=3, stride=2, padding=1, dilation=1, ceil_mode=False)
      )
    )
    (norm): LayerNorm(0, 0.000% Params, 0.0 Mac, 0.000% MACs, (512,), eps=1e-05, elementwise_affine=True)
  )
  (decoder): Decoder(
    8.57 M, 51.427% Params, 1.13 GMac, 63.445% MACs, 
    (layers): ModuleList(
      8.4 M, 50.439% Params, 1.11 GMac, 62.120% MACs, 
      (0): DecoderLayer(
        4.2 M, 25.219% Params, 554.55 MMac, 31.060% MACs, 
        (self_attention): AttentionLayer(
          1.05 M, 6.307% Params, 151.0 MMac, 8.457% MACs, 
          (inner_attention): ProbAttention(
            0, 0.000% Params, 0.0 Mac, 0.000% MACs, 
            (dropout): Dropout(0, 0.000% Params, 0.0 Mac, 0.000% MACs, p=0.05, inplace=False)
          )
          (query_projection): Linear(262.66 k, 1.577% Params, 37.75 MMac, 2.114% MACs, in_features=512, out_features=512, bias=True)
          (key_projection): Linear(262.66 k, 1.577% Params, 37.75 MMac, 2.114% MACs, in_features=512, out_features=512, bias=True)
          (value_projection): Linear(262.66 k, 1.577% Params, 37.75 MMac, 2.114% MACs, in_features=512, out_features=512, bias=True)
          (out_projection): Linear(262.66 k, 1.577% Params, 37.75 MMac, 2.114% MACs, in_features=512, out_features=512, bias=True)
        )
        (cross_attention): AttentionLayer(
          1.05 M, 6.307% Params, 101.19 MMac, 5.668% MACs, 
          (inner_attention): ProbAttention(
            0, 0.000% Params, 0.0 Mac, 0.000% MACs, 
            (dropout): Dropout(0, 0.000% Params, 0.0 Mac, 0.000% MACs, p=0.05, inplace=False)
          )
          (query_projection): Linear(262.66 k, 1.577% Params, 37.75 MMac, 2.114% MACs, in_features=512, out_features=512, bias=True)
          (key_projection): Linear(262.66 k, 1.577% Params, 12.85 MMac, 0.719% MACs, in_features=512, out_features=512, bias=True)
          (value_projection): Linear(262.66 k, 1.577% Params, 12.85 MMac, 0.719% MACs, in_features=512, out_features=512, bias=True)
          (out_projection): Linear(262.66 k, 1.577% Params, 37.75 MMac, 2.114% MACs, in_features=512, out_features=512, bias=True)
        )
        (conv1): Conv1d(1.05 M, 6.307% Params, 151.29 MMac, 8.474% MACs, 512, 2048, kernel_size=(1,), stride=(1,))
        (conv2): Conv1d(1.05 M, 6.298% Params, 151.07 MMac, 8.461% MACs, 2048, 512, kernel_size=(1,), stride=(1,))
        (norm1): LayerNorm(0, 0.000% Params, 0.0 Mac, 0.000% MACs, (512,), eps=1e-05, elementwise_affine=True)
        (norm2): LayerNorm(0, 0.000% Params, 0.0 Mac, 0.000% MACs, (512,), eps=1e-05, elementwise_affine=True)
        (norm3): LayerNorm(0, 0.000% Params, 0.0 Mac, 0.000% MACs, (512,), eps=1e-05, elementwise_affine=True)
        (dropout): Dropout(0, 0.000% Params, 0.0 Mac, 0.000% MACs, p=0.05, inplace=False)
      )
      (1): DecoderLayer(
        4.2 M, 25.219% Params, 554.55 MMac, 31.060% MACs, 
        (self_attention): AttentionLayer(
          1.05 M, 6.307% Params, 151.0 MMac, 8.457% MACs, 
          (inner_attention): ProbAttention(
            0, 0.000% Params, 0.0 Mac, 0.000% MACs, 
            (dropout): Dropout(0, 0.000% Params, 0.0 Mac, 0.000% MACs, p=0.05, inplace=False)
          )
          (query_projection): Linear(262.66 k, 1.577% Params, 37.75 MMac, 2.114% MACs, in_features=512, out_features=512, bias=True)
          (key_projection): Linear(262.66 k, 1.577% Params, 37.75 MMac, 2.114% MACs, in_features=512, out_features=512, bias=True)
          (value_projection): Linear(262.66 k, 1.577% Params, 37.75 MMac, 2.114% MACs, in_features=512, out_features=512, bias=True)
          (out_projection): Linear(262.66 k, 1.577% Params, 37.75 MMac, 2.114% MACs, in_features=512, out_features=512, bias=True)
        )
        (cross_attention): AttentionLayer(
          1.05 M, 6.307% Params, 101.19 MMac, 5.668% MACs, 
          (inner_attention): ProbAttention(
            0, 0.000% Params, 0.0 Mac, 0.000% MACs, 
            (dropout): Dropout(0, 0.000% Params, 0.0 Mac, 0.000% MACs, p=0.05, inplace=False)
          )
          (query_projection): Linear(262.66 k, 1.577% Params, 37.75 MMac, 2.114% MACs, in_features=512, out_features=512, bias=True)
          (key_projection): Linear(262.66 k, 1.577% Params, 12.85 MMac, 0.719% MACs, in_features=512, out_features=512, bias=True)
          (value_projection): Linear(262.66 k, 1.577% Params, 12.85 MMac, 0.719% MACs, in_features=512, out_features=512, bias=True)
          (out_projection): Linear(262.66 k, 1.577% Params, 37.75 MMac, 2.114% MACs, in_features=512, out_features=512, bias=True)
        )
        (conv1): Conv1d(1.05 M, 6.307% Params, 151.29 MMac, 8.474% MACs, 512, 2048, kernel_size=(1,), stride=(1,))
        (conv2): Conv1d(1.05 M, 6.298% Params, 151.07 MMac, 8.461% MACs, 2048, 512, kernel_size=(1,), stride=(1,))
        (norm1): LayerNorm(0, 0.000% Params, 0.0 Mac, 0.000% MACs, (512,), eps=1e-05, elementwise_affine=True)
        (norm2): LayerNorm(0, 0.000% Params, 0.0 Mac, 0.000% MACs, (512,), eps=1e-05, elementwise_affine=True)
        (norm3): LayerNorm(0, 0.000% Params, 0.0 Mac, 0.000% MACs, (512,), eps=1e-05, elementwise_affine=True)
        (dropout): Dropout(0, 0.000% Params, 0.0 Mac, 0.000% MACs, p=0.05, inplace=False)
      )
    )
    (norm): LayerNorm(0, 0.000% Params, 0.0 Mac, 0.000% MACs, (512,), eps=1e-05, elementwise_affine=True)
    (projection): Linear(164.67 k, 0.989% Params, 23.67 MMac, 1.326% MACs, in_features=512, out_features=321, bias=True)
  )
)
Computational complexity:       1.79 GMac
Number of parameters:           16.66 M 
