…
INFO: Trainable parameter count: 23.93M
INFO: Trainable parameter count: 23.93M
INFO: Trainable parameter count: 23.93M
INFO: Trainable parameter count: 23.93M
INFO: Trainable parameter count: 23.94M
INFO: Trainable parameter count: 23.94M
INFO: Trainable parameter count: 23.94M
INFO: Trainable parameter count: 23.94M
INFO: Trainable parameter count: 23.94M
Model(
  23.92 M, 99.923% Params, 2.76 GMac, 100.000% MACs, 
  (enc_embedding): DataEmbedding(
    12.8 k, 0.053% Params, 1.23 MMac, 0.045% MACs, 
    (value_embedding): TokenEmbedding(
      10.75 k, 0.045% Params, 1.03 MMac, 0.037% MACs, 
      (tokenConv): Conv1d(10.75 k, 0.045% Params, 1.03 MMac, 0.037% MACs, 7, 512, kernel_size=(3,), stride=(1,), padding=(1,), bias=False, padding_mode=circular)
    )
    (position_embedding): PositionalEmbedding(0, 0.000% Params, 0.0 Mac, 0.000% MACs, )
    (temporal_embedding): TimeFeatureEmbedding(
      2.05 k, 0.009% Params, 196.61 KMac, 0.007% MACs, 
      (embed): Linear(2.05 k, 0.009% Params, 196.61 KMac, 0.007% MACs, in_features=4, out_features=512, bias=False)
    )
    (dropout): Dropout(0, 0.000% Params, 0.0 Mac, 0.000% MACs, p=0.05, inplace=False)
  )
  (dec_embedding): DataEmbedding(
    12.8 k, 0.053% Params, 1.84 MMac, 0.067% MACs, 
    (value_embedding): TokenEmbedding(
      10.75 k, 0.045% Params, 1.55 MMac, 0.056% MACs, 
      (tokenConv): Conv1d(10.75 k, 0.045% Params, 1.55 MMac, 0.056% MACs, 7, 512, kernel_size=(3,), stride=(1,), padding=(1,), bias=False, padding_mode=circular)
    )
    (position_embedding): PositionalEmbedding(0, 0.000% Params, 0.0 Mac, 0.000% MACs, )
    (temporal_embedding): TimeFeatureEmbedding(
      2.05 k, 0.009% Params, 294.91 KMac, 0.011% MACs, 
      (embed): Linear(2.05 k, 0.009% Params, 294.91 KMac, 0.011% MACs, in_features=4, out_features=512, bias=False)
    )
    (dropout): Dropout(0, 0.000% Params, 0.0 Mac, 0.000% MACs, p=0.05, inplace=False)
  )
  (encoder): Encoder(
    7.09 M, 29.610% Params, 533.83 MMac, 19.372% MACs, 
    (attn_layers): ModuleList(
      6.3 M, 26.318% Params, 456.51 MMac, 16.567% MACs, 
      (0): EncoderLayer(
        3.15 M, 13.159% Params, 302.24 MMac, 10.968% MACs, 
        (attention): AttentionLayer(
          1.05 M, 4.389% Params, 100.67 MMac, 3.653% MACs, 
          (inner_attention): ProbAttention(
            0, 0.000% Params, 0.0 Mac, 0.000% MACs, 
            (dropout): Dropout(0, 0.000% Params, 0.0 Mac, 0.000% MACs, p=0.05, inplace=False)
          )
          (query_projection): Linear(262.66 k, 1.097% Params, 25.17 MMac, 0.913% MACs, in_features=512, out_features=512, bias=True)
          (key_projection): Linear(262.66 k, 1.097% Params, 25.17 MMac, 0.913% MACs, in_features=512, out_features=512, bias=True)
          (value_projection): Linear(262.66 k, 1.097% Params, 25.17 MMac, 0.913% MACs, in_features=512, out_features=512, bias=True)
          (out_projection): Linear(262.66 k, 1.097% Params, 25.17 MMac, 0.913% MACs, in_features=512, out_features=512, bias=True)
        )
        (conv1): Conv1d(1.05 M, 4.389% Params, 100.86 MMac, 3.660% MACs, 512, 2048, kernel_size=(1,), stride=(1,))
        (conv2): Conv1d(1.05 M, 4.382% Params, 100.71 MMac, 3.655% MACs, 2048, 512, kernel_size=(1,), stride=(1,))
        (norm1): LayerNorm(0, 0.000% Params, 0.0 Mac, 0.000% MACs, (512,), eps=1e-05, elementwise_affine=True)
        (norm2): LayerNorm(0, 0.000% Params, 0.0 Mac, 0.000% MACs, (512,), eps=1e-05, elementwise_affine=True)
        (dropout): Dropout(0, 0.000% Params, 0.0 Mac, 0.000% MACs, p=0.05, inplace=False)
      )
      (1): EncoderLayer(
        3.15 M, 13.159% Params, 154.27 MMac, 5.598% MACs, 
        (attention): AttentionLayer(
          1.05 M, 4.389% Params, 51.38 MMac, 1.865% MACs, 
          (inner_attention): ProbAttention(
            0, 0.000% Params, 0.0 Mac, 0.000% MACs, 
            (dropout): Dropout(0, 0.000% Params, 0.0 Mac, 0.000% MACs, p=0.05, inplace=False)
          )
          (query_projection): Linear(262.66 k, 1.097% Params, 12.85 MMac, 0.466% MACs, in_features=512, out_features=512, bias=True)
          (key_projection): Linear(262.66 k, 1.097% Params, 12.85 MMac, 0.466% MACs, in_features=512, out_features=512, bias=True)
          (value_projection): Linear(262.66 k, 1.097% Params, 12.85 MMac, 0.466% MACs, in_features=512, out_features=512, bias=True)
          (out_projection): Linear(262.66 k, 1.097% Params, 12.85 MMac, 0.466% MACs, in_features=512, out_features=512, bias=True)
        )
        (conv1): Conv1d(1.05 M, 4.389% Params, 51.48 MMac, 1.868% MACs, 512, 2048, kernel_size=(1,), stride=(1,))
        (conv2): Conv1d(1.05 M, 4.382% Params, 51.41 MMac, 1.865% MACs, 2048, 512, kernel_size=(1,), stride=(1,))
        (norm1): LayerNorm(0, 0.000% Params, 0.0 Mac, 0.000% MACs, (512,), eps=1e-05, elementwise_affine=True)
        (norm2): LayerNorm(0, 0.000% Params, 0.0 Mac, 0.000% MACs, (512,), eps=1e-05, elementwise_affine=True)
        (dropout): Dropout(0, 0.000% Params, 0.0 Mac, 0.000% MACs, p=0.05, inplace=False)
      )
    )
    (conv_layers): ModuleList(
      787.97 k, 3.291% Params, 77.32 MMac, 2.806% MACs, 
      (0): ConvLayer(
        787.97 k, 3.291% Params, 77.32 MMac, 2.806% MACs, 
        (downConv): Conv1d(786.94 k, 3.287% Params, 77.12 MMac, 2.799% MACs, 512, 512, kernel_size=(3,), stride=(1,), padding=(2,), padding_mode=circular)
        (norm): BatchNorm1d(1.02 k, 0.004% Params, 100.35 KMac, 0.004% MACs, 512, eps=1e-05, momentum=0.1, affine=True, track_running_stats=True)
        (activation): ELU(0, 0.000% Params, 50.18 KMac, 0.002% MACs, alpha=1.0)
        (maxPool): MaxPool1d(0, 0.000% Params, 50.18 KMac, 0.002% MACs, kernel_size=3, stride=2, padding=1, dilation=1, ceil_mode=False)
      )
    )
    (norm): LayerNorm(0, 0.000% Params, 0.0 Mac, 0.000% MACs, (512,), eps=1e-05, elementwise_affine=True)
  )
  (decoder): Decoder(
    16.81 M, 70.206% Params, 2.22 GMac, 80.516% MACs, 
    (layers): ModuleList(
      16.8 M, 70.191% Params, 2.22 GMac, 80.497% MACs, 
      (0): DecoderLayer(
        4.2 M, 17.548% Params, 554.55 MMac, 20.124% MACs, 
        (self_attention): AttentionLayer(
          1.05 M, 4.389% Params, 151.0 MMac, 5.480% MACs, 
          (inner_attention): ProbAttention(
            0, 0.000% Params, 0.0 Mac, 0.000% MACs, 
            (dropout): Dropout(0, 0.000% Params, 0.0 Mac, 0.000% MACs, p=0.05, inplace=False)
          )
          (query_projection): Linear(262.66 k, 1.097% Params, 37.75 MMac, 1.370% MACs, in_features=512, out_features=512, bias=True)
          (key_projection): Linear(262.66 k, 1.097% Params, 37.75 MMac, 1.370% MACs, in_features=512, out_features=512, bias=True)
          (value_projection): Linear(262.66 k, 1.097% Params, 37.75 MMac, 1.370% MACs, in_features=512, out_features=512, bias=True)
          (out_projection): Linear(262.66 k, 1.097% Params, 37.75 MMac, 1.370% MACs, in_features=512, out_features=512, bias=True)
        )
        (cross_attention): AttentionLayer(
          1.05 M, 4.389% Params, 101.19 MMac, 3.672% MACs, 
          (inner_attention): ProbAttention(
            0, 0.000% Params, 0.0 Mac, 0.000% MACs, 
            (dropout): Dropout(0, 0.000% Params, 0.0 Mac, 0.000% MACs, p=0.05, inplace=False)
          )
          (query_projection): Linear(262.66 k, 1.097% Params, 37.75 MMac, 1.370% MACs, in_features=512, out_features=512, bias=True)
          (key_projection): Linear(262.66 k, 1.097% Params, 12.85 MMac, 0.466% MACs, in_features=512, out_features=512, bias=True)
          (value_projection): Linear(262.66 k, 1.097% Params, 12.85 MMac, 0.466% MACs, in_features=512, out_features=512, bias=True)
          (out_projection): Linear(262.66 k, 1.097% Params, 37.75 MMac, 1.370% MACs, in_features=512, out_features=512, bias=True)
        )
        (conv1): Conv1d(1.05 M, 4.389% Params, 151.29 MMac, 5.490% MACs, 512, 2048, kernel_size=(1,), stride=(1,))
        (conv2): Conv1d(1.05 M, 4.382% Params, 151.07 MMac, 5.482% MACs, 2048, 512, kernel_size=(1,), stride=(1,))
        (norm1): LayerNorm(0, 0.000% Params, 0.0 Mac, 0.000% MACs, (512,), eps=1e-05, elementwise_affine=True)
        (norm2): LayerNorm(0, 0.000% Params, 0.0 Mac, 0.000% MACs, (512,), eps=1e-05, elementwise_affine=True)
        (norm3): LayerNorm(0, 0.000% Params, 0.0 Mac, 0.000% MACs, (512,), eps=1e-05, elementwise_affine=True)
        (dropout): Dropout(0, 0.000% Params, 0.0 Mac, 0.000% MACs, p=0.05, inplace=False)
      )
      (1): DecoderLayer(
        4.2 M, 17.548% Params, 554.55 MMac, 20.124% MACs, 
        (self_attention): AttentionLayer(
          1.05 M, 4.389% Params, 151.0 MMac, 5.480% MACs, 
          (inner_attention): ProbAttention(
            0, 0.000% Params, 0.0 Mac, 0.000% MACs, 
            (dropout): Dropout(0, 0.000% Params, 0.0 Mac, 0.000% MACs, p=0.05, inplace=False)
          )
          (query_projection): Linear(262.66 k, 1.097% Params, 37.75 MMac, 1.370% MACs, in_features=512, out_features=512, bias=True)
          (key_projection): Linear(262.66 k, 1.097% Params, 37.75 MMac, 1.370% MACs, in_features=512, out_features=512, bias=True)
          (value_projection): Linear(262.66 k, 1.097% Params, 37.75 MMac, 1.370% MACs, in_features=512, out_features=512, bias=True)
          (out_projection): Linear(262.66 k, 1.097% Params, 37.75 MMac, 1.370% MACs, in_features=512, out_features=512, bias=True)
        )
        (cross_attention): AttentionLayer(
          1.05 M, 4.389% Params, 101.19 MMac, 3.672% MACs, 
          (inner_attention): ProbAttention(
            0, 0.000% Params, 0.0 Mac, 0.000% MACs, 
            (dropout): Dropout(0, 0.000% Params, 0.0 Mac, 0.000% MACs, p=0.05, inplace=False)
          )
          (query_projection): Linear(262.66 k, 1.097% Params, 37.75 MMac, 1.370% MACs, in_features=512, out_features=512, bias=True)
          (key_projection): Linear(262.66 k, 1.097% Params, 12.85 MMac, 0.466% MACs, in_features=512, out_features=512, bias=True)
          (value_projection): Linear(262.66 k, 1.097% Params, 12.85 MMac, 0.466% MACs, in_features=512, out_features=512, bias=True)
          (out_projection): Linear(262.66 k, 1.097% Params, 37.75 MMac, 1.370% MACs, in_features=512, out_features=512, bias=True)
        )
        (conv1): Conv1d(1.05 M, 4.389% Params, 151.29 MMac, 5.490% MACs, 512, 2048, kernel_size=(1,), stride=(1,))
        (conv2): Conv1d(1.05 M, 4.382% Params, 151.07 MMac, 5.482% MACs, 2048, 512, kernel_size=(1,), stride=(1,))
        (norm1): LayerNorm(0, 0.000% Params, 0.0 Mac, 0.000% MACs, (512,), eps=1e-05, elementwise_affine=True)
        (norm2): LayerNorm(0, 0.000% Params, 0.0 Mac, 0.000% MACs, (512,), eps=1e-05, elementwise_affine=True)
        (norm3): LayerNorm(0, 0.000% Params, 0.0 Mac, 0.000% MACs, (512,), eps=1e-05, elementwise_affine=True)
        (dropout): Dropout(0, 0.000% Params, 0.0 Mac, 0.000% MACs, p=0.05, inplace=False)
      )
      (2): DecoderLayer(
        4.2 M, 17.548% Params, 554.55 MMac, 20.124% MACs, 
        (self_attention): AttentionLayer(
          1.05 M, 4.389% Params, 151.0 MMac, 5.480% MACs, 
          (inner_attention): ProbAttention(
            0, 0.000% Params, 0.0 Mac, 0.000% MACs, 
            (dropout): Dropout(0, 0.000% Params, 0.0 Mac, 0.000% MACs, p=0.05, inplace=False)
          )
          (query_projection): Linear(262.66 k, 1.097% Params, 37.75 MMac, 1.370% MACs, in_features=512, out_features=512, bias=True)
          (key_projection): Linear(262.66 k, 1.097% Params, 37.75 MMac, 1.370% MACs, in_features=512, out_features=512, bias=True)
          (value_projection): Linear(262.66 k, 1.097% Params, 37.75 MMac, 1.370% MACs, in_features=512, out_features=512, bias=True)
          (out_projection): Linear(262.66 k, 1.097% Params, 37.75 MMac, 1.370% MACs, in_features=512, out_features=512, bias=True)
        )
        (cross_attention): AttentionLayer(
          1.05 M, 4.389% Params, 101.19 MMac, 3.672% MACs, 
          (inner_attention): ProbAttention(
            0, 0.000% Params, 0.0 Mac, 0.000% MACs, 
            (dropout): Dropout(0, 0.000% Params, 0.0 Mac, 0.000% MACs, p=0.05, inplace=False)
          )
          (query_projection): Linear(262.66 k, 1.097% Params, 37.75 MMac, 1.370% MACs, in_features=512, out_features=512, bias=True)
          (key_projection): Linear(262.66 k, 1.097% Params, 12.85 MMac, 0.466% MACs, in_features=512, out_features=512, bias=True)
          (value_projection): Linear(262.66 k, 1.097% Params, 12.85 MMac, 0.466% MACs, in_features=512, out_features=512, bias=True)
          (out_projection): Linear(262.66 k, 1.097% Params, 37.75 MMac, 1.370% MACs, in_features=512, out_features=512, bias=True)
        )
        (conv1): Conv1d(1.05 M, 4.389% Params, 151.29 MMac, 5.490% MACs, 512, 2048, kernel_size=(1,), stride=(1,))
        (conv2): Conv1d(1.05 M, 4.382% Params, 151.07 MMac, 5.482% MACs, 2048, 512, kernel_size=(1,), stride=(1,))
        (norm1): LayerNorm(0, 0.000% Params, 0.0 Mac, 0.000% MACs, (512,), eps=1e-05, elementwise_affine=True)
        (norm2): LayerNorm(0, 0.000% Params, 0.0 Mac, 0.000% MACs, (512,), eps=1e-05, elementwise_affine=True)
        (norm3): LayerNorm(0, 0.000% Params, 0.0 Mac, 0.000% MACs, (512,), eps=1e-05, elementwise_affine=True)
        (dropout): Dropout(0, 0.000% Params, 0.0 Mac, 0.000% MACs, p=0.05, inplace=False)
      )
      (3): DecoderLayer(
        4.2 M, 17.548% Params, 554.55 MMac, 20.124% MACs, 
        (self_attention): AttentionLayer(
          1.05 M, 4.389% Params, 151.0 MMac, 5.480% MACs, 
          (inner_attention): ProbAttention(
            0, 0.000% Params, 0.0 Mac, 0.000% MACs, 
            (dropout): Dropout(0, 0.000% Params, 0.0 Mac, 0.000% MACs, p=0.05, inplace=False)
          )
          (query_projection): Linear(262.66 k, 1.097% Params, 37.75 MMac, 1.370% MACs, in_features=512, out_features=512, bias=True)
          (key_projection): Linear(262.66 k, 1.097% Params, 37.75 MMac, 1.370% MACs, in_features=512, out_features=512, bias=True)
          (value_projection): Linear(262.66 k, 1.097% Params, 37.75 MMac, 1.370% MACs, in_features=512, out_features=512, bias=True)
          (out_projection): Linear(262.66 k, 1.097% Params, 37.75 MMac, 1.370% MACs, in_features=512, out_features=512, bias=True)
        )
        (cross_attention): AttentionLayer(
          1.05 M, 4.389% Params, 101.19 MMac, 3.672% MACs, 
          (inner_attention): ProbAttention(
            0, 0.000% Params, 0.0 Mac, 0.000% MACs, 
            (dropout): Dropout(0, 0.000% Params, 0.0 Mac, 0.000% MACs, p=0.05, inplace=False)
          )
          (query_projection): Linear(262.66 k, 1.097% Params, 37.75 MMac, 1.370% MACs, in_features=512, out_features=512, bias=True)
          (key_projection): Linear(262.66 k, 1.097% Params, 12.85 MMac, 0.466% MACs, in_features=512, out_features=512, bias=True)
          (value_projection): Linear(262.66 k, 1.097% Params, 12.85 MMac, 0.466% MACs, in_features=512, out_features=512, bias=True)
          (out_projection): Linear(262.66 k, 1.097% Params, 37.75 MMac, 1.370% MACs, in_features=512, out_features=512, bias=True)
        )
        (conv1): Conv1d(1.05 M, 4.389% Params, 151.29 MMac, 5.490% MACs, 512, 2048, kernel_size=(1,), stride=(1,))
        (conv2): Conv1d(1.05 M, 4.382% Params, 151.07 MMac, 5.482% MACs, 2048, 512, kernel_size=(1,), stride=(1,))
        (norm1): LayerNorm(0, 0.000% Params, 0.0 Mac, 0.000% MACs, (512,), eps=1e-05, elementwise_affine=True)
        (norm2): LayerNorm(0, 0.000% Params, 0.0 Mac, 0.000% MACs, (512,), eps=1e-05, elementwise_affine=True)
        (norm3): LayerNorm(0, 0.000% Params, 0.0 Mac, 0.000% MACs, (512,), eps=1e-05, elementwise_affine=True)
        (dropout): Dropout(0, 0.000% Params, 0.0 Mac, 0.000% MACs, p=0.05, inplace=False)
      )
    )
    (norm): LayerNorm(0, 0.000% Params, 0.0 Mac, 0.000% MACs, (512,), eps=1e-05, elementwise_affine=True)
    (projection): Linear(3.59 k, 0.015% Params, 516.1 KMac, 0.019% MACs, in_features=512, out_features=7, bias=True)
  )
)
Computational complexity:       2.76 GMac
Number of parameters:           23.94 M 
