…
INFO: Trainable parameter count: 27.87M
INFO: Trainable parameter count: 27.87M
INFO: Trainable parameter count: 27.87M
INFO: Trainable parameter count: 27.88M
INFO: Trainable parameter count: 27.88M
INFO: Trainable parameter count: 27.88M
INFO: Trainable parameter count: 27.88M
INFO: Trainable parameter count: 27.88M
INFO: Trainable parameter count: 27.88M
Model(
  27.86 M, 99.927% Params, 2.83 GMac, 100.000% MACs, 
  (enc_embedding): DataEmbedding(
    12.8 k, 0.046% Params, 1.23 MMac, 0.043% MACs, 
    (value_embedding): TokenEmbedding(
      10.75 k, 0.039% Params, 1.03 MMac, 0.036% MACs, 
      (tokenConv): Conv1d(10.75 k, 0.039% Params, 1.03 MMac, 0.036% MACs, 7, 512, kernel_size=(3,), stride=(1,), padding=(1,), bias=False, padding_mode=circular)
    )
    (position_embedding): PositionalEmbedding(0, 0.000% Params, 0.0 Mac, 0.000% MACs, )
    (temporal_embedding): TimeFeatureEmbedding(
      2.05 k, 0.007% Params, 196.61 KMac, 0.007% MACs, 
      (embed): Linear(2.05 k, 0.007% Params, 196.61 KMac, 0.007% MACs, in_features=4, out_features=512, bias=False)
    )
    (dropout): Dropout(0, 0.000% Params, 0.0 Mac, 0.000% MACs, p=0.05, inplace=False)
  )
  (dec_embedding): DataEmbedding(
    12.8 k, 0.046% Params, 1.84 MMac, 0.065% MACs, 
    (value_embedding): TokenEmbedding(
      10.75 k, 0.039% Params, 1.55 MMac, 0.055% MACs, 
      (tokenConv): Conv1d(10.75 k, 0.039% Params, 1.55 MMac, 0.055% MACs, 7, 512, kernel_size=(3,), stride=(1,), padding=(1,), bias=False, padding_mode=circular)
    )
    (position_embedding): PositionalEmbedding(0, 0.000% Params, 0.0 Mac, 0.000% MACs, )
    (temporal_embedding): TimeFeatureEmbedding(
      2.05 k, 0.007% Params, 294.91 KMac, 0.010% MACs, 
      (embed): Linear(2.05 k, 0.007% Params, 294.91 KMac, 0.010% MACs, in_features=4, out_features=512, bias=False)
    )
    (dropout): Dropout(0, 0.000% Params, 0.0 Mac, 0.000% MACs, p=0.05, inplace=False)
  )
  (encoder): Encoder(
    11.03 M, 39.551% Params, 655.92 MMac, 23.182% MACs, 
    (attn_layers): ModuleList(
      9.45 M, 33.898% Params, 538.36 MMac, 19.027% MACs, 
      (0): EncoderLayer(
        3.15 M, 11.299% Params, 302.24 MMac, 10.682% MACs, 
        (attention): AttentionLayer(
          1.05 M, 3.768% Params, 100.67 MMac, 3.558% MACs, 
          (inner_attention): ProbAttention(
            0, 0.000% Params, 0.0 Mac, 0.000% MACs, 
            (dropout): Dropout(0, 0.000% Params, 0.0 Mac, 0.000% MACs, p=0.05, inplace=False)
          )
          (query_projection): Linear(262.66 k, 0.942% Params, 25.17 MMac, 0.889% MACs, in_features=512, out_features=512, bias=True)
          (key_projection): Linear(262.66 k, 0.942% Params, 25.17 MMac, 0.889% MACs, in_features=512, out_features=512, bias=True)
          (value_projection): Linear(262.66 k, 0.942% Params, 25.17 MMac, 0.889% MACs, in_features=512, out_features=512, bias=True)
          (out_projection): Linear(262.66 k, 0.942% Params, 25.17 MMac, 0.889% MACs, in_features=512, out_features=512, bias=True)
        )
        (conv1): Conv1d(1.05 M, 3.768% Params, 100.86 MMac, 3.565% MACs, 512, 2048, kernel_size=(1,), stride=(1,))
        (conv2): Conv1d(1.05 M, 3.763% Params, 100.71 MMac, 3.559% MACs, 2048, 512, kernel_size=(1,), stride=(1,))
        (norm1): LayerNorm(0, 0.000% Params, 0.0 Mac, 0.000% MACs, (512,), eps=1e-05, elementwise_affine=True)
        (norm2): LayerNorm(0, 0.000% Params, 0.0 Mac, 0.000% MACs, (512,), eps=1e-05, elementwise_affine=True)
        (dropout): Dropout(0, 0.000% Params, 0.0 Mac, 0.000% MACs, p=0.05, inplace=False)
      )
      (1): EncoderLayer(
        3.15 M, 11.299% Params, 154.27 MMac, 5.452% MACs, 
        (attention): AttentionLayer(
          1.05 M, 3.768% Params, 51.38 MMac, 1.816% MACs, 
          (inner_attention): ProbAttention(
            0, 0.000% Params, 0.0 Mac, 0.000% MACs, 
            (dropout): Dropout(0, 0.000% Params, 0.0 Mac, 0.000% MACs, p=0.05, inplace=False)
          )
          (query_projection): Linear(262.66 k, 0.942% Params, 12.85 MMac, 0.454% MACs, in_features=512, out_features=512, bias=True)
          (key_projection): Linear(262.66 k, 0.942% Params, 12.85 MMac, 0.454% MACs, in_features=512, out_features=512, bias=True)
          (value_projection): Linear(262.66 k, 0.942% Params, 12.85 MMac, 0.454% MACs, in_features=512, out_features=512, bias=True)
          (out_projection): Linear(262.66 k, 0.942% Params, 12.85 MMac, 0.454% MACs, in_features=512, out_features=512, bias=True)
        )
        (conv1): Conv1d(1.05 M, 3.768% Params, 51.48 MMac, 1.819% MACs, 512, 2048, kernel_size=(1,), stride=(1,))
        (conv2): Conv1d(1.05 M, 3.763% Params, 51.41 MMac, 1.817% MACs, 2048, 512, kernel_size=(1,), stride=(1,))
        (norm1): LayerNorm(0, 0.000% Params, 0.0 Mac, 0.000% MACs, (512,), eps=1e-05, elementwise_affine=True)
        (norm2): LayerNorm(0, 0.000% Params, 0.0 Mac, 0.000% MACs, (512,), eps=1e-05, elementwise_affine=True)
        (dropout): Dropout(0, 0.000% Params, 0.0 Mac, 0.000% MACs, p=0.05, inplace=False)
      )
      (2): EncoderLayer(
        3.15 M, 11.299% Params, 81.86 MMac, 2.893% MACs, 
        (attention): AttentionLayer(
          1.05 M, 3.768% Params, 27.27 MMac, 0.964% MACs, 
          (inner_attention): ProbAttention(
            0, 0.000% Params, 0.0 Mac, 0.000% MACs, 
            (dropout): Dropout(0, 0.000% Params, 0.0 Mac, 0.000% MACs, p=0.05, inplace=False)
          )
          (query_projection): Linear(262.66 k, 0.942% Params, 6.82 MMac, 0.241% MACs, in_features=512, out_features=512, bias=True)
          (key_projection): Linear(262.66 k, 0.942% Params, 6.82 MMac, 0.241% MACs, in_features=512, out_features=512, bias=True)
          (value_projection): Linear(262.66 k, 0.942% Params, 6.82 MMac, 0.241% MACs, in_features=512, out_features=512, bias=True)
          (out_projection): Linear(262.66 k, 0.942% Params, 6.82 MMac, 0.241% MACs, in_features=512, out_features=512, bias=True)
        )
        (conv1): Conv1d(1.05 M, 3.768% Params, 27.32 MMac, 0.965% MACs, 512, 2048, kernel_size=(1,), stride=(1,))
        (conv2): Conv1d(1.05 M, 3.763% Params, 27.28 MMac, 0.964% MACs, 2048, 512, kernel_size=(1,), stride=(1,))
        (norm1): LayerNorm(0, 0.000% Params, 0.0 Mac, 0.000% MACs, (512,), eps=1e-05, elementwise_affine=True)
        (norm2): LayerNorm(0, 0.000% Params, 0.0 Mac, 0.000% MACs, (512,), eps=1e-05, elementwise_affine=True)
        (dropout): Dropout(0, 0.000% Params, 0.0 Mac, 0.000% MACs, p=0.05, inplace=False)
      )
    )
    (conv_layers): ModuleList(
      1.58 M, 5.652% Params, 117.56 MMac, 4.155% MACs, 
      (0): ConvLayer(
        787.97 k, 2.826% Params, 77.32 MMac, 2.733% MACs, 
        (downConv): Conv1d(786.94 k, 2.823% Params, 77.12 MMac, 2.726% MACs, 512, 512, kernel_size=(3,), stride=(1,), padding=(2,), padding_mode=circular)
        (norm): BatchNorm1d(1.02 k, 0.004% Params, 100.35 KMac, 0.004% MACs, 512, eps=1e-05, momentum=0.1, affine=True, track_running_stats=True)
        (activation): ELU(0, 0.000% Params, 50.18 KMac, 0.002% MACs, alpha=1.0)
        (maxPool): MaxPool1d(0, 0.000% Params, 50.18 KMac, 0.002% MACs, kernel_size=3, stride=2, padding=1, dilation=1, ceil_mode=False)
      )
      (1): ConvLayer(
        787.97 k, 2.826% Params, 40.24 MMac, 1.422% MACs, 
        (downConv): Conv1d(786.94 k, 2.823% Params, 40.13 MMac, 1.418% MACs, 512, 512, kernel_size=(3,), stride=(1,), padding=(2,), padding_mode=circular)
        (norm): BatchNorm1d(1.02 k, 0.004% Params, 52.22 KMac, 0.002% MACs, 512, eps=1e-05, momentum=0.1, affine=True, track_running_stats=True)
        (activation): ELU(0, 0.000% Params, 26.11 KMac, 0.001% MACs, alpha=1.0)
        (maxPool): MaxPool1d(0, 0.000% Params, 26.11 KMac, 0.001% MACs, kernel_size=3, stride=2, padding=1, dilation=1, ceil_mode=False)
      )
    )
    (norm): LayerNorm(0, 0.000% Params, 0.0 Mac, 0.000% MACs, (512,), eps=1e-05, elementwise_affine=True)
  )
  (decoder): Decoder(
    16.81 M, 60.284% Params, 2.17 GMac, 76.709% MACs, 
    (layers): ModuleList(
      16.8 M, 60.271% Params, 2.17 GMac, 76.691% MACs, 
      (0): DecoderLayer(
        4.2 M, 15.068% Params, 542.49 MMac, 19.173% MACs, 
        (self_attention): AttentionLayer(
          1.05 M, 3.768% Params, 151.0 MMac, 5.337% MACs, 
          (inner_attention): ProbAttention(
            0, 0.000% Params, 0.0 Mac, 0.000% MACs, 
            (dropout): Dropout(0, 0.000% Params, 0.0 Mac, 0.000% MACs, p=0.05, inplace=False)
          )
          (query_projection): Linear(262.66 k, 0.942% Params, 37.75 MMac, 1.334% MACs, in_features=512, out_features=512, bias=True)
          (key_projection): Linear(262.66 k, 0.942% Params, 37.75 MMac, 1.334% MACs, in_features=512, out_features=512, bias=True)
          (value_projection): Linear(262.66 k, 0.942% Params, 37.75 MMac, 1.334% MACs, in_features=512, out_features=512, bias=True)
          (out_projection): Linear(262.66 k, 0.942% Params, 37.75 MMac, 1.334% MACs, in_features=512, out_features=512, bias=True)
        )
        (cross_attention): AttentionLayer(
          1.05 M, 3.768% Params, 89.13 MMac, 3.150% MACs, 
          (inner_attention): ProbAttention(
            0, 0.000% Params, 0.0 Mac, 0.000% MACs, 
            (dropout): Dropout(0, 0.000% Params, 0.0 Mac, 0.000% MACs, p=0.05, inplace=False)
          )
          (query_projection): Linear(262.66 k, 0.942% Params, 37.75 MMac, 1.334% MACs, in_features=512, out_features=512, bias=True)
          (key_projection): Linear(262.66 k, 0.942% Params, 6.82 MMac, 0.241% MACs, in_features=512, out_features=512, bias=True)
          (value_projection): Linear(262.66 k, 0.942% Params, 6.82 MMac, 0.241% MACs, in_features=512, out_features=512, bias=True)
          (out_projection): Linear(262.66 k, 0.942% Params, 37.75 MMac, 1.334% MACs, in_features=512, out_features=512, bias=True)
        )
        (conv1): Conv1d(1.05 M, 3.768% Params, 151.29 MMac, 5.347% MACs, 512, 2048, kernel_size=(1,), stride=(1,))
        (conv2): Conv1d(1.05 M, 3.763% Params, 151.07 MMac, 5.339% MACs, 2048, 512, kernel_size=(1,), stride=(1,))
        (norm1): LayerNorm(0, 0.000% Params, 0.0 Mac, 0.000% MACs, (512,), eps=1e-05, elementwise_affine=True)
        (norm2): LayerNorm(0, 0.000% Params, 0.0 Mac, 0.000% MACs, (512,), eps=1e-05, elementwise_affine=True)
        (norm3): LayerNorm(0, 0.000% Params, 0.0 Mac, 0.000% MACs, (512,), eps=1e-05, elementwise_affine=True)
        (dropout): Dropout(0, 0.000% Params, 0.0 Mac, 0.000% MACs, p=0.05, inplace=False)
      )
      (1): DecoderLayer(
        4.2 M, 15.068% Params, 542.49 MMac, 19.173% MACs, 
        (self_attention): AttentionLayer(
          1.05 M, 3.768% Params, 151.0 MMac, 5.337% MACs, 
          (inner_attention): ProbAttention(
            0, 0.000% Params, 0.0 Mac, 0.000% MACs, 
            (dropout): Dropout(0, 0.000% Params, 0.0 Mac, 0.000% MACs, p=0.05, inplace=False)
          )
          (query_projection): Linear(262.66 k, 0.942% Params, 37.75 MMac, 1.334% MACs, in_features=512, out_features=512, bias=True)
          (key_projection): Linear(262.66 k, 0.942% Params, 37.75 MMac, 1.334% MACs, in_features=512, out_features=512, bias=True)
          (value_projection): Linear(262.66 k, 0.942% Params, 37.75 MMac, 1.334% MACs, in_features=512, out_features=512, bias=True)
          (out_projection): Linear(262.66 k, 0.942% Params, 37.75 MMac, 1.334% MACs, in_features=512, out_features=512, bias=True)
        )
        (cross_attention): AttentionLayer(
          1.05 M, 3.768% Params, 89.13 MMac, 3.150% MACs, 
          (inner_attention): ProbAttention(
            0, 0.000% Params, 0.0 Mac, 0.000% MACs, 
            (dropout): Dropout(0, 0.000% Params, 0.0 Mac, 0.000% MACs, p=0.05, inplace=False)
          )
          (query_projection): Linear(262.66 k, 0.942% Params, 37.75 MMac, 1.334% MACs, in_features=512, out_features=512, bias=True)
          (key_projection): Linear(262.66 k, 0.942% Params, 6.82 MMac, 0.241% MACs, in_features=512, out_features=512, bias=True)
          (value_projection): Linear(262.66 k, 0.942% Params, 6.82 MMac, 0.241% MACs, in_features=512, out_features=512, bias=True)
          (out_projection): Linear(262.66 k, 0.942% Params, 37.75 MMac, 1.334% MACs, in_features=512, out_features=512, bias=True)
        )
        (conv1): Conv1d(1.05 M, 3.768% Params, 151.29 MMac, 5.347% MACs, 512, 2048, kernel_size=(1,), stride=(1,))
        (conv2): Conv1d(1.05 M, 3.763% Params, 151.07 MMac, 5.339% MACs, 2048, 512, kernel_size=(1,), stride=(1,))
        (norm1): LayerNorm(0, 0.000% Params, 0.0 Mac, 0.000% MACs, (512,), eps=1e-05, elementwise_affine=True)
        (norm2): LayerNorm(0, 0.000% Params, 0.0 Mac, 0.000% MACs, (512,), eps=1e-05, elementwise_affine=True)
        (norm3): LayerNorm(0, 0.000% Params, 0.0 Mac, 0.000% MACs, (512,), eps=1e-05, elementwise_affine=True)
        (dropout): Dropout(0, 0.000% Params, 0.0 Mac, 0.000% MACs, p=0.05, inplace=False)
      )
      (2): DecoderLayer(
        4.2 M, 15.068% Params, 542.49 MMac, 19.173% MACs, 
        (self_attention): AttentionLayer(
          1.05 M, 3.768% Params, 151.0 MMac, 5.337% MACs, 
          (inner_attention): ProbAttention(
            0, 0.000% Params, 0.0 Mac, 0.000% MACs, 
            (dropout): Dropout(0, 0.000% Params, 0.0 Mac, 0.000% MACs, p=0.05, inplace=False)
          )
          (query_projection): Linear(262.66 k, 0.942% Params, 37.75 MMac, 1.334% MACs, in_features=512, out_features=512, bias=True)
          (key_projection): Linear(262.66 k, 0.942% Params, 37.75 MMac, 1.334% MACs, in_features=512, out_features=512, bias=True)
          (value_projection): Linear(262.66 k, 0.942% Params, 37.75 MMac, 1.334% MACs, in_features=512, out_features=512, bias=True)
          (out_projection): Linear(262.66 k, 0.942% Params, 37.75 MMac, 1.334% MACs, in_features=512, out_features=512, bias=True)
        )
        (cross_attention): AttentionLayer(
          1.05 M, 3.768% Params, 89.13 MMac, 3.150% MACs, 
          (inner_attention): ProbAttention(
            0, 0.000% Params, 0.0 Mac, 0.000% MACs, 
            (dropout): Dropout(0, 0.000% Params, 0.0 Mac, 0.000% MACs, p=0.05, inplace=False)
          )
          (query_projection): Linear(262.66 k, 0.942% Params, 37.75 MMac, 1.334% MACs, in_features=512, out_features=512, bias=True)
          (key_projection): Linear(262.66 k, 0.942% Params, 6.82 MMac, 0.241% MACs, in_features=512, out_features=512, bias=True)
          (value_projection): Linear(262.66 k, 0.942% Params, 6.82 MMac, 0.241% MACs, in_features=512, out_features=512, bias=True)
          (out_projection): Linear(262.66 k, 0.942% Params, 37.75 MMac, 1.334% MACs, in_features=512, out_features=512, bias=True)
        )
        (conv1): Conv1d(1.05 M, 3.768% Params, 151.29 MMac, 5.347% MACs, 512, 2048, kernel_size=(1,), stride=(1,))
        (conv2): Conv1d(1.05 M, 3.763% Params, 151.07 MMac, 5.339% MACs, 2048, 512, kernel_size=(1,), stride=(1,))
        (norm1): LayerNorm(0, 0.000% Params, 0.0 Mac, 0.000% MACs, (512,), eps=1e-05, elementwise_affine=True)
        (norm2): LayerNorm(0, 0.000% Params, 0.0 Mac, 0.000% MACs, (512,), eps=1e-05, elementwise_affine=True)
        (norm3): LayerNorm(0, 0.000% Params, 0.0 Mac, 0.000% MACs, (512,), eps=1e-05, elementwise_affine=True)
        (dropout): Dropout(0, 0.000% Params, 0.0 Mac, 0.000% MACs, p=0.05, inplace=False)
      )
      (3): DecoderLayer(
        4.2 M, 15.068% Params, 542.49 MMac, 19.173% MACs, 
        (self_attention): AttentionLayer(
          1.05 M, 3.768% Params, 151.0 MMac, 5.337% MACs, 
          (inner_attention): ProbAttention(
            0, 0.000% Params, 0.0 Mac, 0.000% MACs, 
            (dropout): Dropout(0, 0.000% Params, 0.0 Mac, 0.000% MACs, p=0.05, inplace=False)
          )
          (query_projection): Linear(262.66 k, 0.942% Params, 37.75 MMac, 1.334% MACs, in_features=512, out_features=512, bias=True)
          (key_projection): Linear(262.66 k, 0.942% Params, 37.75 MMac, 1.334% MACs, in_features=512, out_features=512, bias=True)
          (value_projection): Linear(262.66 k, 0.942% Params, 37.75 MMac, 1.334% MACs, in_features=512, out_features=512, bias=True)
          (out_projection): Linear(262.66 k, 0.942% Params, 37.75 MMac, 1.334% MACs, in_features=512, out_features=512, bias=True)
        )
        (cross_attention): AttentionLayer(
          1.05 M, 3.768% Params, 89.13 MMac, 3.150% MACs, 
          (inner_attention): ProbAttention(
            0, 0.000% Params, 0.0 Mac, 0.000% MACs, 
            (dropout): Dropout(0, 0.000% Params, 0.0 Mac, 0.000% MACs, p=0.05, inplace=False)
          )
          (query_projection): Linear(262.66 k, 0.942% Params, 37.75 MMac, 1.334% MACs, in_features=512, out_features=512, bias=True)
          (key_projection): Linear(262.66 k, 0.942% Params, 6.82 MMac, 0.241% MACs, in_features=512, out_features=512, bias=True)
          (value_projection): Linear(262.66 k, 0.942% Params, 6.82 MMac, 0.241% MACs, in_features=512, out_features=512, bias=True)
          (out_projection): Linear(262.66 k, 0.942% Params, 37.75 MMac, 1.334% MACs, in_features=512, out_features=512, bias=True)
        )
        (conv1): Conv1d(1.05 M, 3.768% Params, 151.29 MMac, 5.347% MACs, 512, 2048, kernel_size=(1,), stride=(1,))
        (conv2): Conv1d(1.05 M, 3.763% Params, 151.07 MMac, 5.339% MACs, 2048, 512, kernel_size=(1,), stride=(1,))
        (norm1): LayerNorm(0, 0.000% Params, 0.0 Mac, 0.000% MACs, (512,), eps=1e-05, elementwise_affine=True)
        (norm2): LayerNorm(0, 0.000% Params, 0.0 Mac, 0.000% MACs, (512,), eps=1e-05, elementwise_affine=True)
        (norm3): LayerNorm(0, 0.000% Params, 0.0 Mac, 0.000% MACs, (512,), eps=1e-05, elementwise_affine=True)
        (dropout): Dropout(0, 0.000% Params, 0.0 Mac, 0.000% MACs, p=0.05, inplace=False)
      )
    )
    (norm): LayerNorm(0, 0.000% Params, 0.0 Mac, 0.000% MACs, (512,), eps=1e-05, elementwise_affine=True)
    (projection): Linear(3.59 k, 0.013% Params, 516.1 KMac, 0.018% MACs, in_features=512, out_features=7, bias=True)
  )
)
Computational complexity:       2.83 GMac
Number of parameters:           27.88 M 
