…
INFO: Trainable parameter count: 27.61M
INFO: Trainable parameter count: 27.61M
INFO: Trainable parameter count: 27.61M
INFO: Trainable parameter count: 27.61M
INFO: Trainable parameter count: 27.61M
INFO: Trainable parameter count: 27.61M
INFO: Trainable parameter count: 27.61M
INFO: Trainable parameter count: 27.62M
INFO: Trainable parameter count: 27.62M
Model(
  27.6 M, 99.930% Params, 2.33 GMac, 100.000% MACs, 
  (enc_embedding): DataEmbedding(
    12.8 k, 0.046% Params, 1.23 MMac, 0.053% MACs, 
    (value_embedding): TokenEmbedding(
      10.75 k, 0.039% Params, 1.03 MMac, 0.044% MACs, 
      (tokenConv): Conv1d(10.75 k, 0.039% Params, 1.03 MMac, 0.044% MACs, 7, 512, kernel_size=(3,), stride=(1,), padding=(1,), bias=False, padding_mode=circular)
    )
    (position_embedding): PositionalEmbedding(0, 0.000% Params, 0.0 Mac, 0.000% MACs, )
    (temporal_embedding): TimeFeatureEmbedding(
      2.05 k, 0.007% Params, 196.61 KMac, 0.008% MACs, 
      (embed): Linear(2.05 k, 0.007% Params, 196.61 KMac, 0.008% MACs, in_features=4, out_features=512, bias=False)
    )
    (dropout): Dropout(0, 0.000% Params, 0.0 Mac, 0.000% MACs, p=0.05, inplace=False)
  )
  (dec_embedding): DataEmbedding(
    12.8 k, 0.046% Params, 1.84 MMac, 0.079% MACs, 
    (value_embedding): TokenEmbedding(
      10.75 k, 0.039% Params, 1.55 MMac, 0.066% MACs, 
      (tokenConv): Conv1d(10.75 k, 0.039% Params, 1.55 MMac, 0.066% MACs, 7, 512, kernel_size=(3,), stride=(1,), padding=(1,), bias=False, padding_mode=circular)
    )
    (position_embedding): PositionalEmbedding(0, 0.000% Params, 0.0 Mac, 0.000% MACs, )
    (temporal_embedding): TimeFeatureEmbedding(
      2.05 k, 0.007% Params, 294.91 KMac, 0.013% MACs, 
      (embed): Linear(2.05 k, 0.007% Params, 294.91 KMac, 0.013% MACs, in_features=4, out_features=512, bias=False)
    )
    (dropout): Dropout(0, 0.000% Params, 0.0 Mac, 0.000% MACs, p=0.05, inplace=False)
  )
  (encoder): Encoder(
    14.97 M, 54.189% Params, 722.09 MMac, 30.934% MACs, 
    (attn_layers): ModuleList(
      12.6 M, 45.629% Params, 582.44 MMac, 24.952% MACs, 
      (0): EncoderLayer(
        3.15 M, 11.407% Params, 302.24 MMac, 12.948% MACs, 
        (attention): AttentionLayer(
          1.05 M, 3.804% Params, 100.67 MMac, 4.313% MACs, 
          (inner_attention): ProbAttention(
            0, 0.000% Params, 0.0 Mac, 0.000% MACs, 
            (dropout): Dropout(0, 0.000% Params, 0.0 Mac, 0.000% MACs, p=0.05, inplace=False)
          )
          (query_projection): Linear(262.66 k, 0.951% Params, 25.17 MMac, 1.078% MACs, in_features=512, out_features=512, bias=True)
          (key_projection): Linear(262.66 k, 0.951% Params, 25.17 MMac, 1.078% MACs, in_features=512, out_features=512, bias=True)
          (value_projection): Linear(262.66 k, 0.951% Params, 25.17 MMac, 1.078% MACs, in_features=512, out_features=512, bias=True)
          (out_projection): Linear(262.66 k, 0.951% Params, 25.17 MMac, 1.078% MACs, in_features=512, out_features=512, bias=True)
        )
        (conv1): Conv1d(1.05 M, 3.804% Params, 100.86 MMac, 4.321% MACs, 512, 2048, kernel_size=(1,), stride=(1,))
        (conv2): Conv1d(1.05 M, 3.799% Params, 100.71 MMac, 4.315% MACs, 2048, 512, kernel_size=(1,), stride=(1,))
        (norm1): LayerNorm(0, 0.000% Params, 0.0 Mac, 0.000% MACs, (512,), eps=1e-05, elementwise_affine=True)
        (norm2): LayerNorm(0, 0.000% Params, 0.0 Mac, 0.000% MACs, (512,), eps=1e-05, elementwise_affine=True)
        (dropout): Dropout(0, 0.000% Params, 0.0 Mac, 0.000% MACs, p=0.05, inplace=False)
      )
      (1): EncoderLayer(
        3.15 M, 11.407% Params, 154.27 MMac, 6.609% MACs, 
        (attention): AttentionLayer(
          1.05 M, 3.804% Params, 51.38 MMac, 2.201% MACs, 
          (inner_attention): ProbAttention(
            0, 0.000% Params, 0.0 Mac, 0.000% MACs, 
            (dropout): Dropout(0, 0.000% Params, 0.0 Mac, 0.000% MACs, p=0.05, inplace=False)
          )
          (query_projection): Linear(262.66 k, 0.951% Params, 12.85 MMac, 0.550% MACs, in_features=512, out_features=512, bias=True)
          (key_projection): Linear(262.66 k, 0.951% Params, 12.85 MMac, 0.550% MACs, in_features=512, out_features=512, bias=True)
          (value_projection): Linear(262.66 k, 0.951% Params, 12.85 MMac, 0.550% MACs, in_features=512, out_features=512, bias=True)
          (out_projection): Linear(262.66 k, 0.951% Params, 12.85 MMac, 0.550% MACs, in_features=512, out_features=512, bias=True)
        )
        (conv1): Conv1d(1.05 M, 3.804% Params, 51.48 MMac, 2.205% MACs, 512, 2048, kernel_size=(1,), stride=(1,))
        (conv2): Conv1d(1.05 M, 3.799% Params, 51.41 MMac, 2.202% MACs, 2048, 512, kernel_size=(1,), stride=(1,))
        (norm1): LayerNorm(0, 0.000% Params, 0.0 Mac, 0.000% MACs, (512,), eps=1e-05, elementwise_affine=True)
        (norm2): LayerNorm(0, 0.000% Params, 0.0 Mac, 0.000% MACs, (512,), eps=1e-05, elementwise_affine=True)
        (dropout): Dropout(0, 0.000% Params, 0.0 Mac, 0.000% MACs, p=0.05, inplace=False)
      )
      (2): EncoderLayer(
        3.15 M, 11.407% Params, 81.86 MMac, 3.507% MACs, 
        (attention): AttentionLayer(
          1.05 M, 3.804% Params, 27.27 MMac, 1.168% MACs, 
          (inner_attention): ProbAttention(
            0, 0.000% Params, 0.0 Mac, 0.000% MACs, 
            (dropout): Dropout(0, 0.000% Params, 0.0 Mac, 0.000% MACs, p=0.05, inplace=False)
          )
          (query_projection): Linear(262.66 k, 0.951% Params, 6.82 MMac, 0.292% MACs, in_features=512, out_features=512, bias=True)
          (key_projection): Linear(262.66 k, 0.951% Params, 6.82 MMac, 0.292% MACs, in_features=512, out_features=512, bias=True)
          (value_projection): Linear(262.66 k, 0.951% Params, 6.82 MMac, 0.292% MACs, in_features=512, out_features=512, bias=True)
          (out_projection): Linear(262.66 k, 0.951% Params, 6.82 MMac, 0.292% MACs, in_features=512, out_features=512, bias=True)
        )
        (conv1): Conv1d(1.05 M, 3.804% Params, 27.32 MMac, 1.170% MACs, 512, 2048, kernel_size=(1,), stride=(1,))
        (conv2): Conv1d(1.05 M, 3.799% Params, 27.28 MMac, 1.169% MACs, 2048, 512, kernel_size=(1,), stride=(1,))
        (norm1): LayerNorm(0, 0.000% Params, 0.0 Mac, 0.000% MACs, (512,), eps=1e-05, elementwise_affine=True)
        (norm2): LayerNorm(0, 0.000% Params, 0.0 Mac, 0.000% MACs, (512,), eps=1e-05, elementwise_affine=True)
        (dropout): Dropout(0, 0.000% Params, 0.0 Mac, 0.000% MACs, p=0.05, inplace=False)
      )
      (3): EncoderLayer(
        3.15 M, 11.407% Params, 44.08 MMac, 1.888% MACs, 
        (attention): AttentionLayer(
          1.05 M, 3.804% Params, 14.68 MMac, 0.629% MACs, 
          (inner_attention): ProbAttention(
            0, 0.000% Params, 0.0 Mac, 0.000% MACs, 
            (dropout): Dropout(0, 0.000% Params, 0.0 Mac, 0.000% MACs, p=0.05, inplace=False)
          )
          (query_projection): Linear(262.66 k, 0.951% Params, 3.67 MMac, 0.157% MACs, in_features=512, out_features=512, bias=True)
          (key_projection): Linear(262.66 k, 0.951% Params, 3.67 MMac, 0.157% MACs, in_features=512, out_features=512, bias=True)
          (value_projection): Linear(262.66 k, 0.951% Params, 3.67 MMac, 0.157% MACs, in_features=512, out_features=512, bias=True)
          (out_projection): Linear(262.66 k, 0.951% Params, 3.67 MMac, 0.157% MACs, in_features=512, out_features=512, bias=True)
        )
        (conv1): Conv1d(1.05 M, 3.804% Params, 14.71 MMac, 0.630% MACs, 512, 2048, kernel_size=(1,), stride=(1,))
        (conv2): Conv1d(1.05 M, 3.799% Params, 14.69 MMac, 0.629% MACs, 2048, 512, kernel_size=(1,), stride=(1,))
        (norm1): LayerNorm(0, 0.000% Params, 0.0 Mac, 0.000% MACs, (512,), eps=1e-05, elementwise_affine=True)
        (norm2): LayerNorm(0, 0.000% Params, 0.0 Mac, 0.000% MACs, (512,), eps=1e-05, elementwise_affine=True)
        (dropout): Dropout(0, 0.000% Params, 0.0 Mac, 0.000% MACs, p=0.05, inplace=False)
      )
    )
    (conv_layers): ModuleList(
      2.36 M, 8.560% Params, 139.65 MMac, 5.983% MACs, 
      (0): ConvLayer(
        787.97 k, 2.853% Params, 77.32 MMac, 3.312% MACs, 
        (downConv): Conv1d(786.94 k, 2.850% Params, 77.12 MMac, 3.304% MACs, 512, 512, kernel_size=(3,), stride=(1,), padding=(2,), padding_mode=circular)
        (norm): BatchNorm1d(1.02 k, 0.004% Params, 100.35 KMac, 0.004% MACs, 512, eps=1e-05, momentum=0.1, affine=True, track_running_stats=True)
        (activation): ELU(0, 0.000% Params, 50.18 KMac, 0.002% MACs, alpha=1.0)
        (maxPool): MaxPool1d(0, 0.000% Params, 50.18 KMac, 0.002% MACs, kernel_size=3, stride=2, padding=1, dilation=1, ceil_mode=False)
      )
      (1): ConvLayer(
        787.97 k, 2.853% Params, 40.24 MMac, 1.724% MACs, 
        (downConv): Conv1d(786.94 k, 2.850% Params, 40.13 MMac, 1.719% MACs, 512, 512, kernel_size=(3,), stride=(1,), padding=(2,), padding_mode=circular)
        (norm): BatchNorm1d(1.02 k, 0.004% Params, 52.22 KMac, 0.002% MACs, 512, eps=1e-05, momentum=0.1, affine=True, track_running_stats=True)
        (activation): ELU(0, 0.000% Params, 26.11 KMac, 0.001% MACs, alpha=1.0)
        (maxPool): MaxPool1d(0, 0.000% Params, 26.11 KMac, 0.001% MACs, kernel_size=3, stride=2, padding=1, dilation=1, ceil_mode=False)
      )
      (2): ConvLayer(
        787.97 k, 2.853% Params, 22.09 MMac, 0.946% MACs, 
        (downConv): Conv1d(786.94 k, 2.850% Params, 22.03 MMac, 0.944% MACs, 512, 512, kernel_size=(3,), stride=(1,), padding=(2,), padding_mode=circular)
        (norm): BatchNorm1d(1.02 k, 0.004% Params, 28.67 KMac, 0.001% MACs, 512, eps=1e-05, momentum=0.1, affine=True, track_running_stats=True)
        (activation): ELU(0, 0.000% Params, 14.34 KMac, 0.001% MACs, alpha=1.0)
        (maxPool): MaxPool1d(0, 0.000% Params, 14.34 KMac, 0.001% MACs, kernel_size=3, stride=2, padding=1, dilation=1, ceil_mode=False)
      )
    )
    (norm): LayerNorm(0, 0.000% Params, 0.0 Mac, 0.000% MACs, (512,), eps=1e-05, elementwise_affine=True)
  )
  (decoder): Decoder(
    12.61 M, 45.648% Params, 1.61 GMac, 68.934% MACs, 
    (layers): ModuleList(
      12.6 M, 45.635% Params, 1.61 GMac, 68.912% MACs, 
      (0): DecoderLayer(
        4.2 M, 15.212% Params, 536.2 MMac, 22.971% MACs, 
        (self_attention): AttentionLayer(
          1.05 M, 3.804% Params, 151.0 MMac, 6.469% MACs, 
          (inner_attention): ProbAttention(
            0, 0.000% Params, 0.0 Mac, 0.000% MACs, 
            (dropout): Dropout(0, 0.000% Params, 0.0 Mac, 0.000% MACs, p=0.05, inplace=False)
          )
          (query_projection): Linear(262.66 k, 0.951% Params, 37.75 MMac, 1.617% MACs, in_features=512, out_features=512, bias=True)
          (key_projection): Linear(262.66 k, 0.951% Params, 37.75 MMac, 1.617% MACs, in_features=512, out_features=512, bias=True)
          (value_projection): Linear(262.66 k, 0.951% Params, 37.75 MMac, 1.617% MACs, in_features=512, out_features=512, bias=True)
          (out_projection): Linear(262.66 k, 0.951% Params, 37.75 MMac, 1.617% MACs, in_features=512, out_features=512, bias=True)
        )
        (cross_attention): AttentionLayer(
          1.05 M, 3.804% Params, 82.84 MMac, 3.549% MACs, 
          (inner_attention): ProbAttention(
            0, 0.000% Params, 0.0 Mac, 0.000% MACs, 
            (dropout): Dropout(0, 0.000% Params, 0.0 Mac, 0.000% MACs, p=0.05, inplace=False)
          )
          (query_projection): Linear(262.66 k, 0.951% Params, 37.75 MMac, 1.617% MACs, in_features=512, out_features=512, bias=True)
          (key_projection): Linear(262.66 k, 0.951% Params, 3.67 MMac, 0.157% MACs, in_features=512, out_features=512, bias=True)
          (value_projection): Linear(262.66 k, 0.951% Params, 3.67 MMac, 0.157% MACs, in_features=512, out_features=512, bias=True)
          (out_projection): Linear(262.66 k, 0.951% Params, 37.75 MMac, 1.617% MACs, in_features=512, out_features=512, bias=True)
        )
        (conv1): Conv1d(1.05 M, 3.804% Params, 151.29 MMac, 6.481% MACs, 512, 2048, kernel_size=(1,), stride=(1,))
        (conv2): Conv1d(1.05 M, 3.799% Params, 151.07 MMac, 6.472% MACs, 2048, 512, kernel_size=(1,), stride=(1,))
        (norm1): LayerNorm(0, 0.000% Params, 0.0 Mac, 0.000% MACs, (512,), eps=1e-05, elementwise_affine=True)
        (norm2): LayerNorm(0, 0.000% Params, 0.0 Mac, 0.000% MACs, (512,), eps=1e-05, elementwise_affine=True)
        (norm3): LayerNorm(0, 0.000% Params, 0.0 Mac, 0.000% MACs, (512,), eps=1e-05, elementwise_affine=True)
        (dropout): Dropout(0, 0.000% Params, 0.0 Mac, 0.000% MACs, p=0.05, inplace=False)
      )
      (1): DecoderLayer(
        4.2 M, 15.212% Params, 536.2 MMac, 22.971% MACs, 
        (self_attention): AttentionLayer(
          1.05 M, 3.804% Params, 151.0 MMac, 6.469% MACs, 
          (inner_attention): ProbAttention(
            0, 0.000% Params, 0.0 Mac, 0.000% MACs, 
            (dropout): Dropout(0, 0.000% Params, 0.0 Mac, 0.000% MACs, p=0.05, inplace=False)
          )
          (query_projection): Linear(262.66 k, 0.951% Params, 37.75 MMac, 1.617% MACs, in_features=512, out_features=512, bias=True)
          (key_projection): Linear(262.66 k, 0.951% Params, 37.75 MMac, 1.617% MACs, in_features=512, out_features=512, bias=True)
          (value_projection): Linear(262.66 k, 0.951% Params, 37.75 MMac, 1.617% MACs, in_features=512, out_features=512, bias=True)
          (out_projection): Linear(262.66 k, 0.951% Params, 37.75 MMac, 1.617% MACs, in_features=512, out_features=512, bias=True)
        )
        (cross_attention): AttentionLayer(
          1.05 M, 3.804% Params, 82.84 MMac, 3.549% MACs, 
          (inner_attention): ProbAttention(
            0, 0.000% Params, 0.0 Mac, 0.000% MACs, 
            (dropout): Dropout(0, 0.000% Params, 0.0 Mac, 0.000% MACs, p=0.05, inplace=False)
          )
          (query_projection): Linear(262.66 k, 0.951% Params, 37.75 MMac, 1.617% MACs, in_features=512, out_features=512, bias=True)
          (key_projection): Linear(262.66 k, 0.951% Params, 3.67 MMac, 0.157% MACs, in_features=512, out_features=512, bias=True)
          (value_projection): Linear(262.66 k, 0.951% Params, 3.67 MMac, 0.157% MACs, in_features=512, out_features=512, bias=True)
          (out_projection): Linear(262.66 k, 0.951% Params, 37.75 MMac, 1.617% MACs, in_features=512, out_features=512, bias=True)
        )
        (conv1): Conv1d(1.05 M, 3.804% Params, 151.29 MMac, 6.481% MACs, 512, 2048, kernel_size=(1,), stride=(1,))
        (conv2): Conv1d(1.05 M, 3.799% Params, 151.07 MMac, 6.472% MACs, 2048, 512, kernel_size=(1,), stride=(1,))
        (norm1): LayerNorm(0, 0.000% Params, 0.0 Mac, 0.000% MACs, (512,), eps=1e-05, elementwise_affine=True)
        (norm2): LayerNorm(0, 0.000% Params, 0.0 Mac, 0.000% MACs, (512,), eps=1e-05, elementwise_affine=True)
        (norm3): LayerNorm(0, 0.000% Params, 0.0 Mac, 0.000% MACs, (512,), eps=1e-05, elementwise_affine=True)
        (dropout): Dropout(0, 0.000% Params, 0.0 Mac, 0.000% MACs, p=0.05, inplace=False)
      )
      (2): DecoderLayer(
        4.2 M, 15.212% Params, 536.2 MMac, 22.971% MACs, 
        (self_attention): AttentionLayer(
          1.05 M, 3.804% Params, 151.0 MMac, 6.469% MACs, 
          (inner_attention): ProbAttention(
            0, 0.000% Params, 0.0 Mac, 0.000% MACs, 
            (dropout): Dropout(0, 0.000% Params, 0.0 Mac, 0.000% MACs, p=0.05, inplace=False)
          )
          (query_projection): Linear(262.66 k, 0.951% Params, 37.75 MMac, 1.617% MACs, in_features=512, out_features=512, bias=True)
          (key_projection): Linear(262.66 k, 0.951% Params, 37.75 MMac, 1.617% MACs, in_features=512, out_features=512, bias=True)
          (value_projection): Linear(262.66 k, 0.951% Params, 37.75 MMac, 1.617% MACs, in_features=512, out_features=512, bias=True)
          (out_projection): Linear(262.66 k, 0.951% Params, 37.75 MMac, 1.617% MACs, in_features=512, out_features=512, bias=True)
        )
        (cross_attention): AttentionLayer(
          1.05 M, 3.804% Params, 82.84 MMac, 3.549% MACs, 
          (inner_attention): ProbAttention(
            0, 0.000% Params, 0.0 Mac, 0.000% MACs, 
            (dropout): Dropout(0, 0.000% Params, 0.0 Mac, 0.000% MACs, p=0.05, inplace=False)
          )
          (query_projection): Linear(262.66 k, 0.951% Params, 37.75 MMac, 1.617% MACs, in_features=512, out_features=512, bias=True)
          (key_projection): Linear(262.66 k, 0.951% Params, 3.67 MMac, 0.157% MACs, in_features=512, out_features=512, bias=True)
          (value_projection): Linear(262.66 k, 0.951% Params, 3.67 MMac, 0.157% MACs, in_features=512, out_features=512, bias=True)
          (out_projection): Linear(262.66 k, 0.951% Params, 37.75 MMac, 1.617% MACs, in_features=512, out_features=512, bias=True)
        )
        (conv1): Conv1d(1.05 M, 3.804% Params, 151.29 MMac, 6.481% MACs, 512, 2048, kernel_size=(1,), stride=(1,))
        (conv2): Conv1d(1.05 M, 3.799% Params, 151.07 MMac, 6.472% MACs, 2048, 512, kernel_size=(1,), stride=(1,))
        (norm1): LayerNorm(0, 0.000% Params, 0.0 Mac, 0.000% MACs, (512,), eps=1e-05, elementwise_affine=True)
        (norm2): LayerNorm(0, 0.000% Params, 0.0 Mac, 0.000% MACs, (512,), eps=1e-05, elementwise_affine=True)
        (norm3): LayerNorm(0, 0.000% Params, 0.0 Mac, 0.000% MACs, (512,), eps=1e-05, elementwise_affine=True)
        (dropout): Dropout(0, 0.000% Params, 0.0 Mac, 0.000% MACs, p=0.05, inplace=False)
      )
    )
    (norm): LayerNorm(0, 0.000% Params, 0.0 Mac, 0.000% MACs, (512,), eps=1e-05, elementwise_affine=True)
    (projection): Linear(3.59 k, 0.013% Params, 516.1 KMac, 0.022% MACs, in_features=512, out_features=7, bias=True)
  )
)
Computational complexity:       2.33 GMac
Number of parameters:           27.62 M 
