…
INFO: Trainable parameter count: 28.84M
INFO: Trainable parameter count: 28.84M
INFO: Trainable parameter count: 28.84M
INFO: Trainable parameter count: 28.84M
INFO: Trainable parameter count: 28.84M
INFO: Trainable parameter count: 28.84M
INFO: Trainable parameter count: 28.84M
INFO: Trainable parameter count: 29.01M
INFO: Trainable parameter count: 29.01M
Model(
  28.99 M, 99.929% Params, 2.97 GMac, 100.000% MACs, 
  (enc_embedding): DataEmbedding(
    495.1 k, 1.707% Params, 47.53 MMac, 1.601% MACs, 
    (value_embedding): TokenEmbedding(
      493.06 k, 1.700% Params, 47.33 MMac, 1.595% MACs, 
      (tokenConv): Conv1d(493.06 k, 1.700% Params, 47.33 MMac, 1.595% MACs, 321, 512, kernel_size=(3,), stride=(1,), padding=(1,), bias=False, padding_mode=circular)
    )
    (position_embedding): PositionalEmbedding(0, 0.000% Params, 0.0 Mac, 0.000% MACs, )
    (temporal_embedding): TimeFeatureEmbedding(
      2.05 k, 0.007% Params, 196.61 KMac, 0.007% MACs, 
      (embed): Linear(2.05 k, 0.007% Params, 196.61 KMac, 0.007% MACs, in_features=4, out_features=512, bias=False)
    )
    (dropout): Dropout(0, 0.000% Params, 0.0 Mac, 0.000% MACs, p=0.05, inplace=False)
  )
  (dec_embedding): DataEmbedding(
    495.1 k, 1.707% Params, 71.29 MMac, 2.402% MACs, 
    (value_embedding): TokenEmbedding(
      493.06 k, 1.700% Params, 71.0 MMac, 2.392% MACs, 
      (tokenConv): Conv1d(493.06 k, 1.700% Params, 71.0 MMac, 2.392% MACs, 321, 512, kernel_size=(3,), stride=(1,), padding=(1,), bias=False, padding_mode=circular)
    )
    (position_embedding): PositionalEmbedding(0, 0.000% Params, 0.0 Mac, 0.000% MACs, )
    (temporal_embedding): TimeFeatureEmbedding(
      2.05 k, 0.007% Params, 294.91 KMac, 0.010% MACs, 
      (embed): Linear(2.05 k, 0.007% Params, 294.91 KMac, 0.010% MACs, in_features=4, out_features=512, bias=False)
    )
    (dropout): Dropout(0, 0.000% Params, 0.0 Mac, 0.000% MACs, p=0.05, inplace=False)
  )
  (encoder): Encoder(
    11.03 M, 38.016% Params, 655.92 MMac, 22.097% MACs, 
    (attn_layers): ModuleList(
      9.45 M, 32.583% Params, 538.36 MMac, 18.137% MACs, 
      (0): EncoderLayer(
        3.15 M, 10.861% Params, 302.24 MMac, 10.182% MACs, 
        (attention): AttentionLayer(
          1.05 M, 3.622% Params, 100.67 MMac, 3.391% MACs, 
          (inner_attention): ProbAttention(
            0, 0.000% Params, 0.0 Mac, 0.000% MACs, 
            (dropout): Dropout(0, 0.000% Params, 0.0 Mac, 0.000% MACs, p=0.05, inplace=False)
          )
          (query_projection): Linear(262.66 k, 0.906% Params, 25.17 MMac, 0.848% MACs, in_features=512, out_features=512, bias=True)
          (key_projection): Linear(262.66 k, 0.906% Params, 25.17 MMac, 0.848% MACs, in_features=512, out_features=512, bias=True)
          (value_projection): Linear(262.66 k, 0.906% Params, 25.17 MMac, 0.848% MACs, in_features=512, out_features=512, bias=True)
          (out_projection): Linear(262.66 k, 0.906% Params, 25.17 MMac, 0.848% MACs, in_features=512, out_features=512, bias=True)
        )
        (conv1): Conv1d(1.05 M, 3.622% Params, 100.86 MMac, 3.398% MACs, 512, 2048, kernel_size=(1,), stride=(1,))
        (conv2): Conv1d(1.05 M, 3.617% Params, 100.71 MMac, 3.393% MACs, 2048, 512, kernel_size=(1,), stride=(1,))
        (norm1): LayerNorm(0, 0.000% Params, 0.0 Mac, 0.000% MACs, (512,), eps=1e-05, elementwise_affine=True)
        (norm2): LayerNorm(0, 0.000% Params, 0.0 Mac, 0.000% MACs, (512,), eps=1e-05, elementwise_affine=True)
        (dropout): Dropout(0, 0.000% Params, 0.0 Mac, 0.000% MACs, p=0.05, inplace=False)
      )
      (1): EncoderLayer(
        3.15 M, 10.861% Params, 154.27 MMac, 5.197% MACs, 
        (attention): AttentionLayer(
          1.05 M, 3.622% Params, 51.38 MMac, 1.731% MACs, 
          (inner_attention): ProbAttention(
            0, 0.000% Params, 0.0 Mac, 0.000% MACs, 
            (dropout): Dropout(0, 0.000% Params, 0.0 Mac, 0.000% MACs, p=0.05, inplace=False)
          )
          (query_projection): Linear(262.66 k, 0.906% Params, 12.85 MMac, 0.433% MACs, in_features=512, out_features=512, bias=True)
          (key_projection): Linear(262.66 k, 0.906% Params, 12.85 MMac, 0.433% MACs, in_features=512, out_features=512, bias=True)
          (value_projection): Linear(262.66 k, 0.906% Params, 12.85 MMac, 0.433% MACs, in_features=512, out_features=512, bias=True)
          (out_projection): Linear(262.66 k, 0.906% Params, 12.85 MMac, 0.433% MACs, in_features=512, out_features=512, bias=True)
        )
        (conv1): Conv1d(1.05 M, 3.622% Params, 51.48 MMac, 1.734% MACs, 512, 2048, kernel_size=(1,), stride=(1,))
        (conv2): Conv1d(1.05 M, 3.617% Params, 51.41 MMac, 1.732% MACs, 2048, 512, kernel_size=(1,), stride=(1,))
        (norm1): LayerNorm(0, 0.000% Params, 0.0 Mac, 0.000% MACs, (512,), eps=1e-05, elementwise_affine=True)
        (norm2): LayerNorm(0, 0.000% Params, 0.0 Mac, 0.000% MACs, (512,), eps=1e-05, elementwise_affine=True)
        (dropout): Dropout(0, 0.000% Params, 0.0 Mac, 0.000% MACs, p=0.05, inplace=False)
      )
      (2): EncoderLayer(
        3.15 M, 10.861% Params, 81.86 MMac, 2.758% MACs, 
        (attention): AttentionLayer(
          1.05 M, 3.622% Params, 27.27 MMac, 0.919% MACs, 
          (inner_attention): ProbAttention(
            0, 0.000% Params, 0.0 Mac, 0.000% MACs, 
            (dropout): Dropout(0, 0.000% Params, 0.0 Mac, 0.000% MACs, p=0.05, inplace=False)
          )
          (query_projection): Linear(262.66 k, 0.906% Params, 6.82 MMac, 0.230% MACs, in_features=512, out_features=512, bias=True)
          (key_projection): Linear(262.66 k, 0.906% Params, 6.82 MMac, 0.230% MACs, in_features=512, out_features=512, bias=True)
          (value_projection): Linear(262.66 k, 0.906% Params, 6.82 MMac, 0.230% MACs, in_features=512, out_features=512, bias=True)
          (out_projection): Linear(262.66 k, 0.906% Params, 6.82 MMac, 0.230% MACs, in_features=512, out_features=512, bias=True)
        )
        (conv1): Conv1d(1.05 M, 3.622% Params, 27.32 MMac, 0.920% MACs, 512, 2048, kernel_size=(1,), stride=(1,))
        (conv2): Conv1d(1.05 M, 3.617% Params, 27.28 MMac, 0.919% MACs, 2048, 512, kernel_size=(1,), stride=(1,))
        (norm1): LayerNorm(0, 0.000% Params, 0.0 Mac, 0.000% MACs, (512,), eps=1e-05, elementwise_affine=True)
        (norm2): LayerNorm(0, 0.000% Params, 0.0 Mac, 0.000% MACs, (512,), eps=1e-05, elementwise_affine=True)
        (dropout): Dropout(0, 0.000% Params, 0.0 Mac, 0.000% MACs, p=0.05, inplace=False)
      )
    )
    (conv_layers): ModuleList(
      1.58 M, 5.433% Params, 117.56 MMac, 3.960% MACs, 
      (0): ConvLayer(
        787.97 k, 2.717% Params, 77.32 MMac, 2.605% MACs, 
        (downConv): Conv1d(786.94 k, 2.713% Params, 77.12 MMac, 2.598% MACs, 512, 512, kernel_size=(3,), stride=(1,), padding=(2,), padding_mode=circular)
        (norm): BatchNorm1d(1.02 k, 0.004% Params, 100.35 KMac, 0.003% MACs, 512, eps=1e-05, momentum=0.1, affine=True, track_running_stats=True)
        (activation): ELU(0, 0.000% Params, 50.18 KMac, 0.002% MACs, alpha=1.0)
        (maxPool): MaxPool1d(0, 0.000% Params, 50.18 KMac, 0.002% MACs, kernel_size=3, stride=2, padding=1, dilation=1, ceil_mode=False)
      )
      (1): ConvLayer(
        787.97 k, 2.717% Params, 40.24 MMac, 1.356% MACs, 
        (downConv): Conv1d(786.94 k, 2.713% Params, 40.13 MMac, 1.352% MACs, 512, 512, kernel_size=(3,), stride=(1,), padding=(2,), padding_mode=circular)
        (norm): BatchNorm1d(1.02 k, 0.004% Params, 52.22 KMac, 0.002% MACs, 512, eps=1e-05, momentum=0.1, affine=True, track_running_stats=True)
        (activation): ELU(0, 0.000% Params, 26.11 KMac, 0.001% MACs, alpha=1.0)
        (maxPool): MaxPool1d(0, 0.000% Params, 26.11 KMac, 0.001% MACs, kernel_size=3, stride=2, padding=1, dilation=1, ceil_mode=False)
      )
    )
    (norm): LayerNorm(0, 0.000% Params, 0.0 Mac, 0.000% MACs, (512,), eps=1e-05, elementwise_affine=True)
  )
  (decoder): Decoder(
    16.97 M, 58.500% Params, 2.19 GMac, 73.900% MACs, 
    (layers): ModuleList(
      16.8 M, 57.932% Params, 2.17 GMac, 73.102% MACs, 
      (0): DecoderLayer(
        4.2 M, 14.483% Params, 542.49 MMac, 18.276% MACs, 
        (self_attention): AttentionLayer(
          1.05 M, 3.622% Params, 151.0 MMac, 5.087% MACs, 
          (inner_attention): ProbAttention(
            0, 0.000% Params, 0.0 Mac, 0.000% MACs, 
            (dropout): Dropout(0, 0.000% Params, 0.0 Mac, 0.000% MACs, p=0.05, inplace=False)
          )
          (query_projection): Linear(262.66 k, 0.906% Params, 37.75 MMac, 1.272% MACs, in_features=512, out_features=512, bias=True)
          (key_projection): Linear(262.66 k, 0.906% Params, 37.75 MMac, 1.272% MACs, in_features=512, out_features=512, bias=True)
          (value_projection): Linear(262.66 k, 0.906% Params, 37.75 MMac, 1.272% MACs, in_features=512, out_features=512, bias=True)
          (out_projection): Linear(262.66 k, 0.906% Params, 37.75 MMac, 1.272% MACs, in_features=512, out_features=512, bias=True)
        )
        (cross_attention): AttentionLayer(
          1.05 M, 3.622% Params, 89.13 MMac, 3.003% MACs, 
          (inner_attention): ProbAttention(
            0, 0.000% Params, 0.0 Mac, 0.000% MACs, 
            (dropout): Dropout(0, 0.000% Params, 0.0 Mac, 0.000% MACs, p=0.05, inplace=False)
          )
          (query_projection): Linear(262.66 k, 0.906% Params, 37.75 MMac, 1.272% MACs, in_features=512, out_features=512, bias=True)
          (key_projection): Linear(262.66 k, 0.906% Params, 6.82 MMac, 0.230% MACs, in_features=512, out_features=512, bias=True)
          (value_projection): Linear(262.66 k, 0.906% Params, 6.82 MMac, 0.230% MACs, in_features=512, out_features=512, bias=True)
          (out_projection): Linear(262.66 k, 0.906% Params, 37.75 MMac, 1.272% MACs, in_features=512, out_features=512, bias=True)
        )
        (conv1): Conv1d(1.05 M, 3.622% Params, 151.29 MMac, 5.097% MACs, 512, 2048, kernel_size=(1,), stride=(1,))
        (conv2): Conv1d(1.05 M, 3.617% Params, 151.07 MMac, 5.089% MACs, 2048, 512, kernel_size=(1,), stride=(1,))
        (norm1): LayerNorm(0, 0.000% Params, 0.0 Mac, 0.000% MACs, (512,), eps=1e-05, elementwise_affine=True)
        (norm2): LayerNorm(0, 0.000% Params, 0.0 Mac, 0.000% MACs, (512,), eps=1e-05, elementwise_affine=True)
        (norm3): LayerNorm(0, 0.000% Params, 0.0 Mac, 0.000% MACs, (512,), eps=1e-05, elementwise_affine=True)
        (dropout): Dropout(0, 0.000% Params, 0.0 Mac, 0.000% MACs, p=0.05, inplace=False)
      )
      (1): DecoderLayer(
        4.2 M, 14.483% Params, 542.49 MMac, 18.276% MACs, 
        (self_attention): AttentionLayer(
          1.05 M, 3.622% Params, 151.0 MMac, 5.087% MACs, 
          (inner_attention): ProbAttention(
            0, 0.000% Params, 0.0 Mac, 0.000% MACs, 
            (dropout): Dropout(0, 0.000% Params, 0.0 Mac, 0.000% MACs, p=0.05, inplace=False)
          )
          (query_projection): Linear(262.66 k, 0.906% Params, 37.75 MMac, 1.272% MACs, in_features=512, out_features=512, bias=True)
          (key_projection): Linear(262.66 k, 0.906% Params, 37.75 MMac, 1.272% MACs, in_features=512, out_features=512, bias=True)
          (value_projection): Linear(262.66 k, 0.906% Params, 37.75 MMac, 1.272% MACs, in_features=512, out_features=512, bias=True)
          (out_projection): Linear(262.66 k, 0.906% Params, 37.75 MMac, 1.272% MACs, in_features=512, out_features=512, bias=True)
        )
        (cross_attention): AttentionLayer(
          1.05 M, 3.622% Params, 89.13 MMac, 3.003% MACs, 
          (inner_attention): ProbAttention(
            0, 0.000% Params, 0.0 Mac, 0.000% MACs, 
            (dropout): Dropout(0, 0.000% Params, 0.0 Mac, 0.000% MACs, p=0.05, inplace=False)
          )
          (query_projection): Linear(262.66 k, 0.906% Params, 37.75 MMac, 1.272% MACs, in_features=512, out_features=512, bias=True)
          (key_projection): Linear(262.66 k, 0.906% Params, 6.82 MMac, 0.230% MACs, in_features=512, out_features=512, bias=True)
          (value_projection): Linear(262.66 k, 0.906% Params, 6.82 MMac, 0.230% MACs, in_features=512, out_features=512, bias=True)
          (out_projection): Linear(262.66 k, 0.906% Params, 37.75 MMac, 1.272% MACs, in_features=512, out_features=512, bias=True)
        )
        (conv1): Conv1d(1.05 M, 3.622% Params, 151.29 MMac, 5.097% MACs, 512, 2048, kernel_size=(1,), stride=(1,))
        (conv2): Conv1d(1.05 M, 3.617% Params, 151.07 MMac, 5.089% MACs, 2048, 512, kernel_size=(1,), stride=(1,))
        (norm1): LayerNorm(0, 0.000% Params, 0.0 Mac, 0.000% MACs, (512,), eps=1e-05, elementwise_affine=True)
        (norm2): LayerNorm(0, 0.000% Params, 0.0 Mac, 0.000% MACs, (512,), eps=1e-05, elementwise_affine=True)
        (norm3): LayerNorm(0, 0.000% Params, 0.0 Mac, 0.000% MACs, (512,), eps=1e-05, elementwise_affine=True)
        (dropout): Dropout(0, 0.000% Params, 0.0 Mac, 0.000% MACs, p=0.05, inplace=False)
      )
      (2): DecoderLayer(
        4.2 M, 14.483% Params, 542.49 MMac, 18.276% MACs, 
        (self_attention): AttentionLayer(
          1.05 M, 3.622% Params, 151.0 MMac, 5.087% MACs, 
          (inner_attention): ProbAttention(
            0, 0.000% Params, 0.0 Mac, 0.000% MACs, 
            (dropout): Dropout(0, 0.000% Params, 0.0 Mac, 0.000% MACs, p=0.05, inplace=False)
          )
          (query_projection): Linear(262.66 k, 0.906% Params, 37.75 MMac, 1.272% MACs, in_features=512, out_features=512, bias=True)
          (key_projection): Linear(262.66 k, 0.906% Params, 37.75 MMac, 1.272% MACs, in_features=512, out_features=512, bias=True)
          (value_projection): Linear(262.66 k, 0.906% Params, 37.75 MMac, 1.272% MACs, in_features=512, out_features=512, bias=True)
          (out_projection): Linear(262.66 k, 0.906% Params, 37.75 MMac, 1.272% MACs, in_features=512, out_features=512, bias=True)
        )
        (cross_attention): AttentionLayer(
          1.05 M, 3.622% Params, 89.13 MMac, 3.003% MACs, 
          (inner_attention): ProbAttention(
            0, 0.000% Params, 0.0 Mac, 0.000% MACs, 
            (dropout): Dropout(0, 0.000% Params, 0.0 Mac, 0.000% MACs, p=0.05, inplace=False)
          )
          (query_projection): Linear(262.66 k, 0.906% Params, 37.75 MMac, 1.272% MACs, in_features=512, out_features=512, bias=True)
          (key_projection): Linear(262.66 k, 0.906% Params, 6.82 MMac, 0.230% MACs, in_features=512, out_features=512, bias=True)
          (value_projection): Linear(262.66 k, 0.906% Params, 6.82 MMac, 0.230% MACs, in_features=512, out_features=512, bias=True)
          (out_projection): Linear(262.66 k, 0.906% Params, 37.75 MMac, 1.272% MACs, in_features=512, out_features=512, bias=True)
        )
        (conv1): Conv1d(1.05 M, 3.622% Params, 151.29 MMac, 5.097% MACs, 512, 2048, kernel_size=(1,), stride=(1,))
        (conv2): Conv1d(1.05 M, 3.617% Params, 151.07 MMac, 5.089% MACs, 2048, 512, kernel_size=(1,), stride=(1,))
        (norm1): LayerNorm(0, 0.000% Params, 0.0 Mac, 0.000% MACs, (512,), eps=1e-05, elementwise_affine=True)
        (norm2): LayerNorm(0, 0.000% Params, 0.0 Mac, 0.000% MACs, (512,), eps=1e-05, elementwise_affine=True)
        (norm3): LayerNorm(0, 0.000% Params, 0.0 Mac, 0.000% MACs, (512,), eps=1e-05, elementwise_affine=True)
        (dropout): Dropout(0, 0.000% Params, 0.0 Mac, 0.000% MACs, p=0.05, inplace=False)
      )
      (3): DecoderLayer(
        4.2 M, 14.483% Params, 542.49 MMac, 18.276% MACs, 
        (self_attention): AttentionLayer(
          1.05 M, 3.622% Params, 151.0 MMac, 5.087% MACs, 
          (inner_attention): ProbAttention(
            0, 0.000% Params, 0.0 Mac, 0.000% MACs, 
            (dropout): Dropout(0, 0.000% Params, 0.0 Mac, 0.000% MACs, p=0.05, inplace=False)
          )
          (query_projection): Linear(262.66 k, 0.906% Params, 37.75 MMac, 1.272% MACs, in_features=512, out_features=512, bias=True)
          (key_projection): Linear(262.66 k, 0.906% Params, 37.75 MMac, 1.272% MACs, in_features=512, out_features=512, bias=True)
          (value_projection): Linear(262.66 k, 0.906% Params, 37.75 MMac, 1.272% MACs, in_features=512, out_features=512, bias=True)
          (out_projection): Linear(262.66 k, 0.906% Params, 37.75 MMac, 1.272% MACs, in_features=512, out_features=512, bias=True)
        )
        (cross_attention): AttentionLayer(
          1.05 M, 3.622% Params, 89.13 MMac, 3.003% MACs, 
          (inner_attention): ProbAttention(
            0, 0.000% Params, 0.0 Mac, 0.000% MACs, 
            (dropout): Dropout(0, 0.000% Params, 0.0 Mac, 0.000% MACs, p=0.05, inplace=False)
          )
          (query_projection): Linear(262.66 k, 0.906% Params, 37.75 MMac, 1.272% MACs, in_features=512, out_features=512, bias=True)
          (key_projection): Linear(262.66 k, 0.906% Params, 6.82 MMac, 0.230% MACs, in_features=512, out_features=512, bias=True)
          (value_projection): Linear(262.66 k, 0.906% Params, 6.82 MMac, 0.230% MACs, in_features=512, out_features=512, bias=True)
          (out_projection): Linear(262.66 k, 0.906% Params, 37.75 MMac, 1.272% MACs, in_features=512, out_features=512, bias=True)
        )
        (conv1): Conv1d(1.05 M, 3.622% Params, 151.29 MMac, 5.097% MACs, 512, 2048, kernel_size=(1,), stride=(1,))
        (conv2): Conv1d(1.05 M, 3.617% Params, 151.07 MMac, 5.089% MACs, 2048, 512, kernel_size=(1,), stride=(1,))
        (norm1): LayerNorm(0, 0.000% Params, 0.0 Mac, 0.000% MACs, (512,), eps=1e-05, elementwise_affine=True)
        (norm2): LayerNorm(0, 0.000% Params, 0.0 Mac, 0.000% MACs, (512,), eps=1e-05, elementwise_affine=True)
        (norm3): LayerNorm(0, 0.000% Params, 0.0 Mac, 0.000% MACs, (512,), eps=1e-05, elementwise_affine=True)
        (dropout): Dropout(0, 0.000% Params, 0.0 Mac, 0.000% MACs, p=0.05, inplace=False)
      )
    )
    (norm): LayerNorm(0, 0.000% Params, 0.0 Mac, 0.000% MACs, (512,), eps=1e-05, elementwise_affine=True)
    (projection): Linear(164.67 k, 0.568% Params, 23.67 MMac, 0.797% MACs, in_features=512, out_features=321, bias=True)
  )
)
Computational complexity:       2.97 GMac
Number of parameters:           29.01 M 
