…
INFO: Trainable parameter count: 19.47M
INFO: Trainable parameter count: 19.47M
INFO: Trainable parameter count: 19.47M
INFO: Trainable parameter count: 19.47M
INFO: Trainable parameter count: 19.47M
INFO: Trainable parameter count: 19.47M
INFO: Trainable parameter count: 19.47M
INFO: Trainable parameter count: 19.47M
INFO: Trainable parameter count: 19.47M
Model(
  19.46 M, 99.926% Params, 1.74 GMac, 100.000% MACs, 
  (enc_embedding): DataEmbedding(
    12.8 k, 0.066% Params, 1.23 MMac, 0.070% MACs, 
    (value_embedding): TokenEmbedding(
      10.75 k, 0.055% Params, 1.03 MMac, 0.059% MACs, 
      (tokenConv): Conv1d(10.75 k, 0.055% Params, 1.03 MMac, 0.059% MACs, 7, 512, kernel_size=(3,), stride=(1,), padding=(1,), bias=False, padding_mode=circular)
    )
    (position_embedding): PositionalEmbedding(0, 0.000% Params, 0.0 Mac, 0.000% MACs, )
    (temporal_embedding): TimeFeatureEmbedding(
      2.05 k, 0.011% Params, 196.61 KMac, 0.011% MACs, 
      (embed): Linear(2.05 k, 0.011% Params, 196.61 KMac, 0.011% MACs, in_features=4, out_features=512, bias=False)
    )
    (dropout): Dropout(0, 0.000% Params, 0.0 Mac, 0.000% MACs, p=0.05, inplace=False)
  )
  (dec_embedding): DataEmbedding(
    12.8 k, 0.066% Params, 1.84 MMac, 0.106% MACs, 
    (value_embedding): TokenEmbedding(
      10.75 k, 0.055% Params, 1.55 MMac, 0.089% MACs, 
      (tokenConv): Conv1d(10.75 k, 0.055% Params, 1.55 MMac, 0.089% MACs, 7, 512, kernel_size=(3,), stride=(1,), padding=(1,), bias=False, padding_mode=circular)
    )
    (position_embedding): PositionalEmbedding(0, 0.000% Params, 0.0 Mac, 0.000% MACs, )
    (temporal_embedding): TimeFeatureEmbedding(
      2.05 k, 0.011% Params, 294.91 KMac, 0.017% MACs, 
      (embed): Linear(2.05 k, 0.011% Params, 294.91 KMac, 0.017% MACs, in_features=4, out_features=512, bias=False)
    )
    (dropout): Dropout(0, 0.000% Params, 0.0 Mac, 0.000% MACs, p=0.05, inplace=False)
  )
  (encoder): Encoder(
    11.03 M, 56.629% Params, 655.92 MMac, 37.600% MACs, 
    (attn_layers): ModuleList(
      9.45 M, 48.535% Params, 538.36 MMac, 30.861% MACs, 
      (0): EncoderLayer(
        3.15 M, 16.178% Params, 302.24 MMac, 17.325% MACs, 
        (attention): AttentionLayer(
          1.05 M, 5.395% Params, 100.67 MMac, 5.770% MACs, 
          (inner_attention): ProbAttention(
            0, 0.000% Params, 0.0 Mac, 0.000% MACs, 
            (dropout): Dropout(0, 0.000% Params, 0.0 Mac, 0.000% MACs, p=0.05, inplace=False)
          )
          (query_projection): Linear(262.66 k, 1.349% Params, 25.17 MMac, 1.443% MACs, in_features=512, out_features=512, bias=True)
          (key_projection): Linear(262.66 k, 1.349% Params, 25.17 MMac, 1.443% MACs, in_features=512, out_features=512, bias=True)
          (value_projection): Linear(262.66 k, 1.349% Params, 25.17 MMac, 1.443% MACs, in_features=512, out_features=512, bias=True)
          (out_projection): Linear(262.66 k, 1.349% Params, 25.17 MMac, 1.443% MACs, in_features=512, out_features=512, bias=True)
        )
        (conv1): Conv1d(1.05 M, 5.395% Params, 100.86 MMac, 5.782% MACs, 512, 2048, kernel_size=(1,), stride=(1,))
        (conv2): Conv1d(1.05 M, 5.388% Params, 100.71 MMac, 5.773% MACs, 2048, 512, kernel_size=(1,), stride=(1,))
        (norm1): LayerNorm(0, 0.000% Params, 0.0 Mac, 0.000% MACs, (512,), eps=1e-05, elementwise_affine=True)
        (norm2): LayerNorm(0, 0.000% Params, 0.0 Mac, 0.000% MACs, (512,), eps=1e-05, elementwise_affine=True)
        (dropout): Dropout(0, 0.000% Params, 0.0 Mac, 0.000% MACs, p=0.05, inplace=False)
      )
      (1): EncoderLayer(
        3.15 M, 16.178% Params, 154.27 MMac, 8.843% MACs, 
        (attention): AttentionLayer(
          1.05 M, 5.395% Params, 51.38 MMac, 2.945% MACs, 
          (inner_attention): ProbAttention(
            0, 0.000% Params, 0.0 Mac, 0.000% MACs, 
            (dropout): Dropout(0, 0.000% Params, 0.0 Mac, 0.000% MACs, p=0.05, inplace=False)
          )
          (query_projection): Linear(262.66 k, 1.349% Params, 12.85 MMac, 0.736% MACs, in_features=512, out_features=512, bias=True)
          (key_projection): Linear(262.66 k, 1.349% Params, 12.85 MMac, 0.736% MACs, in_features=512, out_features=512, bias=True)
          (value_projection): Linear(262.66 k, 1.349% Params, 12.85 MMac, 0.736% MACs, in_features=512, out_features=512, bias=True)
          (out_projection): Linear(262.66 k, 1.349% Params, 12.85 MMac, 0.736% MACs, in_features=512, out_features=512, bias=True)
        )
        (conv1): Conv1d(1.05 M, 5.395% Params, 51.48 MMac, 2.951% MACs, 512, 2048, kernel_size=(1,), stride=(1,))
        (conv2): Conv1d(1.05 M, 5.388% Params, 51.41 MMac, 2.947% MACs, 2048, 512, kernel_size=(1,), stride=(1,))
        (norm1): LayerNorm(0, 0.000% Params, 0.0 Mac, 0.000% MACs, (512,), eps=1e-05, elementwise_affine=True)
        (norm2): LayerNorm(0, 0.000% Params, 0.0 Mac, 0.000% MACs, (512,), eps=1e-05, elementwise_affine=True)
        (dropout): Dropout(0, 0.000% Params, 0.0 Mac, 0.000% MACs, p=0.05, inplace=False)
      )
      (2): EncoderLayer(
        3.15 M, 16.178% Params, 81.86 MMac, 4.692% MACs, 
        (attention): AttentionLayer(
          1.05 M, 5.395% Params, 27.27 MMac, 1.563% MACs, 
          (inner_attention): ProbAttention(
            0, 0.000% Params, 0.0 Mac, 0.000% MACs, 
            (dropout): Dropout(0, 0.000% Params, 0.0 Mac, 0.000% MACs, p=0.05, inplace=False)
          )
          (query_projection): Linear(262.66 k, 1.349% Params, 6.82 MMac, 0.391% MACs, in_features=512, out_features=512, bias=True)
          (key_projection): Linear(262.66 k, 1.349% Params, 6.82 MMac, 0.391% MACs, in_features=512, out_features=512, bias=True)
          (value_projection): Linear(262.66 k, 1.349% Params, 6.82 MMac, 0.391% MACs, in_features=512, out_features=512, bias=True)
          (out_projection): Linear(262.66 k, 1.349% Params, 6.82 MMac, 0.391% MACs, in_features=512, out_features=512, bias=True)
        )
        (conv1): Conv1d(1.05 M, 5.395% Params, 27.32 MMac, 1.566% MACs, 512, 2048, kernel_size=(1,), stride=(1,))
        (conv2): Conv1d(1.05 M, 5.388% Params, 27.28 MMac, 1.564% MACs, 2048, 512, kernel_size=(1,), stride=(1,))
        (norm1): LayerNorm(0, 0.000% Params, 0.0 Mac, 0.000% MACs, (512,), eps=1e-05, elementwise_affine=True)
        (norm2): LayerNorm(0, 0.000% Params, 0.0 Mac, 0.000% MACs, (512,), eps=1e-05, elementwise_affine=True)
        (dropout): Dropout(0, 0.000% Params, 0.0 Mac, 0.000% MACs, p=0.05, inplace=False)
      )
    )
    (conv_layers): ModuleList(
      1.58 M, 8.093% Params, 117.56 MMac, 6.739% MACs, 
      (0): ConvLayer(
        787.97 k, 4.047% Params, 77.32 MMac, 4.432% MACs, 
        (downConv): Conv1d(786.94 k, 4.041% Params, 77.12 MMac, 4.421% MACs, 512, 512, kernel_size=(3,), stride=(1,), padding=(2,), padding_mode=circular)
        (norm): BatchNorm1d(1.02 k, 0.005% Params, 100.35 KMac, 0.006% MACs, 512, eps=1e-05, momentum=0.1, affine=True, track_running_stats=True)
        (activation): ELU(0, 0.000% Params, 50.18 KMac, 0.003% MACs, alpha=1.0)
        (maxPool): MaxPool1d(0, 0.000% Params, 50.18 KMac, 0.003% MACs, kernel_size=3, stride=2, padding=1, dilation=1, ceil_mode=False)
      )
      (1): ConvLayer(
        787.97 k, 4.047% Params, 40.24 MMac, 2.307% MACs, 
        (downConv): Conv1d(786.94 k, 4.041% Params, 40.13 MMac, 2.301% MACs, 512, 512, kernel_size=(3,), stride=(1,), padding=(2,), padding_mode=circular)
        (norm): BatchNorm1d(1.02 k, 0.005% Params, 52.22 KMac, 0.003% MACs, 512, eps=1e-05, momentum=0.1, affine=True, track_running_stats=True)
        (activation): ELU(0, 0.000% Params, 26.11 KMac, 0.001% MACs, alpha=1.0)
        (maxPool): MaxPool1d(0, 0.000% Params, 26.11 KMac, 0.001% MACs, kernel_size=3, stride=2, padding=1, dilation=1, ceil_mode=False)
      )
    )
    (norm): LayerNorm(0, 0.000% Params, 0.0 Mac, 0.000% MACs, (512,), eps=1e-05, elementwise_affine=True)
  )
  (decoder): Decoder(
    8.41 M, 43.166% Params, 1.09 GMac, 62.224% MACs, 
    (layers): ModuleList(
      8.4 M, 43.148% Params, 1.08 GMac, 62.194% MACs, 
      (0): DecoderLayer(
        4.2 M, 21.574% Params, 542.49 MMac, 31.097% MACs, 
        (self_attention): AttentionLayer(
          1.05 M, 5.395% Params, 151.0 MMac, 8.656% MACs, 
          (inner_attention): ProbAttention(
            0, 0.000% Params, 0.0 Mac, 0.000% MACs, 
            (dropout): Dropout(0, 0.000% Params, 0.0 Mac, 0.000% MACs, p=0.05, inplace=False)
          )
          (query_projection): Linear(262.66 k, 1.349% Params, 37.75 MMac, 2.164% MACs, in_features=512, out_features=512, bias=True)
          (key_projection): Linear(262.66 k, 1.349% Params, 37.75 MMac, 2.164% MACs, in_features=512, out_features=512, bias=True)
          (value_projection): Linear(262.66 k, 1.349% Params, 37.75 MMac, 2.164% MACs, in_features=512, out_features=512, bias=True)
          (out_projection): Linear(262.66 k, 1.349% Params, 37.75 MMac, 2.164% MACs, in_features=512, out_features=512, bias=True)
        )
        (cross_attention): AttentionLayer(
          1.05 M, 5.395% Params, 89.13 MMac, 5.109% MACs, 
          (inner_attention): ProbAttention(
            0, 0.000% Params, 0.0 Mac, 0.000% MACs, 
            (dropout): Dropout(0, 0.000% Params, 0.0 Mac, 0.000% MACs, p=0.05, inplace=False)
          )
          (query_projection): Linear(262.66 k, 1.349% Params, 37.75 MMac, 2.164% MACs, in_features=512, out_features=512, bias=True)
          (key_projection): Linear(262.66 k, 1.349% Params, 6.82 MMac, 0.391% MACs, in_features=512, out_features=512, bias=True)
          (value_projection): Linear(262.66 k, 1.349% Params, 6.82 MMac, 0.391% MACs, in_features=512, out_features=512, bias=True)
          (out_projection): Linear(262.66 k, 1.349% Params, 37.75 MMac, 2.164% MACs, in_features=512, out_features=512, bias=True)
        )
        (conv1): Conv1d(1.05 M, 5.395% Params, 151.29 MMac, 8.672% MACs, 512, 2048, kernel_size=(1,), stride=(1,))
        (conv2): Conv1d(1.05 M, 5.388% Params, 151.07 MMac, 8.660% MACs, 2048, 512, kernel_size=(1,), stride=(1,))
        (norm1): LayerNorm(0, 0.000% Params, 0.0 Mac, 0.000% MACs, (512,), eps=1e-05, elementwise_affine=True)
        (norm2): LayerNorm(0, 0.000% Params, 0.0 Mac, 0.000% MACs, (512,), eps=1e-05, elementwise_affine=True)
        (norm3): LayerNorm(0, 0.000% Params, 0.0 Mac, 0.000% MACs, (512,), eps=1e-05, elementwise_affine=True)
        (dropout): Dropout(0, 0.000% Params, 0.0 Mac, 0.000% MACs, p=0.05, inplace=False)
      )
      (1): DecoderLayer(
        4.2 M, 21.574% Params, 542.49 MMac, 31.097% MACs, 
        (self_attention): AttentionLayer(
          1.05 M, 5.395% Params, 151.0 MMac, 8.656% MACs, 
          (inner_attention): ProbAttention(
            0, 0.000% Params, 0.0 Mac, 0.000% MACs, 
            (dropout): Dropout(0, 0.000% Params, 0.0 Mac, 0.000% MACs, p=0.05, inplace=False)
          )
          (query_projection): Linear(262.66 k, 1.349% Params, 37.75 MMac, 2.164% MACs, in_features=512, out_features=512, bias=True)
          (key_projection): Linear(262.66 k, 1.349% Params, 37.75 MMac, 2.164% MACs, in_features=512, out_features=512, bias=True)
          (value_projection): Linear(262.66 k, 1.349% Params, 37.75 MMac, 2.164% MACs, in_features=512, out_features=512, bias=True)
          (out_projection): Linear(262.66 k, 1.349% Params, 37.75 MMac, 2.164% MACs, in_features=512, out_features=512, bias=True)
        )
        (cross_attention): AttentionLayer(
          1.05 M, 5.395% Params, 89.13 MMac, 5.109% MACs, 
          (inner_attention): ProbAttention(
            0, 0.000% Params, 0.0 Mac, 0.000% MACs, 
            (dropout): Dropout(0, 0.000% Params, 0.0 Mac, 0.000% MACs, p=0.05, inplace=False)
          )
          (query_projection): Linear(262.66 k, 1.349% Params, 37.75 MMac, 2.164% MACs, in_features=512, out_features=512, bias=True)
          (key_projection): Linear(262.66 k, 1.349% Params, 6.82 MMac, 0.391% MACs, in_features=512, out_features=512, bias=True)
          (value_projection): Linear(262.66 k, 1.349% Params, 6.82 MMac, 0.391% MACs, in_features=512, out_features=512, bias=True)
          (out_projection): Linear(262.66 k, 1.349% Params, 37.75 MMac, 2.164% MACs, in_features=512, out_features=512, bias=True)
        )
        (conv1): Conv1d(1.05 M, 5.395% Params, 151.29 MMac, 8.672% MACs, 512, 2048, kernel_size=(1,), stride=(1,))
        (conv2): Conv1d(1.05 M, 5.388% Params, 151.07 MMac, 8.660% MACs, 2048, 512, kernel_size=(1,), stride=(1,))
        (norm1): LayerNorm(0, 0.000% Params, 0.0 Mac, 0.000% MACs, (512,), eps=1e-05, elementwise_affine=True)
        (norm2): LayerNorm(0, 0.000% Params, 0.0 Mac, 0.000% MACs, (512,), eps=1e-05, elementwise_affine=True)
        (norm3): LayerNorm(0, 0.000% Params, 0.0 Mac, 0.000% MACs, (512,), eps=1e-05, elementwise_affine=True)
        (dropout): Dropout(0, 0.000% Params, 0.0 Mac, 0.000% MACs, p=0.05, inplace=False)
      )
    )
    (norm): LayerNorm(0, 0.000% Params, 0.0 Mac, 0.000% MACs, (512,), eps=1e-05, elementwise_affine=True)
    (projection): Linear(3.59 k, 0.018% Params, 516.1 KMac, 0.030% MACs, in_features=512, out_features=7, bias=True)
  )
)
Computational complexity:       1.74 GMac
Number of parameters:           19.47 M 
