…
INFO: Trainable parameter count: 18.85M
INFO: Trainable parameter count: 18.85M
INFO: Trainable parameter count: 18.86M
INFO: Trainable parameter count: 18.86M
INFO: Trainable parameter count: 18.86M
INFO: Trainable parameter count: 18.86M
INFO: Trainable parameter count: 18.86M
INFO: Trainable parameter count: 19.02M
INFO: Trainable parameter count: 19.02M
Model(
  19.01 M, 99.925% Params, 2.21 GMac, 100.000% MACs, 
  (enc_embedding): DataEmbedding(
    495.1 k, 2.603% Params, 47.53 MMac, 2.153% MACs, 
    (value_embedding): TokenEmbedding(
      493.06 k, 2.592% Params, 47.33 MMac, 2.144% MACs, 
      (tokenConv): Conv1d(493.06 k, 2.592% Params, 47.33 MMac, 2.144% MACs, 321, 512, kernel_size=(3,), stride=(1,), padding=(1,), bias=False, padding_mode=circular)
    )
    (position_embedding): PositionalEmbedding(0, 0.000% Params, 0.0 Mac, 0.000% MACs, )
    (temporal_embedding): TimeFeatureEmbedding(
      2.05 k, 0.011% Params, 196.61 KMac, 0.009% MACs, 
      (embed): Linear(2.05 k, 0.011% Params, 196.61 KMac, 0.009% MACs, in_features=4, out_features=512, bias=False)
    )
    (dropout): Dropout(0, 0.000% Params, 0.0 Mac, 0.000% MACs, p=0.05, inplace=False)
  )
  (dec_embedding): DataEmbedding(
    495.1 k, 2.603% Params, 71.29 MMac, 3.230% MACs, 
    (value_embedding): TokenEmbedding(
      493.06 k, 2.592% Params, 71.0 MMac, 3.216% MACs, 
      (tokenConv): Conv1d(493.06 k, 2.592% Params, 71.0 MMac, 3.216% MACs, 321, 512, kernel_size=(3,), stride=(1,), padding=(1,), bias=False, padding_mode=circular)
    )
    (position_embedding): PositionalEmbedding(0, 0.000% Params, 0.0 Mac, 0.000% MACs, )
    (temporal_embedding): TimeFeatureEmbedding(
      2.05 k, 0.011% Params, 294.91 KMac, 0.013% MACs, 
      (embed): Linear(2.05 k, 0.011% Params, 294.91 KMac, 0.013% MACs, in_features=4, out_features=512, bias=False)
    )
    (dropout): Dropout(0, 0.000% Params, 0.0 Mac, 0.000% MACs, p=0.05, inplace=False)
  )
  (encoder): Encoder(
    9.45 M, 49.684% Params, 906.71 MMac, 41.073% MACs, 
    (attn_layers): ModuleList(
      9.45 M, 49.684% Params, 906.71 MMac, 41.073% MACs, 
      (0): EncoderLayer(
        3.15 M, 16.561% Params, 302.24 MMac, 13.691% MACs, 
        (attention): AttentionLayer(
          1.05 M, 5.523% Params, 100.67 MMac, 4.560% MACs, 
          (inner_attention): FullAttention(
            0, 0.000% Params, 0.0 Mac, 0.000% MACs, 
            (dropout): Dropout(0, 0.000% Params, 0.0 Mac, 0.000% MACs, p=0.05, inplace=False)
          )
          (query_projection): Linear(262.66 k, 1.381% Params, 25.17 MMac, 1.140% MACs, in_features=512, out_features=512, bias=True)
          (key_projection): Linear(262.66 k, 1.381% Params, 25.17 MMac, 1.140% MACs, in_features=512, out_features=512, bias=True)
          (value_projection): Linear(262.66 k, 1.381% Params, 25.17 MMac, 1.140% MACs, in_features=512, out_features=512, bias=True)
          (out_projection): Linear(262.66 k, 1.381% Params, 25.17 MMac, 1.140% MACs, in_features=512, out_features=512, bias=True)
        )
        (conv1): Conv1d(1.05 M, 5.523% Params, 100.86 MMac, 4.569% MACs, 512, 2048, kernel_size=(1,), stride=(1,))
        (conv2): Conv1d(1.05 M, 5.515% Params, 100.71 MMac, 4.562% MACs, 2048, 512, kernel_size=(1,), stride=(1,))
        (norm1): LayerNorm(0, 0.000% Params, 0.0 Mac, 0.000% MACs, (512,), eps=1e-05, elementwise_affine=True)
        (norm2): LayerNorm(0, 0.000% Params, 0.0 Mac, 0.000% MACs, (512,), eps=1e-05, elementwise_affine=True)
        (dropout): Dropout(0, 0.000% Params, 0.0 Mac, 0.000% MACs, p=0.05, inplace=False)
      )
      (1): EncoderLayer(
        3.15 M, 16.561% Params, 302.24 MMac, 13.691% MACs, 
        (attention): AttentionLayer(
          1.05 M, 5.523% Params, 100.67 MMac, 4.560% MACs, 
          (inner_attention): FullAttention(
            0, 0.000% Params, 0.0 Mac, 0.000% MACs, 
            (dropout): Dropout(0, 0.000% Params, 0.0 Mac, 0.000% MACs, p=0.05, inplace=False)
          )
          (query_projection): Linear(262.66 k, 1.381% Params, 25.17 MMac, 1.140% MACs, in_features=512, out_features=512, bias=True)
          (key_projection): Linear(262.66 k, 1.381% Params, 25.17 MMac, 1.140% MACs, in_features=512, out_features=512, bias=True)
          (value_projection): Linear(262.66 k, 1.381% Params, 25.17 MMac, 1.140% MACs, in_features=512, out_features=512, bias=True)
          (out_projection): Linear(262.66 k, 1.381% Params, 25.17 MMac, 1.140% MACs, in_features=512, out_features=512, bias=True)
        )
        (conv1): Conv1d(1.05 M, 5.523% Params, 100.86 MMac, 4.569% MACs, 512, 2048, kernel_size=(1,), stride=(1,))
        (conv2): Conv1d(1.05 M, 5.515% Params, 100.71 MMac, 4.562% MACs, 2048, 512, kernel_size=(1,), stride=(1,))
        (norm1): LayerNorm(0, 0.000% Params, 0.0 Mac, 0.000% MACs, (512,), eps=1e-05, elementwise_affine=True)
        (norm2): LayerNorm(0, 0.000% Params, 0.0 Mac, 0.000% MACs, (512,), eps=1e-05, elementwise_affine=True)
        (dropout): Dropout(0, 0.000% Params, 0.0 Mac, 0.000% MACs, p=0.05, inplace=False)
      )
      (2): EncoderLayer(
        3.15 M, 16.561% Params, 302.24 MMac, 13.691% MACs, 
        (attention): AttentionLayer(
          1.05 M, 5.523% Params, 100.67 MMac, 4.560% MACs, 
          (inner_attention): FullAttention(
            0, 0.000% Params, 0.0 Mac, 0.000% MACs, 
            (dropout): Dropout(0, 0.000% Params, 0.0 Mac, 0.000% MACs, p=0.05, inplace=False)
          )
          (query_projection): Linear(262.66 k, 1.381% Params, 25.17 MMac, 1.140% MACs, in_features=512, out_features=512, bias=True)
          (key_projection): Linear(262.66 k, 1.381% Params, 25.17 MMac, 1.140% MACs, in_features=512, out_features=512, bias=True)
          (value_projection): Linear(262.66 k, 1.381% Params, 25.17 MMac, 1.140% MACs, in_features=512, out_features=512, bias=True)
          (out_projection): Linear(262.66 k, 1.381% Params, 25.17 MMac, 1.140% MACs, in_features=512, out_features=512, bias=True)
        )
        (conv1): Conv1d(1.05 M, 5.523% Params, 100.86 MMac, 4.569% MACs, 512, 2048, kernel_size=(1,), stride=(1,))
        (conv2): Conv1d(1.05 M, 5.515% Params, 100.71 MMac, 4.562% MACs, 2048, 512, kernel_size=(1,), stride=(1,))
        (norm1): LayerNorm(0, 0.000% Params, 0.0 Mac, 0.000% MACs, (512,), eps=1e-05, elementwise_affine=True)
        (norm2): LayerNorm(0, 0.000% Params, 0.0 Mac, 0.000% MACs, (512,), eps=1e-05, elementwise_affine=True)
        (dropout): Dropout(0, 0.000% Params, 0.0 Mac, 0.000% MACs, p=0.05, inplace=False)
      )
    )
    (norm): LayerNorm(0, 0.000% Params, 0.0 Mac, 0.000% MACs, (512,), eps=1e-05, elementwise_affine=True)
  )
  (decoder): Decoder(
    8.57 M, 45.035% Params, 1.18 GMac, 53.545% MACs, 
    (layers): ModuleList(
      8.4 M, 44.169% Params, 1.16 GMac, 52.473% MACs, 
      (0): DecoderLayer(
        4.2 M, 22.085% Params, 579.19 MMac, 26.236% MACs, 
        (self_attention): AttentionLayer(
          1.05 M, 5.523% Params, 151.0 MMac, 6.840% MACs, 
          (inner_attention): FullAttention(
            0, 0.000% Params, 0.0 Mac, 0.000% MACs, 
            (dropout): Dropout(0, 0.000% Params, 0.0 Mac, 0.000% MACs, p=0.05, inplace=False)
          )
          (query_projection): Linear(262.66 k, 1.381% Params, 37.75 MMac, 1.710% MACs, in_features=512, out_features=512, bias=True)
          (key_projection): Linear(262.66 k, 1.381% Params, 37.75 MMac, 1.710% MACs, in_features=512, out_features=512, bias=True)
          (value_projection): Linear(262.66 k, 1.381% Params, 37.75 MMac, 1.710% MACs, in_features=512, out_features=512, bias=True)
          (out_projection): Linear(262.66 k, 1.381% Params, 37.75 MMac, 1.710% MACs, in_features=512, out_features=512, bias=True)
        )
        (cross_attention): AttentionLayer(
          1.05 M, 5.523% Params, 125.83 MMac, 5.700% MACs, 
          (inner_attention): FullAttention(
            0, 0.000% Params, 0.0 Mac, 0.000% MACs, 
            (dropout): Dropout(0, 0.000% Params, 0.0 Mac, 0.000% MACs, p=0.05, inplace=False)
          )
          (query_projection): Linear(262.66 k, 1.381% Params, 37.75 MMac, 1.710% MACs, in_features=512, out_features=512, bias=True)
          (key_projection): Linear(262.66 k, 1.381% Params, 25.17 MMac, 1.140% MACs, in_features=512, out_features=512, bias=True)
          (value_projection): Linear(262.66 k, 1.381% Params, 25.17 MMac, 1.140% MACs, in_features=512, out_features=512, bias=True)
          (out_projection): Linear(262.66 k, 1.381% Params, 37.75 MMac, 1.710% MACs, in_features=512, out_features=512, bias=True)
        )
        (conv1): Conv1d(1.05 M, 5.523% Params, 151.29 MMac, 6.853% MACs, 512, 2048, kernel_size=(1,), stride=(1,))
        (conv2): Conv1d(1.05 M, 5.515% Params, 151.07 MMac, 6.843% MACs, 2048, 512, kernel_size=(1,), stride=(1,))
        (norm1): LayerNorm(0, 0.000% Params, 0.0 Mac, 0.000% MACs, (512,), eps=1e-05, elementwise_affine=True)
        (norm2): LayerNorm(0, 0.000% Params, 0.0 Mac, 0.000% MACs, (512,), eps=1e-05, elementwise_affine=True)
        (norm3): LayerNorm(0, 0.000% Params, 0.0 Mac, 0.000% MACs, (512,), eps=1e-05, elementwise_affine=True)
        (dropout): Dropout(0, 0.000% Params, 0.0 Mac, 0.000% MACs, p=0.05, inplace=False)
      )
      (1): DecoderLayer(
        4.2 M, 22.085% Params, 579.19 MMac, 26.236% MACs, 
        (self_attention): AttentionLayer(
          1.05 M, 5.523% Params, 151.0 MMac, 6.840% MACs, 
          (inner_attention): FullAttention(
            0, 0.000% Params, 0.0 Mac, 0.000% MACs, 
            (dropout): Dropout(0, 0.000% Params, 0.0 Mac, 0.000% MACs, p=0.05, inplace=False)
          )
          (query_projection): Linear(262.66 k, 1.381% Params, 37.75 MMac, 1.710% MACs, in_features=512, out_features=512, bias=True)
          (key_projection): Linear(262.66 k, 1.381% Params, 37.75 MMac, 1.710% MACs, in_features=512, out_features=512, bias=True)
          (value_projection): Linear(262.66 k, 1.381% Params, 37.75 MMac, 1.710% MACs, in_features=512, out_features=512, bias=True)
          (out_projection): Linear(262.66 k, 1.381% Params, 37.75 MMac, 1.710% MACs, in_features=512, out_features=512, bias=True)
        )
        (cross_attention): AttentionLayer(
          1.05 M, 5.523% Params, 125.83 MMac, 5.700% MACs, 
          (inner_attention): FullAttention(
            0, 0.000% Params, 0.0 Mac, 0.000% MACs, 
            (dropout): Dropout(0, 0.000% Params, 0.0 Mac, 0.000% MACs, p=0.05, inplace=False)
          )
          (query_projection): Linear(262.66 k, 1.381% Params, 37.75 MMac, 1.710% MACs, in_features=512, out_features=512, bias=True)
          (key_projection): Linear(262.66 k, 1.381% Params, 25.17 MMac, 1.140% MACs, in_features=512, out_features=512, bias=True)
          (value_projection): Linear(262.66 k, 1.381% Params, 25.17 MMac, 1.140% MACs, in_features=512, out_features=512, bias=True)
          (out_projection): Linear(262.66 k, 1.381% Params, 37.75 MMac, 1.710% MACs, in_features=512, out_features=512, bias=True)
        )
        (conv1): Conv1d(1.05 M, 5.523% Params, 151.29 MMac, 6.853% MACs, 512, 2048, kernel_size=(1,), stride=(1,))
        (conv2): Conv1d(1.05 M, 5.515% Params, 151.07 MMac, 6.843% MACs, 2048, 512, kernel_size=(1,), stride=(1,))
        (norm1): LayerNorm(0, 0.000% Params, 0.0 Mac, 0.000% MACs, (512,), eps=1e-05, elementwise_affine=True)
        (norm2): LayerNorm(0, 0.000% Params, 0.0 Mac, 0.000% MACs, (512,), eps=1e-05, elementwise_affine=True)
        (norm3): LayerNorm(0, 0.000% Params, 0.0 Mac, 0.000% MACs, (512,), eps=1e-05, elementwise_affine=True)
        (dropout): Dropout(0, 0.000% Params, 0.0 Mac, 0.000% MACs, p=0.05, inplace=False)
      )
    )
    (norm): LayerNorm(0, 0.000% Params, 0.0 Mac, 0.000% MACs, (512,), eps=1e-05, elementwise_affine=True)
    (projection): Linear(164.67 k, 0.866% Params, 23.67 MMac, 1.072% MACs, in_features=512, out_features=321, bias=True)
  )
)
Computational complexity:       2.21 GMac
Number of parameters:           19.02 M 
