…
INFO: Trainable parameter count: 12.55M
INFO: Trainable parameter count: 12.55M
INFO: Trainable parameter count: 12.55M
INFO: Trainable parameter count: 12.55M
INFO: Trainable parameter count: 12.55M
INFO: Trainable parameter count: 12.55M
INFO: Trainable parameter count: 12.55M
INFO: Trainable parameter count: 12.72M
INFO: Trainable parameter count: 12.72M
Model(
  12.71 M, 99.919% Params, 1.6 GMac, 100.000% MACs, 
  (enc_embedding): DataEmbedding(
    495.1 k, 3.893% Params, 47.53 MMac, 2.965% MACs, 
    (value_embedding): TokenEmbedding(
      493.06 k, 3.877% Params, 47.33 MMac, 2.953% MACs, 
      (tokenConv): Conv1d(493.06 k, 3.877% Params, 47.33 MMac, 2.953% MACs, 321, 512, kernel_size=(3,), stride=(1,), padding=(1,), bias=False, padding_mode=circular)
    )
    (position_embedding): PositionalEmbedding(0, 0.000% Params, 0.0 Mac, 0.000% MACs, )
    (temporal_embedding): TimeFeatureEmbedding(
      2.05 k, 0.016% Params, 196.61 KMac, 0.012% MACs, 
      (embed): Linear(2.05 k, 0.016% Params, 196.61 KMac, 0.012% MACs, in_features=4, out_features=512, bias=False)
    )
    (dropout): Dropout(0, 0.000% Params, 0.0 Mac, 0.000% MACs, p=0.05, inplace=False)
  )
  (dec_embedding): DataEmbedding(
    495.1 k, 3.893% Params, 71.29 MMac, 4.447% MACs, 
    (value_embedding): TokenEmbedding(
      493.06 k, 3.877% Params, 71.0 MMac, 4.429% MACs, 
      (tokenConv): Conv1d(493.06 k, 3.877% Params, 71.0 MMac, 4.429% MACs, 321, 512, kernel_size=(3,), stride=(1,), padding=(1,), bias=False, padding_mode=circular)
    )
    (position_embedding): PositionalEmbedding(0, 0.000% Params, 0.0 Mac, 0.000% MACs, )
    (temporal_embedding): TimeFeatureEmbedding(
      2.05 k, 0.016% Params, 294.91 KMac, 0.018% MACs, 
      (embed): Linear(2.05 k, 0.016% Params, 294.91 KMac, 0.018% MACs, in_features=4, out_features=512, bias=False)
    )
    (dropout): Dropout(0, 0.000% Params, 0.0 Mac, 0.000% MACs, p=0.05, inplace=False)
  )
  (encoder): Encoder(
    3.15 M, 24.772% Params, 302.24 MMac, 18.853% MACs, 
    (attn_layers): ModuleList(
      3.15 M, 24.772% Params, 302.24 MMac, 18.853% MACs, 
      (0): EncoderLayer(
        3.15 M, 24.772% Params, 302.24 MMac, 18.853% MACs, 
        (attention): AttentionLayer(
          1.05 M, 8.261% Params, 100.67 MMac, 6.279% MACs, 
          (inner_attention): FullAttention(
            0, 0.000% Params, 0.0 Mac, 0.000% MACs, 
            (dropout): Dropout(0, 0.000% Params, 0.0 Mac, 0.000% MACs, p=0.05, inplace=False)
          )
          (query_projection): Linear(262.66 k, 2.065% Params, 25.17 MMac, 1.570% MACs, in_features=512, out_features=512, bias=True)
          (key_projection): Linear(262.66 k, 2.065% Params, 25.17 MMac, 1.570% MACs, in_features=512, out_features=512, bias=True)
          (value_projection): Linear(262.66 k, 2.065% Params, 25.17 MMac, 1.570% MACs, in_features=512, out_features=512, bias=True)
          (out_projection): Linear(262.66 k, 2.065% Params, 25.17 MMac, 1.570% MACs, in_features=512, out_features=512, bias=True)
        )
        (conv1): Conv1d(1.05 M, 8.261% Params, 100.86 MMac, 6.292% MACs, 512, 2048, kernel_size=(1,), stride=(1,))
        (conv2): Conv1d(1.05 M, 8.249% Params, 100.71 MMac, 6.282% MACs, 2048, 512, kernel_size=(1,), stride=(1,))
        (norm1): LayerNorm(0, 0.000% Params, 0.0 Mac, 0.000% MACs, (512,), eps=1e-05, elementwise_affine=True)
        (norm2): LayerNorm(0, 0.000% Params, 0.0 Mac, 0.000% MACs, (512,), eps=1e-05, elementwise_affine=True)
        (dropout): Dropout(0, 0.000% Params, 0.0 Mac, 0.000% MACs, p=0.05, inplace=False)
      )
    )
    (norm): LayerNorm(0, 0.000% Params, 0.0 Mac, 0.000% MACs, (512,), eps=1e-05, elementwise_affine=True)
  )
  (decoder): Decoder(
    8.57 M, 67.361% Params, 1.18 GMac, 73.735% MACs, 
    (layers): ModuleList(
      8.4 M, 66.066% Params, 1.16 GMac, 72.258% MACs, 
      (0): DecoderLayer(
        4.2 M, 33.033% Params, 579.19 MMac, 36.129% MACs, 
        (self_attention): AttentionLayer(
          1.05 M, 8.261% Params, 151.0 MMac, 9.419% MACs, 
          (inner_attention): FullAttention(
            0, 0.000% Params, 0.0 Mac, 0.000% MACs, 
            (dropout): Dropout(0, 0.000% Params, 0.0 Mac, 0.000% MACs, p=0.05, inplace=False)
          )
          (query_projection): Linear(262.66 k, 2.065% Params, 37.75 MMac, 2.355% MACs, in_features=512, out_features=512, bias=True)
          (key_projection): Linear(262.66 k, 2.065% Params, 37.75 MMac, 2.355% MACs, in_features=512, out_features=512, bias=True)
          (value_projection): Linear(262.66 k, 2.065% Params, 37.75 MMac, 2.355% MACs, in_features=512, out_features=512, bias=True)
          (out_projection): Linear(262.66 k, 2.065% Params, 37.75 MMac, 2.355% MACs, in_features=512, out_features=512, bias=True)
        )
        (cross_attention): AttentionLayer(
          1.05 M, 8.261% Params, 125.83 MMac, 7.849% MACs, 
          (inner_attention): FullAttention(
            0, 0.000% Params, 0.0 Mac, 0.000% MACs, 
            (dropout): Dropout(0, 0.000% Params, 0.0 Mac, 0.000% MACs, p=0.05, inplace=False)
          )
          (query_projection): Linear(262.66 k, 2.065% Params, 37.75 MMac, 2.355% MACs, in_features=512, out_features=512, bias=True)
          (key_projection): Linear(262.66 k, 2.065% Params, 25.17 MMac, 1.570% MACs, in_features=512, out_features=512, bias=True)
          (value_projection): Linear(262.66 k, 2.065% Params, 25.17 MMac, 1.570% MACs, in_features=512, out_features=512, bias=True)
          (out_projection): Linear(262.66 k, 2.065% Params, 37.75 MMac, 2.355% MACs, in_features=512, out_features=512, bias=True)
        )
        (conv1): Conv1d(1.05 M, 8.261% Params, 151.29 MMac, 9.437% MACs, 512, 2048, kernel_size=(1,), stride=(1,))
        (conv2): Conv1d(1.05 M, 8.249% Params, 151.07 MMac, 9.424% MACs, 2048, 512, kernel_size=(1,), stride=(1,))
        (norm1): LayerNorm(0, 0.000% Params, 0.0 Mac, 0.000% MACs, (512,), eps=1e-05, elementwise_affine=True)
        (norm2): LayerNorm(0, 0.000% Params, 0.0 Mac, 0.000% MACs, (512,), eps=1e-05, elementwise_affine=True)
        (norm3): LayerNorm(0, 0.000% Params, 0.0 Mac, 0.000% MACs, (512,), eps=1e-05, elementwise_affine=True)
        (dropout): Dropout(0, 0.000% Params, 0.0 Mac, 0.000% MACs, p=0.05, inplace=False)
      )
      (1): DecoderLayer(
        4.2 M, 33.033% Params, 579.19 MMac, 36.129% MACs, 
        (self_attention): AttentionLayer(
          1.05 M, 8.261% Params, 151.0 MMac, 9.419% MACs, 
          (inner_attention): FullAttention(
            0, 0.000% Params, 0.0 Mac, 0.000% MACs, 
            (dropout): Dropout(0, 0.000% Params, 0.0 Mac, 0.000% MACs, p=0.05, inplace=False)
          )
          (query_projection): Linear(262.66 k, 2.065% Params, 37.75 MMac, 2.355% MACs, in_features=512, out_features=512, bias=True)
          (key_projection): Linear(262.66 k, 2.065% Params, 37.75 MMac, 2.355% MACs, in_features=512, out_features=512, bias=True)
          (value_projection): Linear(262.66 k, 2.065% Params, 37.75 MMac, 2.355% MACs, in_features=512, out_features=512, bias=True)
          (out_projection): Linear(262.66 k, 2.065% Params, 37.75 MMac, 2.355% MACs, in_features=512, out_features=512, bias=True)
        )
        (cross_attention): AttentionLayer(
          1.05 M, 8.261% Params, 125.83 MMac, 7.849% MACs, 
          (inner_attention): FullAttention(
            0, 0.000% Params, 0.0 Mac, 0.000% MACs, 
            (dropout): Dropout(0, 0.000% Params, 0.0 Mac, 0.000% MACs, p=0.05, inplace=False)
          )
          (query_projection): Linear(262.66 k, 2.065% Params, 37.75 MMac, 2.355% MACs, in_features=512, out_features=512, bias=True)
          (key_projection): Linear(262.66 k, 2.065% Params, 25.17 MMac, 1.570% MACs, in_features=512, out_features=512, bias=True)
          (value_projection): Linear(262.66 k, 2.065% Params, 25.17 MMac, 1.570% MACs, in_features=512, out_features=512, bias=True)
          (out_projection): Linear(262.66 k, 2.065% Params, 37.75 MMac, 2.355% MACs, in_features=512, out_features=512, bias=True)
        )
        (conv1): Conv1d(1.05 M, 8.261% Params, 151.29 MMac, 9.437% MACs, 512, 2048, kernel_size=(1,), stride=(1,))
        (conv2): Conv1d(1.05 M, 8.249% Params, 151.07 MMac, 9.424% MACs, 2048, 512, kernel_size=(1,), stride=(1,))
        (norm1): LayerNorm(0, 0.000% Params, 0.0 Mac, 0.000% MACs, (512,), eps=1e-05, elementwise_affine=True)
        (norm2): LayerNorm(0, 0.000% Params, 0.0 Mac, 0.000% MACs, (512,), eps=1e-05, elementwise_affine=True)
        (norm3): LayerNorm(0, 0.000% Params, 0.0 Mac, 0.000% MACs, (512,), eps=1e-05, elementwise_affine=True)
        (dropout): Dropout(0, 0.000% Params, 0.0 Mac, 0.000% MACs, p=0.05, inplace=False)
      )
    )
    (norm): LayerNorm(0, 0.000% Params, 0.0 Mac, 0.000% MACs, (512,), eps=1e-05, elementwise_affine=True)
    (projection): Linear(164.67 k, 1.295% Params, 23.67 MMac, 1.476% MACs, in_features=512, out_features=321, bias=True)
  )
)
Computational complexity:       1.6 GMac
Number of parameters:           12.72 M 
