…
INFO: Trainable parameter count: 29.45M
INFO: Trainable parameter count: 29.45M
INFO: Trainable parameter count: 29.45M
INFO: Trainable parameter count: 29.45M
INFO: Trainable parameter count: 29.45M
INFO: Trainable parameter count: 29.45M
INFO: Trainable parameter count: 29.45M
INFO: Trainable parameter count: 29.46M
INFO: Trainable parameter count: 29.46M
Model(
  29.43 M, 99.924% Params, 3.53 GMac, 100.000% MACs, 
  (enc_embedding): DataEmbedding(
    12.8 k, 0.043% Params, 1.23 MMac, 0.035% MACs, 
    (value_embedding): TokenEmbedding(
      10.75 k, 0.037% Params, 1.03 MMac, 0.029% MACs, 
      (tokenConv): Conv1d(10.75 k, 0.037% Params, 1.03 MMac, 0.029% MACs, 7, 512, kernel_size=(3,), stride=(1,), padding=(1,), bias=False, padding_mode=circular)
    )
    (position_embedding): PositionalEmbedding(0, 0.000% Params, 0.0 Mac, 0.000% MACs, )
    (temporal_embedding): TimeFeatureEmbedding(
      2.05 k, 0.007% Params, 196.61 KMac, 0.006% MACs, 
      (embed): Linear(2.05 k, 0.007% Params, 196.61 KMac, 0.006% MACs, in_features=4, out_features=512, bias=False)
    )
    (dropout): Dropout(0, 0.000% Params, 0.0 Mac, 0.000% MACs, p=0.05, inplace=False)
  )
  (dec_embedding): DataEmbedding(
    12.8 k, 0.043% Params, 1.84 MMac, 0.052% MACs, 
    (value_embedding): TokenEmbedding(
      10.75 k, 0.037% Params, 1.55 MMac, 0.044% MACs, 
      (tokenConv): Conv1d(10.75 k, 0.037% Params, 1.55 MMac, 0.044% MACs, 7, 512, kernel_size=(3,), stride=(1,), padding=(1,), bias=False, padding_mode=circular)
    )
    (position_embedding): PositionalEmbedding(0, 0.000% Params, 0.0 Mac, 0.000% MACs, )
    (temporal_embedding): TimeFeatureEmbedding(
      2.05 k, 0.007% Params, 294.91 KMac, 0.008% MACs, 
      (embed): Linear(2.05 k, 0.007% Params, 294.91 KMac, 0.008% MACs, in_features=4, out_features=512, bias=False)
    )
    (dropout): Dropout(0, 0.000% Params, 0.0 Mac, 0.000% MACs, p=0.05, inplace=False)
  )
  (encoder): Encoder(
    12.6 M, 42.779% Params, 1.21 GMac, 34.255% MACs, 
    (attn_layers): ModuleList(
      12.6 M, 42.779% Params, 1.21 GMac, 34.255% MACs, 
      (0): EncoderLayer(
        3.15 M, 10.695% Params, 302.24 MMac, 8.564% MACs, 
        (attention): AttentionLayer(
          1.05 M, 3.567% Params, 100.67 MMac, 2.852% MACs, 
          (inner_attention): FullAttention(
            0, 0.000% Params, 0.0 Mac, 0.000% MACs, 
            (dropout): Dropout(0, 0.000% Params, 0.0 Mac, 0.000% MACs, p=0.05, inplace=False)
          )
          (query_projection): Linear(262.66 k, 0.892% Params, 25.17 MMac, 0.713% MACs, in_features=512, out_features=512, bias=True)
          (key_projection): Linear(262.66 k, 0.892% Params, 25.17 MMac, 0.713% MACs, in_features=512, out_features=512, bias=True)
          (value_projection): Linear(262.66 k, 0.892% Params, 25.17 MMac, 0.713% MACs, in_features=512, out_features=512, bias=True)
          (out_projection): Linear(262.66 k, 0.892% Params, 25.17 MMac, 0.713% MACs, in_features=512, out_features=512, bias=True)
        )
        (conv1): Conv1d(1.05 M, 3.567% Params, 100.86 MMac, 2.858% MACs, 512, 2048, kernel_size=(1,), stride=(1,))
        (conv2): Conv1d(1.05 M, 3.561% Params, 100.71 MMac, 2.854% MACs, 2048, 512, kernel_size=(1,), stride=(1,))
        (norm1): LayerNorm(0, 0.000% Params, 0.0 Mac, 0.000% MACs, (512,), eps=1e-05, elementwise_affine=True)
        (norm2): LayerNorm(0, 0.000% Params, 0.0 Mac, 0.000% MACs, (512,), eps=1e-05, elementwise_affine=True)
        (dropout): Dropout(0, 0.000% Params, 0.0 Mac, 0.000% MACs, p=0.05, inplace=False)
      )
      (1): EncoderLayer(
        3.15 M, 10.695% Params, 302.24 MMac, 8.564% MACs, 
        (attention): AttentionLayer(
          1.05 M, 3.567% Params, 100.67 MMac, 2.852% MACs, 
          (inner_attention): FullAttention(
            0, 0.000% Params, 0.0 Mac, 0.000% MACs, 
            (dropout): Dropout(0, 0.000% Params, 0.0 Mac, 0.000% MACs, p=0.05, inplace=False)
          )
          (query_projection): Linear(262.66 k, 0.892% Params, 25.17 MMac, 0.713% MACs, in_features=512, out_features=512, bias=True)
          (key_projection): Linear(262.66 k, 0.892% Params, 25.17 MMac, 0.713% MACs, in_features=512, out_features=512, bias=True)
          (value_projection): Linear(262.66 k, 0.892% Params, 25.17 MMac, 0.713% MACs, in_features=512, out_features=512, bias=True)
          (out_projection): Linear(262.66 k, 0.892% Params, 25.17 MMac, 0.713% MACs, in_features=512, out_features=512, bias=True)
        )
        (conv1): Conv1d(1.05 M, 3.567% Params, 100.86 MMac, 2.858% MACs, 512, 2048, kernel_size=(1,), stride=(1,))
        (conv2): Conv1d(1.05 M, 3.561% Params, 100.71 MMac, 2.854% MACs, 2048, 512, kernel_size=(1,), stride=(1,))
        (norm1): LayerNorm(0, 0.000% Params, 0.0 Mac, 0.000% MACs, (512,), eps=1e-05, elementwise_affine=True)
        (norm2): LayerNorm(0, 0.000% Params, 0.0 Mac, 0.000% MACs, (512,), eps=1e-05, elementwise_affine=True)
        (dropout): Dropout(0, 0.000% Params, 0.0 Mac, 0.000% MACs, p=0.05, inplace=False)
      )
      (2): EncoderLayer(
        3.15 M, 10.695% Params, 302.24 MMac, 8.564% MACs, 
        (attention): AttentionLayer(
          1.05 M, 3.567% Params, 100.67 MMac, 2.852% MACs, 
          (inner_attention): FullAttention(
            0, 0.000% Params, 0.0 Mac, 0.000% MACs, 
            (dropout): Dropout(0, 0.000% Params, 0.0 Mac, 0.000% MACs, p=0.05, inplace=False)
          )
          (query_projection): Linear(262.66 k, 0.892% Params, 25.17 MMac, 0.713% MACs, in_features=512, out_features=512, bias=True)
          (key_projection): Linear(262.66 k, 0.892% Params, 25.17 MMac, 0.713% MACs, in_features=512, out_features=512, bias=True)
          (value_projection): Linear(262.66 k, 0.892% Params, 25.17 MMac, 0.713% MACs, in_features=512, out_features=512, bias=True)
          (out_projection): Linear(262.66 k, 0.892% Params, 25.17 MMac, 0.713% MACs, in_features=512, out_features=512, bias=True)
        )
        (conv1): Conv1d(1.05 M, 3.567% Params, 100.86 MMac, 2.858% MACs, 512, 2048, kernel_size=(1,), stride=(1,))
        (conv2): Conv1d(1.05 M, 3.561% Params, 100.71 MMac, 2.854% MACs, 2048, 512, kernel_size=(1,), stride=(1,))
        (norm1): LayerNorm(0, 0.000% Params, 0.0 Mac, 0.000% MACs, (512,), eps=1e-05, elementwise_affine=True)
        (norm2): LayerNorm(0, 0.000% Params, 0.0 Mac, 0.000% MACs, (512,), eps=1e-05, elementwise_affine=True)
        (dropout): Dropout(0, 0.000% Params, 0.0 Mac, 0.000% MACs, p=0.05, inplace=False)
      )
      (3): EncoderLayer(
        3.15 M, 10.695% Params, 302.24 MMac, 8.564% MACs, 
        (attention): AttentionLayer(
          1.05 M, 3.567% Params, 100.67 MMac, 2.852% MACs, 
          (inner_attention): FullAttention(
            0, 0.000% Params, 0.0 Mac, 0.000% MACs, 
            (dropout): Dropout(0, 0.000% Params, 0.0 Mac, 0.000% MACs, p=0.05, inplace=False)
          )
          (query_projection): Linear(262.66 k, 0.892% Params, 25.17 MMac, 0.713% MACs, in_features=512, out_features=512, bias=True)
          (key_projection): Linear(262.66 k, 0.892% Params, 25.17 MMac, 0.713% MACs, in_features=512, out_features=512, bias=True)
          (value_projection): Linear(262.66 k, 0.892% Params, 25.17 MMac, 0.713% MACs, in_features=512, out_features=512, bias=True)
          (out_projection): Linear(262.66 k, 0.892% Params, 25.17 MMac, 0.713% MACs, in_features=512, out_features=512, bias=True)
        )
        (conv1): Conv1d(1.05 M, 3.567% Params, 100.86 MMac, 2.858% MACs, 512, 2048, kernel_size=(1,), stride=(1,))
        (conv2): Conv1d(1.05 M, 3.561% Params, 100.71 MMac, 2.854% MACs, 2048, 512, kernel_size=(1,), stride=(1,))
        (norm1): LayerNorm(0, 0.000% Params, 0.0 Mac, 0.000% MACs, (512,), eps=1e-05, elementwise_affine=True)
        (norm2): LayerNorm(0, 0.000% Params, 0.0 Mac, 0.000% MACs, (512,), eps=1e-05, elementwise_affine=True)
        (dropout): Dropout(0, 0.000% Params, 0.0 Mac, 0.000% MACs, p=0.05, inplace=False)
      )
    )
    (norm): LayerNorm(0, 0.000% Params, 0.0 Mac, 0.000% MACs, (512,), eps=1e-05, elementwise_affine=True)
  )
  (decoder): Decoder(
    16.81 M, 57.058% Params, 2.32 GMac, 65.658% MACs, 
    (layers): ModuleList(
      16.8 M, 57.046% Params, 2.32 GMac, 65.644% MACs, 
      (0): DecoderLayer(
        4.2 M, 14.261% Params, 579.19 MMac, 16.411% MACs, 
        (self_attention): AttentionLayer(
          1.05 M, 3.567% Params, 151.0 MMac, 4.278% MACs, 
          (inner_attention): FullAttention(
            0, 0.000% Params, 0.0 Mac, 0.000% MACs, 
            (dropout): Dropout(0, 0.000% Params, 0.0 Mac, 0.000% MACs, p=0.05, inplace=False)
          )
          (query_projection): Linear(262.66 k, 0.892% Params, 37.75 MMac, 1.070% MACs, in_features=512, out_features=512, bias=True)
          (key_projection): Linear(262.66 k, 0.892% Params, 37.75 MMac, 1.070% MACs, in_features=512, out_features=512, bias=True)
          (value_projection): Linear(262.66 k, 0.892% Params, 37.75 MMac, 1.070% MACs, in_features=512, out_features=512, bias=True)
          (out_projection): Linear(262.66 k, 0.892% Params, 37.75 MMac, 1.070% MACs, in_features=512, out_features=512, bias=True)
        )
        (cross_attention): AttentionLayer(
          1.05 M, 3.567% Params, 125.83 MMac, 3.565% MACs, 
          (inner_attention): FullAttention(
            0, 0.000% Params, 0.0 Mac, 0.000% MACs, 
            (dropout): Dropout(0, 0.000% Params, 0.0 Mac, 0.000% MACs, p=0.05, inplace=False)
          )
          (query_projection): Linear(262.66 k, 0.892% Params, 37.75 MMac, 1.070% MACs, in_features=512, out_features=512, bias=True)
          (key_projection): Linear(262.66 k, 0.892% Params, 25.17 MMac, 0.713% MACs, in_features=512, out_features=512, bias=True)
          (value_projection): Linear(262.66 k, 0.892% Params, 25.17 MMac, 0.713% MACs, in_features=512, out_features=512, bias=True)
          (out_projection): Linear(262.66 k, 0.892% Params, 37.75 MMac, 1.070% MACs, in_features=512, out_features=512, bias=True)
        )
        (conv1): Conv1d(1.05 M, 3.567% Params, 151.29 MMac, 4.287% MACs, 512, 2048, kernel_size=(1,), stride=(1,))
        (conv2): Conv1d(1.05 M, 3.561% Params, 151.07 MMac, 4.280% MACs, 2048, 512, kernel_size=(1,), stride=(1,))
        (norm1): LayerNorm(0, 0.000% Params, 0.0 Mac, 0.000% MACs, (512,), eps=1e-05, elementwise_affine=True)
        (norm2): LayerNorm(0, 0.000% Params, 0.0 Mac, 0.000% MACs, (512,), eps=1e-05, elementwise_affine=True)
        (norm3): LayerNorm(0, 0.000% Params, 0.0 Mac, 0.000% MACs, (512,), eps=1e-05, elementwise_affine=True)
        (dropout): Dropout(0, 0.000% Params, 0.0 Mac, 0.000% MACs, p=0.05, inplace=False)
      )
      (1): DecoderLayer(
        4.2 M, 14.261% Params, 579.19 MMac, 16.411% MACs, 
        (self_attention): AttentionLayer(
          1.05 M, 3.567% Params, 151.0 MMac, 4.278% MACs, 
          (inner_attention): FullAttention(
            0, 0.000% Params, 0.0 Mac, 0.000% MACs, 
            (dropout): Dropout(0, 0.000% Params, 0.0 Mac, 0.000% MACs, p=0.05, inplace=False)
          )
          (query_projection): Linear(262.66 k, 0.892% Params, 37.75 MMac, 1.070% MACs, in_features=512, out_features=512, bias=True)
          (key_projection): Linear(262.66 k, 0.892% Params, 37.75 MMac, 1.070% MACs, in_features=512, out_features=512, bias=True)
          (value_projection): Linear(262.66 k, 0.892% Params, 37.75 MMac, 1.070% MACs, in_features=512, out_features=512, bias=True)
          (out_projection): Linear(262.66 k, 0.892% Params, 37.75 MMac, 1.070% MACs, in_features=512, out_features=512, bias=True)
        )
        (cross_attention): AttentionLayer(
          1.05 M, 3.567% Params, 125.83 MMac, 3.565% MACs, 
          (inner_attention): FullAttention(
            0, 0.000% Params, 0.0 Mac, 0.000% MACs, 
            (dropout): Dropout(0, 0.000% Params, 0.0 Mac, 0.000% MACs, p=0.05, inplace=False)
          )
          (query_projection): Linear(262.66 k, 0.892% Params, 37.75 MMac, 1.070% MACs, in_features=512, out_features=512, bias=True)
          (key_projection): Linear(262.66 k, 0.892% Params, 25.17 MMac, 0.713% MACs, in_features=512, out_features=512, bias=True)
          (value_projection): Linear(262.66 k, 0.892% Params, 25.17 MMac, 0.713% MACs, in_features=512, out_features=512, bias=True)
          (out_projection): Linear(262.66 k, 0.892% Params, 37.75 MMac, 1.070% MACs, in_features=512, out_features=512, bias=True)
        )
        (conv1): Conv1d(1.05 M, 3.567% Params, 151.29 MMac, 4.287% MACs, 512, 2048, kernel_size=(1,), stride=(1,))
        (conv2): Conv1d(1.05 M, 3.561% Params, 151.07 MMac, 4.280% MACs, 2048, 512, kernel_size=(1,), stride=(1,))
        (norm1): LayerNorm(0, 0.000% Params, 0.0 Mac, 0.000% MACs, (512,), eps=1e-05, elementwise_affine=True)
        (norm2): LayerNorm(0, 0.000% Params, 0.0 Mac, 0.000% MACs, (512,), eps=1e-05, elementwise_affine=True)
        (norm3): LayerNorm(0, 0.000% Params, 0.0 Mac, 0.000% MACs, (512,), eps=1e-05, elementwise_affine=True)
        (dropout): Dropout(0, 0.000% Params, 0.0 Mac, 0.000% MACs, p=0.05, inplace=False)
      )
      (2): DecoderLayer(
        4.2 M, 14.261% Params, 579.19 MMac, 16.411% MACs, 
        (self_attention): AttentionLayer(
          1.05 M, 3.567% Params, 151.0 MMac, 4.278% MACs, 
          (inner_attention): FullAttention(
            0, 0.000% Params, 0.0 Mac, 0.000% MACs, 
            (dropout): Dropout(0, 0.000% Params, 0.0 Mac, 0.000% MACs, p=0.05, inplace=False)
          )
          (query_projection): Linear(262.66 k, 0.892% Params, 37.75 MMac, 1.070% MACs, in_features=512, out_features=512, bias=True)
          (key_projection): Linear(262.66 k, 0.892% Params, 37.75 MMac, 1.070% MACs, in_features=512, out_features=512, bias=True)
          (value_projection): Linear(262.66 k, 0.892% Params, 37.75 MMac, 1.070% MACs, in_features=512, out_features=512, bias=True)
          (out_projection): Linear(262.66 k, 0.892% Params, 37.75 MMac, 1.070% MACs, in_features=512, out_features=512, bias=True)
        )
        (cross_attention): AttentionLayer(
          1.05 M, 3.567% Params, 125.83 MMac, 3.565% MACs, 
          (inner_attention): FullAttention(
            0, 0.000% Params, 0.0 Mac, 0.000% MACs, 
            (dropout): Dropout(0, 0.000% Params, 0.0 Mac, 0.000% MACs, p=0.05, inplace=False)
          )
          (query_projection): Linear(262.66 k, 0.892% Params, 37.75 MMac, 1.070% MACs, in_features=512, out_features=512, bias=True)
          (key_projection): Linear(262.66 k, 0.892% Params, 25.17 MMac, 0.713% MACs, in_features=512, out_features=512, bias=True)
          (value_projection): Linear(262.66 k, 0.892% Params, 25.17 MMac, 0.713% MACs, in_features=512, out_features=512, bias=True)
          (out_projection): Linear(262.66 k, 0.892% Params, 37.75 MMac, 1.070% MACs, in_features=512, out_features=512, bias=True)
        )
        (conv1): Conv1d(1.05 M, 3.567% Params, 151.29 MMac, 4.287% MACs, 512, 2048, kernel_size=(1,), stride=(1,))
        (conv2): Conv1d(1.05 M, 3.561% Params, 151.07 MMac, 4.280% MACs, 2048, 512, kernel_size=(1,), stride=(1,))
        (norm1): LayerNorm(0, 0.000% Params, 0.0 Mac, 0.000% MACs, (512,), eps=1e-05, elementwise_affine=True)
        (norm2): LayerNorm(0, 0.000% Params, 0.0 Mac, 0.000% MACs, (512,), eps=1e-05, elementwise_affine=True)
        (norm3): LayerNorm(0, 0.000% Params, 0.0 Mac, 0.000% MACs, (512,), eps=1e-05, elementwise_affine=True)
        (dropout): Dropout(0, 0.000% Params, 0.0 Mac, 0.000% MACs, p=0.05, inplace=False)
      )
      (3): DecoderLayer(
        4.2 M, 14.261% Params, 579.19 MMac, 16.411% MACs, 
        (self_attention): AttentionLayer(
          1.05 M, 3.567% Params, 151.0 MMac, 4.278% MACs, 
          (inner_attention): FullAttention(
            0, 0.000% Params, 0.0 Mac, 0.000% MACs, 
            (dropout): Dropout(0, 0.000% Params, 0.0 Mac, 0.000% MACs, p=0.05, inplace=False)
          )
          (query_projection): Linear(262.66 k, 0.892% Params, 37.75 MMac, 1.070% MACs, in_features=512, out_features=512, bias=True)
          (key_projection): Linear(262.66 k, 0.892% Params, 37.75 MMac, 1.070% MACs, in_features=512, out_features=512, bias=True)
          (value_projection): Linear(262.66 k, 0.892% Params, 37.75 MMac, 1.070% MACs, in_features=512, out_features=512, bias=True)
          (out_projection): Linear(262.66 k, 0.892% Params, 37.75 MMac, 1.070% MACs, in_features=512, out_features=512, bias=True)
        )
        (cross_attention): AttentionLayer(
          1.05 M, 3.567% Params, 125.83 MMac, 3.565% MACs, 
          (inner_attention): FullAttention(
            0, 0.000% Params, 0.0 Mac, 0.000% MACs, 
            (dropout): Dropout(0, 0.000% Params, 0.0 Mac, 0.000% MACs, p=0.05, inplace=False)
          )
          (query_projection): Linear(262.66 k, 0.892% Params, 37.75 MMac, 1.070% MACs, in_features=512, out_features=512, bias=True)
          (key_projection): Linear(262.66 k, 0.892% Params, 25.17 MMac, 0.713% MACs, in_features=512, out_features=512, bias=True)
          (value_projection): Linear(262.66 k, 0.892% Params, 25.17 MMac, 0.713% MACs, in_features=512, out_features=512, bias=True)
          (out_projection): Linear(262.66 k, 0.892% Params, 37.75 MMac, 1.070% MACs, in_features=512, out_features=512, bias=True)
        )
        (conv1): Conv1d(1.05 M, 3.567% Params, 151.29 MMac, 4.287% MACs, 512, 2048, kernel_size=(1,), stride=(1,))
        (conv2): Conv1d(1.05 M, 3.561% Params, 151.07 MMac, 4.280% MACs, 2048, 512, kernel_size=(1,), stride=(1,))
        (norm1): LayerNorm(0, 0.000% Params, 0.0 Mac, 0.000% MACs, (512,), eps=1e-05, elementwise_affine=True)
        (norm2): LayerNorm(0, 0.000% Params, 0.0 Mac, 0.000% MACs, (512,), eps=1e-05, elementwise_affine=True)
        (norm3): LayerNorm(0, 0.000% Params, 0.0 Mac, 0.000% MACs, (512,), eps=1e-05, elementwise_affine=True)
        (dropout): Dropout(0, 0.000% Params, 0.0 Mac, 0.000% MACs, p=0.05, inplace=False)
      )
    )
    (norm): LayerNorm(0, 0.000% Params, 0.0 Mac, 0.000% MACs, (512,), eps=1e-05, elementwise_affine=True)
    (projection): Linear(3.59 k, 0.012% Params, 516.1 KMac, 0.015% MACs, in_features=512, out_features=7, bias=True)
  )
)
Computational complexity:       3.53 GMac
Number of parameters:           29.46 M 
