…
INFO: Trainable parameter count: 14.65M
INFO: Trainable parameter count: 14.65M
INFO: Trainable parameter count: 14.65M
INFO: Trainable parameter count: 14.65M
INFO: Trainable parameter count: 14.65M
INFO: Trainable parameter count: 14.65M
INFO: Trainable parameter count: 14.65M
INFO: Trainable parameter count: 14.82M
INFO: Trainable parameter count: 14.82M
Model(
  14.81 M, 99.924% Params, 1.63 GMac, 100.000% MACs, 
  (enc_embedding): DataEmbedding(
    495.1 k, 3.341% Params, 47.53 MMac, 2.919% MACs, 
    (value_embedding): TokenEmbedding(
      493.06 k, 3.327% Params, 47.33 MMac, 2.907% MACs, 
      (tokenConv): Conv1d(493.06 k, 3.327% Params, 47.33 MMac, 2.907% MACs, 321, 512, kernel_size=(3,), stride=(1,), padding=(1,), bias=False, padding_mode=circular)
    )
    (position_embedding): PositionalEmbedding(0, 0.000% Params, 0.0 Mac, 0.000% MACs, )
    (temporal_embedding): TimeFeatureEmbedding(
      2.05 k, 0.014% Params, 196.61 KMac, 0.012% MACs, 
      (embed): Linear(2.05 k, 0.014% Params, 196.61 KMac, 0.012% MACs, in_features=4, out_features=512, bias=False)
    )
    (dropout): Dropout(0, 0.000% Params, 0.0 Mac, 0.000% MACs, p=0.05, inplace=False)
  )
  (dec_embedding): DataEmbedding(
    495.1 k, 3.341% Params, 71.29 MMac, 4.378% MACs, 
    (value_embedding): TokenEmbedding(
      493.06 k, 3.327% Params, 71.0 MMac, 4.360% MACs, 
      (tokenConv): Conv1d(493.06 k, 3.327% Params, 71.0 MMac, 4.360% MACs, 321, 512, kernel_size=(3,), stride=(1,), padding=(1,), bias=False, padding_mode=circular)
    )
    (position_embedding): PositionalEmbedding(0, 0.000% Params, 0.0 Mac, 0.000% MACs, )
    (temporal_embedding): TimeFeatureEmbedding(
      2.05 k, 0.014% Params, 294.91 KMac, 0.018% MACs, 
      (embed): Linear(2.05 k, 0.014% Params, 294.91 KMac, 0.018% MACs, in_features=4, out_features=512, bias=False)
    )
    (dropout): Dropout(0, 0.000% Params, 0.0 Mac, 0.000% MACs, p=0.05, inplace=False)
  )
  (encoder): Encoder(
    9.45 M, 63.780% Params, 906.71 MMac, 55.682% MACs, 
    (attn_layers): ModuleList(
      9.45 M, 63.780% Params, 906.71 MMac, 55.682% MACs, 
      (0): EncoderLayer(
        3.15 M, 21.260% Params, 302.24 MMac, 18.561% MACs, 
        (attention): AttentionLayer(
          1.05 M, 7.090% Params, 100.67 MMac, 6.182% MACs, 
          (inner_attention): FullAttention(
            0, 0.000% Params, 0.0 Mac, 0.000% MACs, 
            (dropout): Dropout(0, 0.000% Params, 0.0 Mac, 0.000% MACs, p=0.05, inplace=False)
          )
          (query_projection): Linear(262.66 k, 1.773% Params, 25.17 MMac, 1.545% MACs, in_features=512, out_features=512, bias=True)
          (key_projection): Linear(262.66 k, 1.773% Params, 25.17 MMac, 1.545% MACs, in_features=512, out_features=512, bias=True)
          (value_projection): Linear(262.66 k, 1.773% Params, 25.17 MMac, 1.545% MACs, in_features=512, out_features=512, bias=True)
          (out_projection): Linear(262.66 k, 1.773% Params, 25.17 MMac, 1.545% MACs, in_features=512, out_features=512, bias=True)
        )
        (conv1): Conv1d(1.05 M, 7.090% Params, 100.86 MMac, 6.194% MACs, 512, 2048, kernel_size=(1,), stride=(1,))
        (conv2): Conv1d(1.05 M, 7.080% Params, 100.71 MMac, 6.185% MACs, 2048, 512, kernel_size=(1,), stride=(1,))
        (norm1): LayerNorm(0, 0.000% Params, 0.0 Mac, 0.000% MACs, (512,), eps=1e-05, elementwise_affine=True)
        (norm2): LayerNorm(0, 0.000% Params, 0.0 Mac, 0.000% MACs, (512,), eps=1e-05, elementwise_affine=True)
        (dropout): Dropout(0, 0.000% Params, 0.0 Mac, 0.000% MACs, p=0.05, inplace=False)
      )
      (1): EncoderLayer(
        3.15 M, 21.260% Params, 302.24 MMac, 18.561% MACs, 
        (attention): AttentionLayer(
          1.05 M, 7.090% Params, 100.67 MMac, 6.182% MACs, 
          (inner_attention): FullAttention(
            0, 0.000% Params, 0.0 Mac, 0.000% MACs, 
            (dropout): Dropout(0, 0.000% Params, 0.0 Mac, 0.000% MACs, p=0.05, inplace=False)
          )
          (query_projection): Linear(262.66 k, 1.773% Params, 25.17 MMac, 1.545% MACs, in_features=512, out_features=512, bias=True)
          (key_projection): Linear(262.66 k, 1.773% Params, 25.17 MMac, 1.545% MACs, in_features=512, out_features=512, bias=True)
          (value_projection): Linear(262.66 k, 1.773% Params, 25.17 MMac, 1.545% MACs, in_features=512, out_features=512, bias=True)
          (out_projection): Linear(262.66 k, 1.773% Params, 25.17 MMac, 1.545% MACs, in_features=512, out_features=512, bias=True)
        )
        (conv1): Conv1d(1.05 M, 7.090% Params, 100.86 MMac, 6.194% MACs, 512, 2048, kernel_size=(1,), stride=(1,))
        (conv2): Conv1d(1.05 M, 7.080% Params, 100.71 MMac, 6.185% MACs, 2048, 512, kernel_size=(1,), stride=(1,))
        (norm1): LayerNorm(0, 0.000% Params, 0.0 Mac, 0.000% MACs, (512,), eps=1e-05, elementwise_affine=True)
        (norm2): LayerNorm(0, 0.000% Params, 0.0 Mac, 0.000% MACs, (512,), eps=1e-05, elementwise_affine=True)
        (dropout): Dropout(0, 0.000% Params, 0.0 Mac, 0.000% MACs, p=0.05, inplace=False)
      )
      (2): EncoderLayer(
        3.15 M, 21.260% Params, 302.24 MMac, 18.561% MACs, 
        (attention): AttentionLayer(
          1.05 M, 7.090% Params, 100.67 MMac, 6.182% MACs, 
          (inner_attention): FullAttention(
            0, 0.000% Params, 0.0 Mac, 0.000% MACs, 
            (dropout): Dropout(0, 0.000% Params, 0.0 Mac, 0.000% MACs, p=0.05, inplace=False)
          )
          (query_projection): Linear(262.66 k, 1.773% Params, 25.17 MMac, 1.545% MACs, in_features=512, out_features=512, bias=True)
          (key_projection): Linear(262.66 k, 1.773% Params, 25.17 MMac, 1.545% MACs, in_features=512, out_features=512, bias=True)
          (value_projection): Linear(262.66 k, 1.773% Params, 25.17 MMac, 1.545% MACs, in_features=512, out_features=512, bias=True)
          (out_projection): Linear(262.66 k, 1.773% Params, 25.17 MMac, 1.545% MACs, in_features=512, out_features=512, bias=True)
        )
        (conv1): Conv1d(1.05 M, 7.090% Params, 100.86 MMac, 6.194% MACs, 512, 2048, kernel_size=(1,), stride=(1,))
        (conv2): Conv1d(1.05 M, 7.080% Params, 100.71 MMac, 6.185% MACs, 2048, 512, kernel_size=(1,), stride=(1,))
        (norm1): LayerNorm(0, 0.000% Params, 0.0 Mac, 0.000% MACs, (512,), eps=1e-05, elementwise_affine=True)
        (norm2): LayerNorm(0, 0.000% Params, 0.0 Mac, 0.000% MACs, (512,), eps=1e-05, elementwise_affine=True)
        (dropout): Dropout(0, 0.000% Params, 0.0 Mac, 0.000% MACs, p=0.05, inplace=False)
      )
    )
    (norm): LayerNorm(0, 0.000% Params, 0.0 Mac, 0.000% MACs, (512,), eps=1e-05, elementwise_affine=True)
  )
  (decoder): Decoder(
    4.37 M, 29.461% Params, 602.85 MMac, 37.021% MACs, 
    (layers): ModuleList(
      4.2 M, 28.350% Params, 579.19 MMac, 35.568% MACs, 
      (0): DecoderLayer(
        4.2 M, 28.350% Params, 579.19 MMac, 35.568% MACs, 
        (self_attention): AttentionLayer(
          1.05 M, 7.090% Params, 151.0 MMac, 9.273% MACs, 
          (inner_attention): FullAttention(
            0, 0.000% Params, 0.0 Mac, 0.000% MACs, 
            (dropout): Dropout(0, 0.000% Params, 0.0 Mac, 0.000% MACs, p=0.05, inplace=False)
          )
          (query_projection): Linear(262.66 k, 1.773% Params, 37.75 MMac, 2.318% MACs, in_features=512, out_features=512, bias=True)
          (key_projection): Linear(262.66 k, 1.773% Params, 37.75 MMac, 2.318% MACs, in_features=512, out_features=512, bias=True)
          (value_projection): Linear(262.66 k, 1.773% Params, 37.75 MMac, 2.318% MACs, in_features=512, out_features=512, bias=True)
          (out_projection): Linear(262.66 k, 1.773% Params, 37.75 MMac, 2.318% MACs, in_features=512, out_features=512, bias=True)
        )
        (cross_attention): AttentionLayer(
          1.05 M, 7.090% Params, 125.83 MMac, 7.727% MACs, 
          (inner_attention): FullAttention(
            0, 0.000% Params, 0.0 Mac, 0.000% MACs, 
            (dropout): Dropout(0, 0.000% Params, 0.0 Mac, 0.000% MACs, p=0.05, inplace=False)
          )
          (query_projection): Linear(262.66 k, 1.773% Params, 37.75 MMac, 2.318% MACs, in_features=512, out_features=512, bias=True)
          (key_projection): Linear(262.66 k, 1.773% Params, 25.17 MMac, 1.545% MACs, in_features=512, out_features=512, bias=True)
          (value_projection): Linear(262.66 k, 1.773% Params, 25.17 MMac, 1.545% MACs, in_features=512, out_features=512, bias=True)
          (out_projection): Linear(262.66 k, 1.773% Params, 37.75 MMac, 2.318% MACs, in_features=512, out_features=512, bias=True)
        )
        (conv1): Conv1d(1.05 M, 7.090% Params, 151.29 MMac, 9.291% MACs, 512, 2048, kernel_size=(1,), stride=(1,))
        (conv2): Conv1d(1.05 M, 7.080% Params, 151.07 MMac, 9.277% MACs, 2048, 512, kernel_size=(1,), stride=(1,))
        (norm1): LayerNorm(0, 0.000% Params, 0.0 Mac, 0.000% MACs, (512,), eps=1e-05, elementwise_affine=True)
        (norm2): LayerNorm(0, 0.000% Params, 0.0 Mac, 0.000% MACs, (512,), eps=1e-05, elementwise_affine=True)
        (norm3): LayerNorm(0, 0.000% Params, 0.0 Mac, 0.000% MACs, (512,), eps=1e-05, elementwise_affine=True)
        (dropout): Dropout(0, 0.000% Params, 0.0 Mac, 0.000% MACs, p=0.05, inplace=False)
      )
    )
    (norm): LayerNorm(0, 0.000% Params, 0.0 Mac, 0.000% MACs, (512,), eps=1e-05, elementwise_affine=True)
    (projection): Linear(164.67 k, 1.111% Params, 23.67 MMac, 1.453% MACs, in_features=512, out_features=321, bias=True)
  )
)
Computational complexity:       1.63 GMac
Number of parameters:           14.82 M 
