…
INFO: Trainable parameter count: 22.01M
INFO: Trainable parameter count: 22.01M
INFO: Trainable parameter count: 22.01M
INFO: Trainable parameter count: 22.01M
INFO: Trainable parameter count: 22.01M
INFO: Trainable parameter count: 22.01M
INFO: Trainable parameter count: 22.01M
INFO: Trainable parameter count: 22.17M
INFO: Trainable parameter count: 22.17M
Model(
  22.16 M, 99.926% Params, 2.51 GMac, 100.000% MACs, 
  (enc_embedding): DataEmbedding(
    495.1 k, 2.233% Params, 47.53 MMac, 1.894% MACs, 
    (value_embedding): TokenEmbedding(
      493.06 k, 2.224% Params, 47.33 MMac, 1.886% MACs, 
      (tokenConv): Conv1d(493.06 k, 2.224% Params, 47.33 MMac, 1.886% MACs, 321, 512, kernel_size=(3,), stride=(1,), padding=(1,), bias=False, padding_mode=circular)
    )
    (position_embedding): PositionalEmbedding(0, 0.000% Params, 0.0 Mac, 0.000% MACs, )
    (temporal_embedding): TimeFeatureEmbedding(
      2.05 k, 0.009% Params, 196.61 KMac, 0.008% MACs, 
      (embed): Linear(2.05 k, 0.009% Params, 196.61 KMac, 0.008% MACs, in_features=4, out_features=512, bias=False)
    )
    (dropout): Dropout(0, 0.000% Params, 0.0 Mac, 0.000% MACs, p=0.05, inplace=False)
  )
  (dec_embedding): DataEmbedding(
    495.1 k, 2.233% Params, 71.29 MMac, 2.841% MACs, 
    (value_embedding): TokenEmbedding(
      493.06 k, 2.224% Params, 71.0 MMac, 2.829% MACs, 
      (tokenConv): Conv1d(493.06 k, 2.224% Params, 71.0 MMac, 2.829% MACs, 321, 512, kernel_size=(3,), stride=(1,), padding=(1,), bias=False, padding_mode=circular)
    )
    (position_embedding): PositionalEmbedding(0, 0.000% Params, 0.0 Mac, 0.000% MACs, )
    (temporal_embedding): TimeFeatureEmbedding(
      2.05 k, 0.009% Params, 294.91 KMac, 0.012% MACs, 
      (embed): Linear(2.05 k, 0.009% Params, 294.91 KMac, 0.012% MACs, in_features=4, out_features=512, bias=False)
    )
    (dropout): Dropout(0, 0.000% Params, 0.0 Mac, 0.000% MACs, p=0.05, inplace=False)
  )
  (encoder): Encoder(
    12.6 M, 56.828% Params, 1.21 GMac, 48.169% MACs, 
    (attn_layers): ModuleList(
      12.6 M, 56.828% Params, 1.21 GMac, 48.169% MACs, 
      (0): EncoderLayer(
        3.15 M, 14.207% Params, 302.24 MMac, 12.042% MACs, 
        (attention): AttentionLayer(
          1.05 M, 4.738% Params, 100.67 MMac, 4.011% MACs, 
          (inner_attention): FullAttention(
            0, 0.000% Params, 0.0 Mac, 0.000% MACs, 
            (dropout): Dropout(0, 0.000% Params, 0.0 Mac, 0.000% MACs, p=0.05, inplace=False)
          )
          (query_projection): Linear(262.66 k, 1.184% Params, 25.17 MMac, 1.003% MACs, in_features=512, out_features=512, bias=True)
          (key_projection): Linear(262.66 k, 1.184% Params, 25.17 MMac, 1.003% MACs, in_features=512, out_features=512, bias=True)
          (value_projection): Linear(262.66 k, 1.184% Params, 25.17 MMac, 1.003% MACs, in_features=512, out_features=512, bias=True)
          (out_projection): Linear(262.66 k, 1.184% Params, 25.17 MMac, 1.003% MACs, in_features=512, out_features=512, bias=True)
        )
        (conv1): Conv1d(1.05 M, 4.738% Params, 100.86 MMac, 4.019% MACs, 512, 2048, kernel_size=(1,), stride=(1,))
        (conv2): Conv1d(1.05 M, 4.731% Params, 100.71 MMac, 4.013% MACs, 2048, 512, kernel_size=(1,), stride=(1,))
        (norm1): LayerNorm(0, 0.000% Params, 0.0 Mac, 0.000% MACs, (512,), eps=1e-05, elementwise_affine=True)
        (norm2): LayerNorm(0, 0.000% Params, 0.0 Mac, 0.000% MACs, (512,), eps=1e-05, elementwise_affine=True)
        (dropout): Dropout(0, 0.000% Params, 0.0 Mac, 0.000% MACs, p=0.05, inplace=False)
      )
      (1): EncoderLayer(
        3.15 M, 14.207% Params, 302.24 MMac, 12.042% MACs, 
        (attention): AttentionLayer(
          1.05 M, 4.738% Params, 100.67 MMac, 4.011% MACs, 
          (inner_attention): FullAttention(
            0, 0.000% Params, 0.0 Mac, 0.000% MACs, 
            (dropout): Dropout(0, 0.000% Params, 0.0 Mac, 0.000% MACs, p=0.05, inplace=False)
          )
          (query_projection): Linear(262.66 k, 1.184% Params, 25.17 MMac, 1.003% MACs, in_features=512, out_features=512, bias=True)
          (key_projection): Linear(262.66 k, 1.184% Params, 25.17 MMac, 1.003% MACs, in_features=512, out_features=512, bias=True)
          (value_projection): Linear(262.66 k, 1.184% Params, 25.17 MMac, 1.003% MACs, in_features=512, out_features=512, bias=True)
          (out_projection): Linear(262.66 k, 1.184% Params, 25.17 MMac, 1.003% MACs, in_features=512, out_features=512, bias=True)
        )
        (conv1): Conv1d(1.05 M, 4.738% Params, 100.86 MMac, 4.019% MACs, 512, 2048, kernel_size=(1,), stride=(1,))
        (conv2): Conv1d(1.05 M, 4.731% Params, 100.71 MMac, 4.013% MACs, 2048, 512, kernel_size=(1,), stride=(1,))
        (norm1): LayerNorm(0, 0.000% Params, 0.0 Mac, 0.000% MACs, (512,), eps=1e-05, elementwise_affine=True)
        (norm2): LayerNorm(0, 0.000% Params, 0.0 Mac, 0.000% MACs, (512,), eps=1e-05, elementwise_affine=True)
        (dropout): Dropout(0, 0.000% Params, 0.0 Mac, 0.000% MACs, p=0.05, inplace=False)
      )
      (2): EncoderLayer(
        3.15 M, 14.207% Params, 302.24 MMac, 12.042% MACs, 
        (attention): AttentionLayer(
          1.05 M, 4.738% Params, 100.67 MMac, 4.011% MACs, 
          (inner_attention): FullAttention(
            0, 0.000% Params, 0.0 Mac, 0.000% MACs, 
            (dropout): Dropout(0, 0.000% Params, 0.0 Mac, 0.000% MACs, p=0.05, inplace=False)
          )
          (query_projection): Linear(262.66 k, 1.184% Params, 25.17 MMac, 1.003% MACs, in_features=512, out_features=512, bias=True)
          (key_projection): Linear(262.66 k, 1.184% Params, 25.17 MMac, 1.003% MACs, in_features=512, out_features=512, bias=True)
          (value_projection): Linear(262.66 k, 1.184% Params, 25.17 MMac, 1.003% MACs, in_features=512, out_features=512, bias=True)
          (out_projection): Linear(262.66 k, 1.184% Params, 25.17 MMac, 1.003% MACs, in_features=512, out_features=512, bias=True)
        )
        (conv1): Conv1d(1.05 M, 4.738% Params, 100.86 MMac, 4.019% MACs, 512, 2048, kernel_size=(1,), stride=(1,))
        (conv2): Conv1d(1.05 M, 4.731% Params, 100.71 MMac, 4.013% MACs, 2048, 512, kernel_size=(1,), stride=(1,))
        (norm1): LayerNorm(0, 0.000% Params, 0.0 Mac, 0.000% MACs, (512,), eps=1e-05, elementwise_affine=True)
        (norm2): LayerNorm(0, 0.000% Params, 0.0 Mac, 0.000% MACs, (512,), eps=1e-05, elementwise_affine=True)
        (dropout): Dropout(0, 0.000% Params, 0.0 Mac, 0.000% MACs, p=0.05, inplace=False)
      )
      (3): EncoderLayer(
        3.15 M, 14.207% Params, 302.24 MMac, 12.042% MACs, 
        (attention): AttentionLayer(
          1.05 M, 4.738% Params, 100.67 MMac, 4.011% MACs, 
          (inner_attention): FullAttention(
            0, 0.000% Params, 0.0 Mac, 0.000% MACs, 
            (dropout): Dropout(0, 0.000% Params, 0.0 Mac, 0.000% MACs, p=0.05, inplace=False)
          )
          (query_projection): Linear(262.66 k, 1.184% Params, 25.17 MMac, 1.003% MACs, in_features=512, out_features=512, bias=True)
          (key_projection): Linear(262.66 k, 1.184% Params, 25.17 MMac, 1.003% MACs, in_features=512, out_features=512, bias=True)
          (value_projection): Linear(262.66 k, 1.184% Params, 25.17 MMac, 1.003% MACs, in_features=512, out_features=512, bias=True)
          (out_projection): Linear(262.66 k, 1.184% Params, 25.17 MMac, 1.003% MACs, in_features=512, out_features=512, bias=True)
        )
        (conv1): Conv1d(1.05 M, 4.738% Params, 100.86 MMac, 4.019% MACs, 512, 2048, kernel_size=(1,), stride=(1,))
        (conv2): Conv1d(1.05 M, 4.731% Params, 100.71 MMac, 4.013% MACs, 2048, 512, kernel_size=(1,), stride=(1,))
        (norm1): LayerNorm(0, 0.000% Params, 0.0 Mac, 0.000% MACs, (512,), eps=1e-05, elementwise_affine=True)
        (norm2): LayerNorm(0, 0.000% Params, 0.0 Mac, 0.000% MACs, (512,), eps=1e-05, elementwise_affine=True)
        (dropout): Dropout(0, 0.000% Params, 0.0 Mac, 0.000% MACs, p=0.05, inplace=False)
      )
    )
    (norm): LayerNorm(0, 0.000% Params, 0.0 Mac, 0.000% MACs, (512,), eps=1e-05, elementwise_affine=True)
  )
  (decoder): Decoder(
    8.57 M, 38.633% Params, 1.18 GMac, 47.097% MACs, 
    (layers): ModuleList(
      8.4 M, 37.890% Params, 1.16 GMac, 46.154% MACs, 
      (0): DecoderLayer(
        4.2 M, 18.945% Params, 579.19 MMac, 23.077% MACs, 
        (self_attention): AttentionLayer(
          1.05 M, 4.738% Params, 151.0 MMac, 6.016% MACs, 
          (inner_attention): FullAttention(
            0, 0.000% Params, 0.0 Mac, 0.000% MACs, 
            (dropout): Dropout(0, 0.000% Params, 0.0 Mac, 0.000% MACs, p=0.05, inplace=False)
          )
          (query_projection): Linear(262.66 k, 1.184% Params, 37.75 MMac, 1.504% MACs, in_features=512, out_features=512, bias=True)
          (key_projection): Linear(262.66 k, 1.184% Params, 37.75 MMac, 1.504% MACs, in_features=512, out_features=512, bias=True)
          (value_projection): Linear(262.66 k, 1.184% Params, 37.75 MMac, 1.504% MACs, in_features=512, out_features=512, bias=True)
          (out_projection): Linear(262.66 k, 1.184% Params, 37.75 MMac, 1.504% MACs, in_features=512, out_features=512, bias=True)
        )
        (cross_attention): AttentionLayer(
          1.05 M, 4.738% Params, 125.83 MMac, 5.014% MACs, 
          (inner_attention): FullAttention(
            0, 0.000% Params, 0.0 Mac, 0.000% MACs, 
            (dropout): Dropout(0, 0.000% Params, 0.0 Mac, 0.000% MACs, p=0.05, inplace=False)
          )
          (query_projection): Linear(262.66 k, 1.184% Params, 37.75 MMac, 1.504% MACs, in_features=512, out_features=512, bias=True)
          (key_projection): Linear(262.66 k, 1.184% Params, 25.17 MMac, 1.003% MACs, in_features=512, out_features=512, bias=True)
          (value_projection): Linear(262.66 k, 1.184% Params, 25.17 MMac, 1.003% MACs, in_features=512, out_features=512, bias=True)
          (out_projection): Linear(262.66 k, 1.184% Params, 37.75 MMac, 1.504% MACs, in_features=512, out_features=512, bias=True)
        )
        (conv1): Conv1d(1.05 M, 4.738% Params, 151.29 MMac, 6.028% MACs, 512, 2048, kernel_size=(1,), stride=(1,))
        (conv2): Conv1d(1.05 M, 4.731% Params, 151.07 MMac, 6.019% MACs, 2048, 512, kernel_size=(1,), stride=(1,))
        (norm1): LayerNorm(0, 0.000% Params, 0.0 Mac, 0.000% MACs, (512,), eps=1e-05, elementwise_affine=True)
        (norm2): LayerNorm(0, 0.000% Params, 0.0 Mac, 0.000% MACs, (512,), eps=1e-05, elementwise_affine=True)
        (norm3): LayerNorm(0, 0.000% Params, 0.0 Mac, 0.000% MACs, (512,), eps=1e-05, elementwise_affine=True)
        (dropout): Dropout(0, 0.000% Params, 0.0 Mac, 0.000% MACs, p=0.05, inplace=False)
      )
      (1): DecoderLayer(
        4.2 M, 18.945% Params, 579.19 MMac, 23.077% MACs, 
        (self_attention): AttentionLayer(
          1.05 M, 4.738% Params, 151.0 MMac, 6.016% MACs, 
          (inner_attention): FullAttention(
            0, 0.000% Params, 0.0 Mac, 0.000% MACs, 
            (dropout): Dropout(0, 0.000% Params, 0.0 Mac, 0.000% MACs, p=0.05, inplace=False)
          )
          (query_projection): Linear(262.66 k, 1.184% Params, 37.75 MMac, 1.504% MACs, in_features=512, out_features=512, bias=True)
          (key_projection): Linear(262.66 k, 1.184% Params, 37.75 MMac, 1.504% MACs, in_features=512, out_features=512, bias=True)
          (value_projection): Linear(262.66 k, 1.184% Params, 37.75 MMac, 1.504% MACs, in_features=512, out_features=512, bias=True)
          (out_projection): Linear(262.66 k, 1.184% Params, 37.75 MMac, 1.504% MACs, in_features=512, out_features=512, bias=True)
        )
        (cross_attention): AttentionLayer(
          1.05 M, 4.738% Params, 125.83 MMac, 5.014% MACs, 
          (inner_attention): FullAttention(
            0, 0.000% Params, 0.0 Mac, 0.000% MACs, 
            (dropout): Dropout(0, 0.000% Params, 0.0 Mac, 0.000% MACs, p=0.05, inplace=False)
          )
          (query_projection): Linear(262.66 k, 1.184% Params, 37.75 MMac, 1.504% MACs, in_features=512, out_features=512, bias=True)
          (key_projection): Linear(262.66 k, 1.184% Params, 25.17 MMac, 1.003% MACs, in_features=512, out_features=512, bias=True)
          (value_projection): Linear(262.66 k, 1.184% Params, 25.17 MMac, 1.003% MACs, in_features=512, out_features=512, bias=True)
          (out_projection): Linear(262.66 k, 1.184% Params, 37.75 MMac, 1.504% MACs, in_features=512, out_features=512, bias=True)
        )
        (conv1): Conv1d(1.05 M, 4.738% Params, 151.29 MMac, 6.028% MACs, 512, 2048, kernel_size=(1,), stride=(1,))
        (conv2): Conv1d(1.05 M, 4.731% Params, 151.07 MMac, 6.019% MACs, 2048, 512, kernel_size=(1,), stride=(1,))
        (norm1): LayerNorm(0, 0.000% Params, 0.0 Mac, 0.000% MACs, (512,), eps=1e-05, elementwise_affine=True)
        (norm2): LayerNorm(0, 0.000% Params, 0.0 Mac, 0.000% MACs, (512,), eps=1e-05, elementwise_affine=True)
        (norm3): LayerNorm(0, 0.000% Params, 0.0 Mac, 0.000% MACs, (512,), eps=1e-05, elementwise_affine=True)
        (dropout): Dropout(0, 0.000% Params, 0.0 Mac, 0.000% MACs, p=0.05, inplace=False)
      )
    )
    (norm): LayerNorm(0, 0.000% Params, 0.0 Mac, 0.000% MACs, (512,), eps=1e-05, elementwise_affine=True)
    (projection): Linear(164.67 k, 0.743% Params, 23.67 MMac, 0.943% MACs, in_features=512, out_features=321, bias=True)
  )
)
Computational complexity:       2.51 GMac
Number of parameters:           22.17 M 
