…
INFO: Trainable parameter count: 18.94M
INFO: Trainable parameter count: 18.94M
INFO: Trainable parameter count: 18.94M
INFO: Trainable parameter count: 18.94M
INFO: Trainable parameter count: 18.94M
INFO: Trainable parameter count: 18.94M
INFO: Trainable parameter count: 18.94M
INFO: Trainable parameter count: 18.95M
INFO: Trainable parameter count: 18.95M
Model(
  18.93 M, 99.919% Params, 2.35 GMac, 100.000% MACs, 
  (enc_embedding): DataEmbedding(
    12.8 k, 0.068% Params, 1.23 MMac, 0.052% MACs, 
    (value_embedding): TokenEmbedding(
      10.75 k, 0.057% Params, 1.03 MMac, 0.044% MACs, 
      (tokenConv): Conv1d(10.75 k, 0.057% Params, 1.03 MMac, 0.044% MACs, 7, 512, kernel_size=(3,), stride=(1,), padding=(1,), bias=False, padding_mode=circular)
    )
    (position_embedding): PositionalEmbedding(0, 0.000% Params, 0.0 Mac, 0.000% MACs, )
    (temporal_embedding): TimeFeatureEmbedding(
      2.05 k, 0.011% Params, 196.61 KMac, 0.008% MACs, 
      (embed): Linear(2.05 k, 0.011% Params, 196.61 KMac, 0.008% MACs, in_features=4, out_features=512, bias=False)
    )
    (dropout): Dropout(0, 0.000% Params, 0.0 Mac, 0.000% MACs, p=0.05, inplace=False)
  )
  (dec_embedding): DataEmbedding(
    12.8 k, 0.068% Params, 1.84 MMac, 0.079% MACs, 
    (value_embedding): TokenEmbedding(
      10.75 k, 0.057% Params, 1.55 MMac, 0.066% MACs, 
      (tokenConv): Conv1d(10.75 k, 0.057% Params, 1.55 MMac, 0.066% MACs, 7, 512, kernel_size=(3,), stride=(1,), padding=(1,), bias=False, padding_mode=circular)
    )
    (position_embedding): PositionalEmbedding(0, 0.000% Params, 0.0 Mac, 0.000% MACs, )
    (temporal_embedding): TimeFeatureEmbedding(
      2.05 k, 0.011% Params, 294.91 KMac, 0.013% MACs, 
      (embed): Linear(2.05 k, 0.011% Params, 294.91 KMac, 0.013% MACs, in_features=4, out_features=512, bias=False)
    )
    (dropout): Dropout(0, 0.000% Params, 0.0 Mac, 0.000% MACs, p=0.05, inplace=False)
  )
  (encoder): Encoder(
    6.3 M, 33.252% Params, 604.48 MMac, 25.770% MACs, 
    (attn_layers): ModuleList(
      6.3 M, 33.252% Params, 604.48 MMac, 25.770% MACs, 
      (0): EncoderLayer(
        3.15 M, 16.626% Params, 302.24 MMac, 12.885% MACs, 
        (attention): AttentionLayer(
          1.05 M, 5.545% Params, 100.67 MMac, 4.292% MACs, 
          (inner_attention): FullAttention(
            0, 0.000% Params, 0.0 Mac, 0.000% MACs, 
            (dropout): Dropout(0, 0.000% Params, 0.0 Mac, 0.000% MACs, p=0.05, inplace=False)
          )
          (query_projection): Linear(262.66 k, 1.386% Params, 25.17 MMac, 1.073% MACs, in_features=512, out_features=512, bias=True)
          (key_projection): Linear(262.66 k, 1.386% Params, 25.17 MMac, 1.073% MACs, in_features=512, out_features=512, bias=True)
          (value_projection): Linear(262.66 k, 1.386% Params, 25.17 MMac, 1.073% MACs, in_features=512, out_features=512, bias=True)
          (out_projection): Linear(262.66 k, 1.386% Params, 25.17 MMac, 1.073% MACs, in_features=512, out_features=512, bias=True)
        )
        (conv1): Conv1d(1.05 M, 5.545% Params, 100.86 MMac, 4.300% MACs, 512, 2048, kernel_size=(1,), stride=(1,))
        (conv2): Conv1d(1.05 M, 5.537% Params, 100.71 MMac, 4.294% MACs, 2048, 512, kernel_size=(1,), stride=(1,))
        (norm1): LayerNorm(0, 0.000% Params, 0.0 Mac, 0.000% MACs, (512,), eps=1e-05, elementwise_affine=True)
        (norm2): LayerNorm(0, 0.000% Params, 0.0 Mac, 0.000% MACs, (512,), eps=1e-05, elementwise_affine=True)
        (dropout): Dropout(0, 0.000% Params, 0.0 Mac, 0.000% MACs, p=0.05, inplace=False)
      )
      (1): EncoderLayer(
        3.15 M, 16.626% Params, 302.24 MMac, 12.885% MACs, 
        (attention): AttentionLayer(
          1.05 M, 5.545% Params, 100.67 MMac, 4.292% MACs, 
          (inner_attention): FullAttention(
            0, 0.000% Params, 0.0 Mac, 0.000% MACs, 
            (dropout): Dropout(0, 0.000% Params, 0.0 Mac, 0.000% MACs, p=0.05, inplace=False)
          )
          (query_projection): Linear(262.66 k, 1.386% Params, 25.17 MMac, 1.073% MACs, in_features=512, out_features=512, bias=True)
          (key_projection): Linear(262.66 k, 1.386% Params, 25.17 MMac, 1.073% MACs, in_features=512, out_features=512, bias=True)
          (value_projection): Linear(262.66 k, 1.386% Params, 25.17 MMac, 1.073% MACs, in_features=512, out_features=512, bias=True)
          (out_projection): Linear(262.66 k, 1.386% Params, 25.17 MMac, 1.073% MACs, in_features=512, out_features=512, bias=True)
        )
        (conv1): Conv1d(1.05 M, 5.545% Params, 100.86 MMac, 4.300% MACs, 512, 2048, kernel_size=(1,), stride=(1,))
        (conv2): Conv1d(1.05 M, 5.537% Params, 100.71 MMac, 4.294% MACs, 2048, 512, kernel_size=(1,), stride=(1,))
        (norm1): LayerNorm(0, 0.000% Params, 0.0 Mac, 0.000% MACs, (512,), eps=1e-05, elementwise_affine=True)
        (norm2): LayerNorm(0, 0.000% Params, 0.0 Mac, 0.000% MACs, (512,), eps=1e-05, elementwise_affine=True)
        (dropout): Dropout(0, 0.000% Params, 0.0 Mac, 0.000% MACs, p=0.05, inplace=False)
      )
    )
    (norm): LayerNorm(0, 0.000% Params, 0.0 Mac, 0.000% MACs, (512,), eps=1e-05, elementwise_affine=True)
  )
  (decoder): Decoder(
    12.61 M, 66.532% Params, 1.74 GMac, 74.099% MACs, 
    (layers): ModuleList(
      12.6 M, 66.513% Params, 1.74 GMac, 74.077% MACs, 
      (0): DecoderLayer(
        4.2 M, 22.171% Params, 579.19 MMac, 24.692% MACs, 
        (self_attention): AttentionLayer(
          1.05 M, 5.545% Params, 151.0 MMac, 6.437% MACs, 
          (inner_attention): FullAttention(
            0, 0.000% Params, 0.0 Mac, 0.000% MACs, 
            (dropout): Dropout(0, 0.000% Params, 0.0 Mac, 0.000% MACs, p=0.05, inplace=False)
          )
          (query_projection): Linear(262.66 k, 1.386% Params, 37.75 MMac, 1.609% MACs, in_features=512, out_features=512, bias=True)
          (key_projection): Linear(262.66 k, 1.386% Params, 37.75 MMac, 1.609% MACs, in_features=512, out_features=512, bias=True)
          (value_projection): Linear(262.66 k, 1.386% Params, 37.75 MMac, 1.609% MACs, in_features=512, out_features=512, bias=True)
          (out_projection): Linear(262.66 k, 1.386% Params, 37.75 MMac, 1.609% MACs, in_features=512, out_features=512, bias=True)
        )
        (cross_attention): AttentionLayer(
          1.05 M, 5.545% Params, 125.83 MMac, 5.365% MACs, 
          (inner_attention): FullAttention(
            0, 0.000% Params, 0.0 Mac, 0.000% MACs, 
            (dropout): Dropout(0, 0.000% Params, 0.0 Mac, 0.000% MACs, p=0.05, inplace=False)
          )
          (query_projection): Linear(262.66 k, 1.386% Params, 37.75 MMac, 1.609% MACs, in_features=512, out_features=512, bias=True)
          (key_projection): Linear(262.66 k, 1.386% Params, 25.17 MMac, 1.073% MACs, in_features=512, out_features=512, bias=True)
          (value_projection): Linear(262.66 k, 1.386% Params, 25.17 MMac, 1.073% MACs, in_features=512, out_features=512, bias=True)
          (out_projection): Linear(262.66 k, 1.386% Params, 37.75 MMac, 1.609% MACs, in_features=512, out_features=512, bias=True)
        )
        (conv1): Conv1d(1.05 M, 5.545% Params, 151.29 MMac, 6.450% MACs, 512, 2048, kernel_size=(1,), stride=(1,))
        (conv2): Conv1d(1.05 M, 5.537% Params, 151.07 MMac, 6.440% MACs, 2048, 512, kernel_size=(1,), stride=(1,))
        (norm1): LayerNorm(0, 0.000% Params, 0.0 Mac, 0.000% MACs, (512,), eps=1e-05, elementwise_affine=True)
        (norm2): LayerNorm(0, 0.000% Params, 0.0 Mac, 0.000% MACs, (512,), eps=1e-05, elementwise_affine=True)
        (norm3): LayerNorm(0, 0.000% Params, 0.0 Mac, 0.000% MACs, (512,), eps=1e-05, elementwise_affine=True)
        (dropout): Dropout(0, 0.000% Params, 0.0 Mac, 0.000% MACs, p=0.05, inplace=False)
      )
      (1): DecoderLayer(
        4.2 M, 22.171% Params, 579.19 MMac, 24.692% MACs, 
        (self_attention): AttentionLayer(
          1.05 M, 5.545% Params, 151.0 MMac, 6.437% MACs, 
          (inner_attention): FullAttention(
            0, 0.000% Params, 0.0 Mac, 0.000% MACs, 
            (dropout): Dropout(0, 0.000% Params, 0.0 Mac, 0.000% MACs, p=0.05, inplace=False)
          )
          (query_projection): Linear(262.66 k, 1.386% Params, 37.75 MMac, 1.609% MACs, in_features=512, out_features=512, bias=True)
          (key_projection): Linear(262.66 k, 1.386% Params, 37.75 MMac, 1.609% MACs, in_features=512, out_features=512, bias=True)
          (value_projection): Linear(262.66 k, 1.386% Params, 37.75 MMac, 1.609% MACs, in_features=512, out_features=512, bias=True)
          (out_projection): Linear(262.66 k, 1.386% Params, 37.75 MMac, 1.609% MACs, in_features=512, out_features=512, bias=True)
        )
        (cross_attention): AttentionLayer(
          1.05 M, 5.545% Params, 125.83 MMac, 5.365% MACs, 
          (inner_attention): FullAttention(
            0, 0.000% Params, 0.0 Mac, 0.000% MACs, 
            (dropout): Dropout(0, 0.000% Params, 0.0 Mac, 0.000% MACs, p=0.05, inplace=False)
          )
          (query_projection): Linear(262.66 k, 1.386% Params, 37.75 MMac, 1.609% MACs, in_features=512, out_features=512, bias=True)
          (key_projection): Linear(262.66 k, 1.386% Params, 25.17 MMac, 1.073% MACs, in_features=512, out_features=512, bias=True)
          (value_projection): Linear(262.66 k, 1.386% Params, 25.17 MMac, 1.073% MACs, in_features=512, out_features=512, bias=True)
          (out_projection): Linear(262.66 k, 1.386% Params, 37.75 MMac, 1.609% MACs, in_features=512, out_features=512, bias=True)
        )
        (conv1): Conv1d(1.05 M, 5.545% Params, 151.29 MMac, 6.450% MACs, 512, 2048, kernel_size=(1,), stride=(1,))
        (conv2): Conv1d(1.05 M, 5.537% Params, 151.07 MMac, 6.440% MACs, 2048, 512, kernel_size=(1,), stride=(1,))
        (norm1): LayerNorm(0, 0.000% Params, 0.0 Mac, 0.000% MACs, (512,), eps=1e-05, elementwise_affine=True)
        (norm2): LayerNorm(0, 0.000% Params, 0.0 Mac, 0.000% MACs, (512,), eps=1e-05, elementwise_affine=True)
        (norm3): LayerNorm(0, 0.000% Params, 0.0 Mac, 0.000% MACs, (512,), eps=1e-05, elementwise_affine=True)
        (dropout): Dropout(0, 0.000% Params, 0.0 Mac, 0.000% MACs, p=0.05, inplace=False)
      )
      (2): DecoderLayer(
        4.2 M, 22.171% Params, 579.19 MMac, 24.692% MACs, 
        (self_attention): AttentionLayer(
          1.05 M, 5.545% Params, 151.0 MMac, 6.437% MACs, 
          (inner_attention): FullAttention(
            0, 0.000% Params, 0.0 Mac, 0.000% MACs, 
            (dropout): Dropout(0, 0.000% Params, 0.0 Mac, 0.000% MACs, p=0.05, inplace=False)
          )
          (query_projection): Linear(262.66 k, 1.386% Params, 37.75 MMac, 1.609% MACs, in_features=512, out_features=512, bias=True)
          (key_projection): Linear(262.66 k, 1.386% Params, 37.75 MMac, 1.609% MACs, in_features=512, out_features=512, bias=True)
          (value_projection): Linear(262.66 k, 1.386% Params, 37.75 MMac, 1.609% MACs, in_features=512, out_features=512, bias=True)
          (out_projection): Linear(262.66 k, 1.386% Params, 37.75 MMac, 1.609% MACs, in_features=512, out_features=512, bias=True)
        )
        (cross_attention): AttentionLayer(
          1.05 M, 5.545% Params, 125.83 MMac, 5.365% MACs, 
          (inner_attention): FullAttention(
            0, 0.000% Params, 0.0 Mac, 0.000% MACs, 
            (dropout): Dropout(0, 0.000% Params, 0.0 Mac, 0.000% MACs, p=0.05, inplace=False)
          )
          (query_projection): Linear(262.66 k, 1.386% Params, 37.75 MMac, 1.609% MACs, in_features=512, out_features=512, bias=True)
          (key_projection): Linear(262.66 k, 1.386% Params, 25.17 MMac, 1.073% MACs, in_features=512, out_features=512, bias=True)
          (value_projection): Linear(262.66 k, 1.386% Params, 25.17 MMac, 1.073% MACs, in_features=512, out_features=512, bias=True)
          (out_projection): Linear(262.66 k, 1.386% Params, 37.75 MMac, 1.609% MACs, in_features=512, out_features=512, bias=True)
        )
        (conv1): Conv1d(1.05 M, 5.545% Params, 151.29 MMac, 6.450% MACs, 512, 2048, kernel_size=(1,), stride=(1,))
        (conv2): Conv1d(1.05 M, 5.537% Params, 151.07 MMac, 6.440% MACs, 2048, 512, kernel_size=(1,), stride=(1,))
        (norm1): LayerNorm(0, 0.000% Params, 0.0 Mac, 0.000% MACs, (512,), eps=1e-05, elementwise_affine=True)
        (norm2): LayerNorm(0, 0.000% Params, 0.0 Mac, 0.000% MACs, (512,), eps=1e-05, elementwise_affine=True)
        (norm3): LayerNorm(0, 0.000% Params, 0.0 Mac, 0.000% MACs, (512,), eps=1e-05, elementwise_affine=True)
        (dropout): Dropout(0, 0.000% Params, 0.0 Mac, 0.000% MACs, p=0.05, inplace=False)
      )
    )
    (norm): LayerNorm(0, 0.000% Params, 0.0 Mac, 0.000% MACs, (512,), eps=1e-05, elementwise_affine=True)
    (projection): Linear(3.59 k, 0.019% Params, 516.1 KMac, 0.022% MACs, in_features=512, out_features=7, bias=True)
  )
)
Computational complexity:       2.35 GMac
Number of parameters:           18.95 M 
