…
INFO: Trainable parameter count: 8.35M
INFO: Trainable parameter count: 8.35M
INFO: Trainable parameter count: 8.35M
INFO: Trainable parameter count: 8.35M
INFO: Trainable parameter count: 8.35M
INFO: Trainable parameter count: 8.35M
INFO: Trainable parameter count: 8.35M
INFO: Trainable parameter count: 8.51M
INFO: Trainable parameter count: 8.51M
Model(
  8.51 M, 99.916% Params, 1.02 GMac, 100.000% MACs, 
  (enc_embedding): DataEmbedding(
    495.1 k, 5.816% Params, 47.53 MMac, 4.642% MACs, 
    (value_embedding): TokenEmbedding(
      493.06 k, 5.792% Params, 47.33 MMac, 4.623% MACs, 
      (tokenConv): Conv1d(493.06 k, 5.792% Params, 47.33 MMac, 4.623% MACs, 321, 512, kernel_size=(3,), stride=(1,), padding=(1,), bias=False, padding_mode=circular)
    )
    (position_embedding): PositionalEmbedding(0, 0.000% Params, 0.0 Mac, 0.000% MACs, )
    (temporal_embedding): TimeFeatureEmbedding(
      2.05 k, 0.024% Params, 196.61 KMac, 0.019% MACs, 
      (embed): Linear(2.05 k, 0.024% Params, 196.61 KMac, 0.019% MACs, in_features=4, out_features=512, bias=False)
    )
    (dropout): Dropout(0, 0.000% Params, 0.0 Mac, 0.000% MACs, p=0.05, inplace=False)
  )
  (dec_embedding): DataEmbedding(
    495.1 k, 5.816% Params, 71.29 MMac, 6.963% MACs, 
    (value_embedding): TokenEmbedding(
      493.06 k, 5.792% Params, 71.0 MMac, 6.934% MACs, 
      (tokenConv): Conv1d(493.06 k, 5.792% Params, 71.0 MMac, 6.934% MACs, 321, 512, kernel_size=(3,), stride=(1,), padding=(1,), bias=False, padding_mode=circular)
    )
    (position_embedding): PositionalEmbedding(0, 0.000% Params, 0.0 Mac, 0.000% MACs, )
    (temporal_embedding): TimeFeatureEmbedding(
      2.05 k, 0.024% Params, 294.91 KMac, 0.029% MACs, 
      (embed): Linear(2.05 k, 0.024% Params, 294.91 KMac, 0.029% MACs, in_features=4, out_features=512, bias=False)
    )
    (dropout): Dropout(0, 0.000% Params, 0.0 Mac, 0.000% MACs, p=0.05, inplace=False)
  )
  (encoder): Encoder(
    3.15 M, 37.005% Params, 302.24 MMac, 29.518% MACs, 
    (attn_layers): ModuleList(
      3.15 M, 37.005% Params, 302.24 MMac, 29.518% MACs, 
      (0): EncoderLayer(
        3.15 M, 37.005% Params, 302.24 MMac, 29.518% MACs, 
        (attention): AttentionLayer(
          1.05 M, 12.341% Params, 100.67 MMac, 9.831% MACs, 
          (inner_attention): FullAttention(
            0, 0.000% Params, 0.0 Mac, 0.000% MACs, 
            (dropout): Dropout(0, 0.000% Params, 0.0 Mac, 0.000% MACs, p=0.05, inplace=False)
          )
          (query_projection): Linear(262.66 k, 3.085% Params, 25.17 MMac, 2.458% MACs, in_features=512, out_features=512, bias=True)
          (key_projection): Linear(262.66 k, 3.085% Params, 25.17 MMac, 2.458% MACs, in_features=512, out_features=512, bias=True)
          (value_projection): Linear(262.66 k, 3.085% Params, 25.17 MMac, 2.458% MACs, in_features=512, out_features=512, bias=True)
          (out_projection): Linear(262.66 k, 3.085% Params, 25.17 MMac, 2.458% MACs, in_features=512, out_features=512, bias=True)
        )
        (conv1): Conv1d(1.05 M, 12.341% Params, 100.86 MMac, 9.850% MACs, 512, 2048, kernel_size=(1,), stride=(1,))
        (conv2): Conv1d(1.05 M, 12.323% Params, 100.71 MMac, 9.836% MACs, 2048, 512, kernel_size=(1,), stride=(1,))
        (norm1): LayerNorm(0, 0.000% Params, 0.0 Mac, 0.000% MACs, (512,), eps=1e-05, elementwise_affine=True)
        (norm2): LayerNorm(0, 0.000% Params, 0.0 Mac, 0.000% MACs, (512,), eps=1e-05, elementwise_affine=True)
        (dropout): Dropout(0, 0.000% Params, 0.0 Mac, 0.000% MACs, p=0.05, inplace=False)
      )
    )
    (norm): LayerNorm(0, 0.000% Params, 0.0 Mac, 0.000% MACs, (512,), eps=1e-05, elementwise_affine=True)
  )
  (decoder): Decoder(
    4.37 M, 51.280% Params, 602.85 MMac, 58.877% MACs, 
    (layers): ModuleList(
      4.2 M, 49.346% Params, 579.19 MMac, 56.566% MACs, 
      (0): DecoderLayer(
        4.2 M, 49.346% Params, 579.19 MMac, 56.566% MACs, 
        (self_attention): AttentionLayer(
          1.05 M, 12.341% Params, 151.0 MMac, 14.747% MACs, 
          (inner_attention): FullAttention(
            0, 0.000% Params, 0.0 Mac, 0.000% MACs, 
            (dropout): Dropout(0, 0.000% Params, 0.0 Mac, 0.000% MACs, p=0.05, inplace=False)
          )
          (query_projection): Linear(262.66 k, 3.085% Params, 37.75 MMac, 3.687% MACs, in_features=512, out_features=512, bias=True)
          (key_projection): Linear(262.66 k, 3.085% Params, 37.75 MMac, 3.687% MACs, in_features=512, out_features=512, bias=True)
          (value_projection): Linear(262.66 k, 3.085% Params, 37.75 MMac, 3.687% MACs, in_features=512, out_features=512, bias=True)
          (out_projection): Linear(262.66 k, 3.085% Params, 37.75 MMac, 3.687% MACs, in_features=512, out_features=512, bias=True)
        )
        (cross_attention): AttentionLayer(
          1.05 M, 12.341% Params, 125.83 MMac, 12.289% MACs, 
          (inner_attention): FullAttention(
            0, 0.000% Params, 0.0 Mac, 0.000% MACs, 
            (dropout): Dropout(0, 0.000% Params, 0.0 Mac, 0.000% MACs, p=0.05, inplace=False)
          )
          (query_projection): Linear(262.66 k, 3.085% Params, 37.75 MMac, 3.687% MACs, in_features=512, out_features=512, bias=True)
          (key_projection): Linear(262.66 k, 3.085% Params, 25.17 MMac, 2.458% MACs, in_features=512, out_features=512, bias=True)
          (value_projection): Linear(262.66 k, 3.085% Params, 25.17 MMac, 2.458% MACs, in_features=512, out_features=512, bias=True)
          (out_projection): Linear(262.66 k, 3.085% Params, 37.75 MMac, 3.687% MACs, in_features=512, out_features=512, bias=True)
        )
        (conv1): Conv1d(1.05 M, 12.341% Params, 151.29 MMac, 14.776% MACs, 512, 2048, kernel_size=(1,), stride=(1,))
        (conv2): Conv1d(1.05 M, 12.323% Params, 151.07 MMac, 14.754% MACs, 2048, 512, kernel_size=(1,), stride=(1,))
        (norm1): LayerNorm(0, 0.000% Params, 0.0 Mac, 0.000% MACs, (512,), eps=1e-05, elementwise_affine=True)
        (norm2): LayerNorm(0, 0.000% Params, 0.0 Mac, 0.000% MACs, (512,), eps=1e-05, elementwise_affine=True)
        (norm3): LayerNorm(0, 0.000% Params, 0.0 Mac, 0.000% MACs, (512,), eps=1e-05, elementwise_affine=True)
        (dropout): Dropout(0, 0.000% Params, 0.0 Mac, 0.000% MACs, p=0.05, inplace=False)
      )
    )
    (norm): LayerNorm(0, 0.000% Params, 0.0 Mac, 0.000% MACs, (512,), eps=1e-05, elementwise_affine=True)
    (projection): Linear(164.67 k, 1.934% Params, 23.67 MMac, 2.311% MACs, in_features=512, out_features=321, bias=True)
  )
)
Computational complexity:       1.02 GMac
Number of parameters:           8.51 M  
