…
INFO: Trainable parameter count: 17.89M
INFO: Trainable parameter count: 17.89M
INFO: Trainable parameter count: 17.89M
INFO: Trainable parameter count: 17.89M
INFO: Trainable parameter count: 17.89M
INFO: Trainable parameter count: 17.89M
INFO: Trainable parameter count: 17.89M
INFO: Trainable parameter count: 17.90M
INFO: Trainable parameter count: 17.90M
Model(
  17.88 M, 99.920% Params, 2.07 GMac, 100.000% MACs, 
  (enc_embedding): DataEmbedding(
    12.8 k, 0.072% Params, 1.23 MMac, 0.059% MACs, 
    (value_embedding): TokenEmbedding(
      10.75 k, 0.060% Params, 1.03 MMac, 0.050% MACs, 
      (tokenConv): Conv1d(10.75 k, 0.060% Params, 1.03 MMac, 0.050% MACs, 7, 512, kernel_size=(3,), stride=(1,), padding=(1,), bias=False, padding_mode=circular)
    )
    (position_embedding): PositionalEmbedding(0, 0.000% Params, 0.0 Mac, 0.000% MACs, )
    (temporal_embedding): TimeFeatureEmbedding(
      2.05 k, 0.011% Params, 196.61 KMac, 0.010% MACs, 
      (embed): Linear(2.05 k, 0.011% Params, 196.61 KMac, 0.010% MACs, in_features=4, out_features=512, bias=False)
    )
    (dropout): Dropout(0, 0.000% Params, 0.0 Mac, 0.000% MACs, p=0.05, inplace=False)
  )
  (dec_embedding): DataEmbedding(
    12.8 k, 0.072% Params, 1.84 MMac, 0.089% MACs, 
    (value_embedding): TokenEmbedding(
      10.75 k, 0.060% Params, 1.55 MMac, 0.075% MACs, 
      (tokenConv): Conv1d(10.75 k, 0.060% Params, 1.55 MMac, 0.075% MACs, 7, 512, kernel_size=(3,), stride=(1,), padding=(1,), bias=False, padding_mode=circular)
    )
    (position_embedding): PositionalEmbedding(0, 0.000% Params, 0.0 Mac, 0.000% MACs, )
    (temporal_embedding): TimeFeatureEmbedding(
      2.05 k, 0.011% Params, 294.91 KMac, 0.014% MACs, 
      (embed): Linear(2.05 k, 0.011% Params, 294.91 KMac, 0.014% MACs, in_features=4, out_features=512, bias=False)
    )
    (dropout): Dropout(0, 0.000% Params, 0.0 Mac, 0.000% MACs, p=0.05, inplace=False)
  )
  (encoder): Encoder(
    9.45 M, 52.809% Params, 906.71 MMac, 43.831% MACs, 
    (attn_layers): ModuleList(
      9.45 M, 52.809% Params, 906.71 MMac, 43.831% MACs, 
      (0): EncoderLayer(
        3.15 M, 17.603% Params, 302.24 MMac, 14.610% MACs, 
        (attention): AttentionLayer(
          1.05 M, 5.871% Params, 100.67 MMac, 4.866% MACs, 
          (inner_attention): FullAttention(
            0, 0.000% Params, 0.0 Mac, 0.000% MACs, 
            (dropout): Dropout(0, 0.000% Params, 0.0 Mac, 0.000% MACs, p=0.05, inplace=False)
          )
          (query_projection): Linear(262.66 k, 1.468% Params, 25.17 MMac, 1.217% MACs, in_features=512, out_features=512, bias=True)
          (key_projection): Linear(262.66 k, 1.468% Params, 25.17 MMac, 1.217% MACs, in_features=512, out_features=512, bias=True)
          (value_projection): Linear(262.66 k, 1.468% Params, 25.17 MMac, 1.217% MACs, in_features=512, out_features=512, bias=True)
          (out_projection): Linear(262.66 k, 1.468% Params, 25.17 MMac, 1.217% MACs, in_features=512, out_features=512, bias=True)
        )
        (conv1): Conv1d(1.05 M, 5.871% Params, 100.86 MMac, 4.876% MACs, 512, 2048, kernel_size=(1,), stride=(1,))
        (conv2): Conv1d(1.05 M, 5.862% Params, 100.71 MMac, 4.868% MACs, 2048, 512, kernel_size=(1,), stride=(1,))
        (norm1): LayerNorm(0, 0.000% Params, 0.0 Mac, 0.000% MACs, (512,), eps=1e-05, elementwise_affine=True)
        (norm2): LayerNorm(0, 0.000% Params, 0.0 Mac, 0.000% MACs, (512,), eps=1e-05, elementwise_affine=True)
        (dropout): Dropout(0, 0.000% Params, 0.0 Mac, 0.000% MACs, p=0.05, inplace=False)
      )
      (1): EncoderLayer(
        3.15 M, 17.603% Params, 302.24 MMac, 14.610% MACs, 
        (attention): AttentionLayer(
          1.05 M, 5.871% Params, 100.67 MMac, 4.866% MACs, 
          (inner_attention): FullAttention(
            0, 0.000% Params, 0.0 Mac, 0.000% MACs, 
            (dropout): Dropout(0, 0.000% Params, 0.0 Mac, 0.000% MACs, p=0.05, inplace=False)
          )
          (query_projection): Linear(262.66 k, 1.468% Params, 25.17 MMac, 1.217% MACs, in_features=512, out_features=512, bias=True)
          (key_projection): Linear(262.66 k, 1.468% Params, 25.17 MMac, 1.217% MACs, in_features=512, out_features=512, bias=True)
          (value_projection): Linear(262.66 k, 1.468% Params, 25.17 MMac, 1.217% MACs, in_features=512, out_features=512, bias=True)
          (out_projection): Linear(262.66 k, 1.468% Params, 25.17 MMac, 1.217% MACs, in_features=512, out_features=512, bias=True)
        )
        (conv1): Conv1d(1.05 M, 5.871% Params, 100.86 MMac, 4.876% MACs, 512, 2048, kernel_size=(1,), stride=(1,))
        (conv2): Conv1d(1.05 M, 5.862% Params, 100.71 MMac, 4.868% MACs, 2048, 512, kernel_size=(1,), stride=(1,))
        (norm1): LayerNorm(0, 0.000% Params, 0.0 Mac, 0.000% MACs, (512,), eps=1e-05, elementwise_affine=True)
        (norm2): LayerNorm(0, 0.000% Params, 0.0 Mac, 0.000% MACs, (512,), eps=1e-05, elementwise_affine=True)
        (dropout): Dropout(0, 0.000% Params, 0.0 Mac, 0.000% MACs, p=0.05, inplace=False)
      )
      (2): EncoderLayer(
        3.15 M, 17.603% Params, 302.24 MMac, 14.610% MACs, 
        (attention): AttentionLayer(
          1.05 M, 5.871% Params, 100.67 MMac, 4.866% MACs, 
          (inner_attention): FullAttention(
            0, 0.000% Params, 0.0 Mac, 0.000% MACs, 
            (dropout): Dropout(0, 0.000% Params, 0.0 Mac, 0.000% MACs, p=0.05, inplace=False)
          )
          (query_projection): Linear(262.66 k, 1.468% Params, 25.17 MMac, 1.217% MACs, in_features=512, out_features=512, bias=True)
          (key_projection): Linear(262.66 k, 1.468% Params, 25.17 MMac, 1.217% MACs, in_features=512, out_features=512, bias=True)
          (value_projection): Linear(262.66 k, 1.468% Params, 25.17 MMac, 1.217% MACs, in_features=512, out_features=512, bias=True)
          (out_projection): Linear(262.66 k, 1.468% Params, 25.17 MMac, 1.217% MACs, in_features=512, out_features=512, bias=True)
        )
        (conv1): Conv1d(1.05 M, 5.871% Params, 100.86 MMac, 4.876% MACs, 512, 2048, kernel_size=(1,), stride=(1,))
        (conv2): Conv1d(1.05 M, 5.862% Params, 100.71 MMac, 4.868% MACs, 2048, 512, kernel_size=(1,), stride=(1,))
        (norm1): LayerNorm(0, 0.000% Params, 0.0 Mac, 0.000% MACs, (512,), eps=1e-05, elementwise_affine=True)
        (norm2): LayerNorm(0, 0.000% Params, 0.0 Mac, 0.000% MACs, (512,), eps=1e-05, elementwise_affine=True)
        (dropout): Dropout(0, 0.000% Params, 0.0 Mac, 0.000% MACs, p=0.05, inplace=False)
      )
    )
    (norm): LayerNorm(0, 0.000% Params, 0.0 Mac, 0.000% MACs, (512,), eps=1e-05, elementwise_affine=True)
  )
  (decoder): Decoder(
    8.41 M, 46.967% Params, 1.16 GMac, 56.021% MACs, 
    (layers): ModuleList(
      8.4 M, 46.947% Params, 1.16 GMac, 55.996% MACs, 
      (0): DecoderLayer(
        4.2 M, 23.474% Params, 579.19 MMac, 27.998% MACs, 
        (self_attention): AttentionLayer(
          1.05 M, 5.871% Params, 151.0 MMac, 7.299% MACs, 
          (inner_attention): FullAttention(
            0, 0.000% Params, 0.0 Mac, 0.000% MACs, 
            (dropout): Dropout(0, 0.000% Params, 0.0 Mac, 0.000% MACs, p=0.05, inplace=False)
          )
          (query_projection): Linear(262.66 k, 1.468% Params, 37.75 MMac, 1.825% MACs, in_features=512, out_features=512, bias=True)
          (key_projection): Linear(262.66 k, 1.468% Params, 37.75 MMac, 1.825% MACs, in_features=512, out_features=512, bias=True)
          (value_projection): Linear(262.66 k, 1.468% Params, 37.75 MMac, 1.825% MACs, in_features=512, out_features=512, bias=True)
          (out_projection): Linear(262.66 k, 1.468% Params, 37.75 MMac, 1.825% MACs, in_features=512, out_features=512, bias=True)
        )
        (cross_attention): AttentionLayer(
          1.05 M, 5.871% Params, 125.83 MMac, 6.083% MACs, 
          (inner_attention): FullAttention(
            0, 0.000% Params, 0.0 Mac, 0.000% MACs, 
            (dropout): Dropout(0, 0.000% Params, 0.0 Mac, 0.000% MACs, p=0.05, inplace=False)
          )
          (query_projection): Linear(262.66 k, 1.468% Params, 37.75 MMac, 1.825% MACs, in_features=512, out_features=512, bias=True)
          (key_projection): Linear(262.66 k, 1.468% Params, 25.17 MMac, 1.217% MACs, in_features=512, out_features=512, bias=True)
          (value_projection): Linear(262.66 k, 1.468% Params, 25.17 MMac, 1.217% MACs, in_features=512, out_features=512, bias=True)
          (out_projection): Linear(262.66 k, 1.468% Params, 37.75 MMac, 1.825% MACs, in_features=512, out_features=512, bias=True)
        )
        (conv1): Conv1d(1.05 M, 5.871% Params, 151.29 MMac, 7.313% MACs, 512, 2048, kernel_size=(1,), stride=(1,))
        (conv2): Conv1d(1.05 M, 5.862% Params, 151.07 MMac, 7.303% MACs, 2048, 512, kernel_size=(1,), stride=(1,))
        (norm1): LayerNorm(0, 0.000% Params, 0.0 Mac, 0.000% MACs, (512,), eps=1e-05, elementwise_affine=True)
        (norm2): LayerNorm(0, 0.000% Params, 0.0 Mac, 0.000% MACs, (512,), eps=1e-05, elementwise_affine=True)
        (norm3): LayerNorm(0, 0.000% Params, 0.0 Mac, 0.000% MACs, (512,), eps=1e-05, elementwise_affine=True)
        (dropout): Dropout(0, 0.000% Params, 0.0 Mac, 0.000% MACs, p=0.05, inplace=False)
      )
      (1): DecoderLayer(
        4.2 M, 23.474% Params, 579.19 MMac, 27.998% MACs, 
        (self_attention): AttentionLayer(
          1.05 M, 5.871% Params, 151.0 MMac, 7.299% MACs, 
          (inner_attention): FullAttention(
            0, 0.000% Params, 0.0 Mac, 0.000% MACs, 
            (dropout): Dropout(0, 0.000% Params, 0.0 Mac, 0.000% MACs, p=0.05, inplace=False)
          )
          (query_projection): Linear(262.66 k, 1.468% Params, 37.75 MMac, 1.825% MACs, in_features=512, out_features=512, bias=True)
          (key_projection): Linear(262.66 k, 1.468% Params, 37.75 MMac, 1.825% MACs, in_features=512, out_features=512, bias=True)
          (value_projection): Linear(262.66 k, 1.468% Params, 37.75 MMac, 1.825% MACs, in_features=512, out_features=512, bias=True)
          (out_projection): Linear(262.66 k, 1.468% Params, 37.75 MMac, 1.825% MACs, in_features=512, out_features=512, bias=True)
        )
        (cross_attention): AttentionLayer(
          1.05 M, 5.871% Params, 125.83 MMac, 6.083% MACs, 
          (inner_attention): FullAttention(
            0, 0.000% Params, 0.0 Mac, 0.000% MACs, 
            (dropout): Dropout(0, 0.000% Params, 0.0 Mac, 0.000% MACs, p=0.05, inplace=False)
          )
          (query_projection): Linear(262.66 k, 1.468% Params, 37.75 MMac, 1.825% MACs, in_features=512, out_features=512, bias=True)
          (key_projection): Linear(262.66 k, 1.468% Params, 25.17 MMac, 1.217% MACs, in_features=512, out_features=512, bias=True)
          (value_projection): Linear(262.66 k, 1.468% Params, 25.17 MMac, 1.217% MACs, in_features=512, out_features=512, bias=True)
          (out_projection): Linear(262.66 k, 1.468% Params, 37.75 MMac, 1.825% MACs, in_features=512, out_features=512, bias=True)
        )
        (conv1): Conv1d(1.05 M, 5.871% Params, 151.29 MMac, 7.313% MACs, 512, 2048, kernel_size=(1,), stride=(1,))
        (conv2): Conv1d(1.05 M, 5.862% Params, 151.07 MMac, 7.303% MACs, 2048, 512, kernel_size=(1,), stride=(1,))
        (norm1): LayerNorm(0, 0.000% Params, 0.0 Mac, 0.000% MACs, (512,), eps=1e-05, elementwise_affine=True)
        (norm2): LayerNorm(0, 0.000% Params, 0.0 Mac, 0.000% MACs, (512,), eps=1e-05, elementwise_affine=True)
        (norm3): LayerNorm(0, 0.000% Params, 0.0 Mac, 0.000% MACs, (512,), eps=1e-05, elementwise_affine=True)
        (dropout): Dropout(0, 0.000% Params, 0.0 Mac, 0.000% MACs, p=0.05, inplace=False)
      )
    )
    (norm): LayerNorm(0, 0.000% Params, 0.0 Mac, 0.000% MACs, (512,), eps=1e-05, elementwise_affine=True)
    (projection): Linear(3.59 k, 0.020% Params, 516.1 KMac, 0.025% MACs, in_features=512, out_features=7, bias=True)
  )
)
Computational complexity:       2.07 GMac
Number of parameters:           17.9 M  
