…
INFO: Trainable parameter count: 23.15M
INFO: Trainable parameter count: 23.15M
INFO: Trainable parameter count: 23.15M
INFO: Trainable parameter count: 23.15M
INFO: Trainable parameter count: 23.15M
INFO: Trainable parameter count: 23.15M
INFO: Trainable parameter count: 23.15M
INFO: Trainable parameter count: 23.15M
INFO: Trainable parameter count: 23.15M
Model(
  23.13 M, 99.920% Params, 2.92 GMac, 100.000% MACs, 
  (enc_embedding): DataEmbedding(
    12.8 k, 0.055% Params, 1.23 MMac, 0.042% MACs, 
    (value_embedding): TokenEmbedding(
      10.75 k, 0.046% Params, 1.03 MMac, 0.035% MACs, 
      (tokenConv): Conv1d(10.75 k, 0.046% Params, 1.03 MMac, 0.035% MACs, 7, 512, kernel_size=(3,), stride=(1,), padding=(1,), bias=False, padding_mode=circular)
    )
    (position_embedding): PositionalEmbedding(0, 0.000% Params, 0.0 Mac, 0.000% MACs, )
    (temporal_embedding): TimeFeatureEmbedding(
      2.05 k, 0.009% Params, 196.61 KMac, 0.007% MACs, 
      (embed): Linear(2.05 k, 0.009% Params, 196.61 KMac, 0.007% MACs, in_features=4, out_features=512, bias=False)
    )
    (dropout): Dropout(0, 0.000% Params, 0.0 Mac, 0.000% MACs, p=0.05, inplace=False)
  )
  (dec_embedding): DataEmbedding(
    12.8 k, 0.055% Params, 1.84 MMac, 0.063% MACs, 
    (value_embedding): TokenEmbedding(
      10.75 k, 0.046% Params, 1.55 MMac, 0.053% MACs, 
      (tokenConv): Conv1d(10.75 k, 0.046% Params, 1.55 MMac, 0.053% MACs, 7, 512, kernel_size=(3,), stride=(1,), padding=(1,), bias=False, padding_mode=circular)
    )
    (position_embedding): PositionalEmbedding(0, 0.000% Params, 0.0 Mac, 0.000% MACs, )
    (temporal_embedding): TimeFeatureEmbedding(
      2.05 k, 0.009% Params, 294.91 KMac, 0.010% MACs, 
      (embed): Linear(2.05 k, 0.009% Params, 294.91 KMac, 0.010% MACs, in_features=4, out_features=512, bias=False)
    )
    (dropout): Dropout(0, 0.000% Params, 0.0 Mac, 0.000% MACs, p=0.05, inplace=False)
  )
  (encoder): Encoder(
    6.3 M, 27.214% Params, 604.48 MMac, 20.667% MACs, 
    (attn_layers): ModuleList(
      6.3 M, 27.214% Params, 604.48 MMac, 20.667% MACs, 
      (0): EncoderLayer(
        3.15 M, 13.607% Params, 302.24 MMac, 10.334% MACs, 
        (attention): AttentionLayer(
          1.05 M, 4.538% Params, 100.67 MMac, 3.442% MACs, 
          (inner_attention): FullAttention(
            0, 0.000% Params, 0.0 Mac, 0.000% MACs, 
            (dropout): Dropout(0, 0.000% Params, 0.0 Mac, 0.000% MACs, p=0.05, inplace=False)
          )
          (query_projection): Linear(262.66 k, 1.134% Params, 25.17 MMac, 0.860% MACs, in_features=512, out_features=512, bias=True)
          (key_projection): Linear(262.66 k, 1.134% Params, 25.17 MMac, 0.860% MACs, in_features=512, out_features=512, bias=True)
          (value_projection): Linear(262.66 k, 1.134% Params, 25.17 MMac, 0.860% MACs, in_features=512, out_features=512, bias=True)
          (out_projection): Linear(262.66 k, 1.134% Params, 25.17 MMac, 0.860% MACs, in_features=512, out_features=512, bias=True)
        )
        (conv1): Conv1d(1.05 M, 4.538% Params, 100.86 MMac, 3.448% MACs, 512, 2048, kernel_size=(1,), stride=(1,))
        (conv2): Conv1d(1.05 M, 4.531% Params, 100.71 MMac, 3.443% MACs, 2048, 512, kernel_size=(1,), stride=(1,))
        (norm1): LayerNorm(0, 0.000% Params, 0.0 Mac, 0.000% MACs, (512,), eps=1e-05, elementwise_affine=True)
        (norm2): LayerNorm(0, 0.000% Params, 0.0 Mac, 0.000% MACs, (512,), eps=1e-05, elementwise_affine=True)
        (dropout): Dropout(0, 0.000% Params, 0.0 Mac, 0.000% MACs, p=0.05, inplace=False)
      )
      (1): EncoderLayer(
        3.15 M, 13.607% Params, 302.24 MMac, 10.334% MACs, 
        (attention): AttentionLayer(
          1.05 M, 4.538% Params, 100.67 MMac, 3.442% MACs, 
          (inner_attention): FullAttention(
            0, 0.000% Params, 0.0 Mac, 0.000% MACs, 
            (dropout): Dropout(0, 0.000% Params, 0.0 Mac, 0.000% MACs, p=0.05, inplace=False)
          )
          (query_projection): Linear(262.66 k, 1.134% Params, 25.17 MMac, 0.860% MACs, in_features=512, out_features=512, bias=True)
          (key_projection): Linear(262.66 k, 1.134% Params, 25.17 MMac, 0.860% MACs, in_features=512, out_features=512, bias=True)
          (value_projection): Linear(262.66 k, 1.134% Params, 25.17 MMac, 0.860% MACs, in_features=512, out_features=512, bias=True)
          (out_projection): Linear(262.66 k, 1.134% Params, 25.17 MMac, 0.860% MACs, in_features=512, out_features=512, bias=True)
        )
        (conv1): Conv1d(1.05 M, 4.538% Params, 100.86 MMac, 3.448% MACs, 512, 2048, kernel_size=(1,), stride=(1,))
        (conv2): Conv1d(1.05 M, 4.531% Params, 100.71 MMac, 3.443% MACs, 2048, 512, kernel_size=(1,), stride=(1,))
        (norm1): LayerNorm(0, 0.000% Params, 0.0 Mac, 0.000% MACs, (512,), eps=1e-05, elementwise_affine=True)
        (norm2): LayerNorm(0, 0.000% Params, 0.0 Mac, 0.000% MACs, (512,), eps=1e-05, elementwise_affine=True)
        (dropout): Dropout(0, 0.000% Params, 0.0 Mac, 0.000% MACs, p=0.05, inplace=False)
      )
    )
    (norm): LayerNorm(0, 0.000% Params, 0.0 Mac, 0.000% MACs, (512,), eps=1e-05, elementwise_affine=True)
  )
  (decoder): Decoder(
    16.81 M, 72.596% Params, 2.32 GMac, 79.228% MACs, 
    (layers): ModuleList(
      16.8 M, 72.580% Params, 2.32 GMac, 79.210% MACs, 
      (0): DecoderLayer(
        4.2 M, 18.145% Params, 579.19 MMac, 19.803% MACs, 
        (self_attention): AttentionLayer(
          1.05 M, 4.538% Params, 151.0 MMac, 5.163% MACs, 
          (inner_attention): FullAttention(
            0, 0.000% Params, 0.0 Mac, 0.000% MACs, 
            (dropout): Dropout(0, 0.000% Params, 0.0 Mac, 0.000% MACs, p=0.05, inplace=False)
          )
          (query_projection): Linear(262.66 k, 1.134% Params, 37.75 MMac, 1.291% MACs, in_features=512, out_features=512, bias=True)
          (key_projection): Linear(262.66 k, 1.134% Params, 37.75 MMac, 1.291% MACs, in_features=512, out_features=512, bias=True)
          (value_projection): Linear(262.66 k, 1.134% Params, 37.75 MMac, 1.291% MACs, in_features=512, out_features=512, bias=True)
          (out_projection): Linear(262.66 k, 1.134% Params, 37.75 MMac, 1.291% MACs, in_features=512, out_features=512, bias=True)
        )
        (cross_attention): AttentionLayer(
          1.05 M, 4.538% Params, 125.83 MMac, 4.302% MACs, 
          (inner_attention): FullAttention(
            0, 0.000% Params, 0.0 Mac, 0.000% MACs, 
            (dropout): Dropout(0, 0.000% Params, 0.0 Mac, 0.000% MACs, p=0.05, inplace=False)
          )
          (query_projection): Linear(262.66 k, 1.134% Params, 37.75 MMac, 1.291% MACs, in_features=512, out_features=512, bias=True)
          (key_projection): Linear(262.66 k, 1.134% Params, 25.17 MMac, 0.860% MACs, in_features=512, out_features=512, bias=True)
          (value_projection): Linear(262.66 k, 1.134% Params, 25.17 MMac, 0.860% MACs, in_features=512, out_features=512, bias=True)
          (out_projection): Linear(262.66 k, 1.134% Params, 37.75 MMac, 1.291% MACs, in_features=512, out_features=512, bias=True)
        )
        (conv1): Conv1d(1.05 M, 4.538% Params, 151.29 MMac, 5.173% MACs, 512, 2048, kernel_size=(1,), stride=(1,))
        (conv2): Conv1d(1.05 M, 4.531% Params, 151.07 MMac, 5.165% MACs, 2048, 512, kernel_size=(1,), stride=(1,))
        (norm1): LayerNorm(0, 0.000% Params, 0.0 Mac, 0.000% MACs, (512,), eps=1e-05, elementwise_affine=True)
        (norm2): LayerNorm(0, 0.000% Params, 0.0 Mac, 0.000% MACs, (512,), eps=1e-05, elementwise_affine=True)
        (norm3): LayerNorm(0, 0.000% Params, 0.0 Mac, 0.000% MACs, (512,), eps=1e-05, elementwise_affine=True)
        (dropout): Dropout(0, 0.000% Params, 0.0 Mac, 0.000% MACs, p=0.05, inplace=False)
      )
      (1): DecoderLayer(
        4.2 M, 18.145% Params, 579.19 MMac, 19.803% MACs, 
        (self_attention): AttentionLayer(
          1.05 M, 4.538% Params, 151.0 MMac, 5.163% MACs, 
          (inner_attention): FullAttention(
            0, 0.000% Params, 0.0 Mac, 0.000% MACs, 
            (dropout): Dropout(0, 0.000% Params, 0.0 Mac, 0.000% MACs, p=0.05, inplace=False)
          )
          (query_projection): Linear(262.66 k, 1.134% Params, 37.75 MMac, 1.291% MACs, in_features=512, out_features=512, bias=True)
          (key_projection): Linear(262.66 k, 1.134% Params, 37.75 MMac, 1.291% MACs, in_features=512, out_features=512, bias=True)
          (value_projection): Linear(262.66 k, 1.134% Params, 37.75 MMac, 1.291% MACs, in_features=512, out_features=512, bias=True)
          (out_projection): Linear(262.66 k, 1.134% Params, 37.75 MMac, 1.291% MACs, in_features=512, out_features=512, bias=True)
        )
        (cross_attention): AttentionLayer(
          1.05 M, 4.538% Params, 125.83 MMac, 4.302% MACs, 
          (inner_attention): FullAttention(
            0, 0.000% Params, 0.0 Mac, 0.000% MACs, 
            (dropout): Dropout(0, 0.000% Params, 0.0 Mac, 0.000% MACs, p=0.05, inplace=False)
          )
          (query_projection): Linear(262.66 k, 1.134% Params, 37.75 MMac, 1.291% MACs, in_features=512, out_features=512, bias=True)
          (key_projection): Linear(262.66 k, 1.134% Params, 25.17 MMac, 0.860% MACs, in_features=512, out_features=512, bias=True)
          (value_projection): Linear(262.66 k, 1.134% Params, 25.17 MMac, 0.860% MACs, in_features=512, out_features=512, bias=True)
          (out_projection): Linear(262.66 k, 1.134% Params, 37.75 MMac, 1.291% MACs, in_features=512, out_features=512, bias=True)
        )
        (conv1): Conv1d(1.05 M, 4.538% Params, 151.29 MMac, 5.173% MACs, 512, 2048, kernel_size=(1,), stride=(1,))
        (conv2): Conv1d(1.05 M, 4.531% Params, 151.07 MMac, 5.165% MACs, 2048, 512, kernel_size=(1,), stride=(1,))
        (norm1): LayerNorm(0, 0.000% Params, 0.0 Mac, 0.000% MACs, (512,), eps=1e-05, elementwise_affine=True)
        (norm2): LayerNorm(0, 0.000% Params, 0.0 Mac, 0.000% MACs, (512,), eps=1e-05, elementwise_affine=True)
        (norm3): LayerNorm(0, 0.000% Params, 0.0 Mac, 0.000% MACs, (512,), eps=1e-05, elementwise_affine=True)
        (dropout): Dropout(0, 0.000% Params, 0.0 Mac, 0.000% MACs, p=0.05, inplace=False)
      )
      (2): DecoderLayer(
        4.2 M, 18.145% Params, 579.19 MMac, 19.803% MACs, 
        (self_attention): AttentionLayer(
          1.05 M, 4.538% Params, 151.0 MMac, 5.163% MACs, 
          (inner_attention): FullAttention(
            0, 0.000% Params, 0.0 Mac, 0.000% MACs, 
            (dropout): Dropout(0, 0.000% Params, 0.0 Mac, 0.000% MACs, p=0.05, inplace=False)
          )
          (query_projection): Linear(262.66 k, 1.134% Params, 37.75 MMac, 1.291% MACs, in_features=512, out_features=512, bias=True)
          (key_projection): Linear(262.66 k, 1.134% Params, 37.75 MMac, 1.291% MACs, in_features=512, out_features=512, bias=True)
          (value_projection): Linear(262.66 k, 1.134% Params, 37.75 MMac, 1.291% MACs, in_features=512, out_features=512, bias=True)
          (out_projection): Linear(262.66 k, 1.134% Params, 37.75 MMac, 1.291% MACs, in_features=512, out_features=512, bias=True)
        )
        (cross_attention): AttentionLayer(
          1.05 M, 4.538% Params, 125.83 MMac, 4.302% MACs, 
          (inner_attention): FullAttention(
            0, 0.000% Params, 0.0 Mac, 0.000% MACs, 
            (dropout): Dropout(0, 0.000% Params, 0.0 Mac, 0.000% MACs, p=0.05, inplace=False)
          )
          (query_projection): Linear(262.66 k, 1.134% Params, 37.75 MMac, 1.291% MACs, in_features=512, out_features=512, bias=True)
          (key_projection): Linear(262.66 k, 1.134% Params, 25.17 MMac, 0.860% MACs, in_features=512, out_features=512, bias=True)
          (value_projection): Linear(262.66 k, 1.134% Params, 25.17 MMac, 0.860% MACs, in_features=512, out_features=512, bias=True)
          (out_projection): Linear(262.66 k, 1.134% Params, 37.75 MMac, 1.291% MACs, in_features=512, out_features=512, bias=True)
        )
        (conv1): Conv1d(1.05 M, 4.538% Params, 151.29 MMac, 5.173% MACs, 512, 2048, kernel_size=(1,), stride=(1,))
        (conv2): Conv1d(1.05 M, 4.531% Params, 151.07 MMac, 5.165% MACs, 2048, 512, kernel_size=(1,), stride=(1,))
        (norm1): LayerNorm(0, 0.000% Params, 0.0 Mac, 0.000% MACs, (512,), eps=1e-05, elementwise_affine=True)
        (norm2): LayerNorm(0, 0.000% Params, 0.0 Mac, 0.000% MACs, (512,), eps=1e-05, elementwise_affine=True)
        (norm3): LayerNorm(0, 0.000% Params, 0.0 Mac, 0.000% MACs, (512,), eps=1e-05, elementwise_affine=True)
        (dropout): Dropout(0, 0.000% Params, 0.0 Mac, 0.000% MACs, p=0.05, inplace=False)
      )
      (3): DecoderLayer(
        4.2 M, 18.145% Params, 579.19 MMac, 19.803% MACs, 
        (self_attention): AttentionLayer(
          1.05 M, 4.538% Params, 151.0 MMac, 5.163% MACs, 
          (inner_attention): FullAttention(
            0, 0.000% Params, 0.0 Mac, 0.000% MACs, 
            (dropout): Dropout(0, 0.000% Params, 0.0 Mac, 0.000% MACs, p=0.05, inplace=False)
          )
          (query_projection): Linear(262.66 k, 1.134% Params, 37.75 MMac, 1.291% MACs, in_features=512, out_features=512, bias=True)
          (key_projection): Linear(262.66 k, 1.134% Params, 37.75 MMac, 1.291% MACs, in_features=512, out_features=512, bias=True)
          (value_projection): Linear(262.66 k, 1.134% Params, 37.75 MMac, 1.291% MACs, in_features=512, out_features=512, bias=True)
          (out_projection): Linear(262.66 k, 1.134% Params, 37.75 MMac, 1.291% MACs, in_features=512, out_features=512, bias=True)
        )
        (cross_attention): AttentionLayer(
          1.05 M, 4.538% Params, 125.83 MMac, 4.302% MACs, 
          (inner_attention): FullAttention(
            0, 0.000% Params, 0.0 Mac, 0.000% MACs, 
            (dropout): Dropout(0, 0.000% Params, 0.0 Mac, 0.000% MACs, p=0.05, inplace=False)
          )
          (query_projection): Linear(262.66 k, 1.134% Params, 37.75 MMac, 1.291% MACs, in_features=512, out_features=512, bias=True)
          (key_projection): Linear(262.66 k, 1.134% Params, 25.17 MMac, 0.860% MACs, in_features=512, out_features=512, bias=True)
          (value_projection): Linear(262.66 k, 1.134% Params, 25.17 MMac, 0.860% MACs, in_features=512, out_features=512, bias=True)
          (out_projection): Linear(262.66 k, 1.134% Params, 37.75 MMac, 1.291% MACs, in_features=512, out_features=512, bias=True)
        )
        (conv1): Conv1d(1.05 M, 4.538% Params, 151.29 MMac, 5.173% MACs, 512, 2048, kernel_size=(1,), stride=(1,))
        (conv2): Conv1d(1.05 M, 4.531% Params, 151.07 MMac, 5.165% MACs, 2048, 512, kernel_size=(1,), stride=(1,))
        (norm1): LayerNorm(0, 0.000% Params, 0.0 Mac, 0.000% MACs, (512,), eps=1e-05, elementwise_affine=True)
        (norm2): LayerNorm(0, 0.000% Params, 0.0 Mac, 0.000% MACs, (512,), eps=1e-05, elementwise_affine=True)
        (norm3): LayerNorm(0, 0.000% Params, 0.0 Mac, 0.000% MACs, (512,), eps=1e-05, elementwise_affine=True)
        (dropout): Dropout(0, 0.000% Params, 0.0 Mac, 0.000% MACs, p=0.05, inplace=False)
      )
    )
    (norm): LayerNorm(0, 0.000% Params, 0.0 Mac, 0.000% MACs, (512,), eps=1e-05, elementwise_affine=True)
    (projection): Linear(3.59 k, 0.016% Params, 516.1 KMac, 0.018% MACs, in_features=512, out_features=7, bias=True)
  )
)
Computational complexity:       2.92 GMac
Number of parameters:           23.15 M 
