…
INFO: Trainable parameter count: 21.04M
INFO: Trainable parameter count: 21.04M
INFO: Trainable parameter count: 21.04M
INFO: Trainable parameter count: 21.04M
INFO: Trainable parameter count: 21.04M
INFO: Trainable parameter count: 21.04M
INFO: Trainable parameter count: 21.05M
INFO: Trainable parameter count: 21.05M
INFO: Trainable parameter count: 21.05M
Model(
  21.03 M, 99.922% Params, 2.37 GMac, 100.000% MACs, 
  (enc_embedding): DataEmbedding(
    12.8 k, 0.061% Params, 1.23 MMac, 0.052% MACs, 
    (value_embedding): TokenEmbedding(
      10.75 k, 0.051% Params, 1.03 MMac, 0.044% MACs, 
      (tokenConv): Conv1d(10.75 k, 0.051% Params, 1.03 MMac, 0.044% MACs, 7, 512, kernel_size=(3,), stride=(1,), padding=(1,), bias=False, padding_mode=circular)
    )
    (position_embedding): PositionalEmbedding(0, 0.000% Params, 0.0 Mac, 0.000% MACs, )
    (temporal_embedding): TimeFeatureEmbedding(
      2.05 k, 0.010% Params, 196.61 KMac, 0.008% MACs, 
      (embed): Linear(2.05 k, 0.010% Params, 196.61 KMac, 0.008% MACs, in_features=4, out_features=512, bias=False)
    )
    (dropout): Dropout(0, 0.000% Params, 0.0 Mac, 0.000% MACs, p=0.05, inplace=False)
  )
  (dec_embedding): DataEmbedding(
    12.8 k, 0.061% Params, 1.84 MMac, 0.078% MACs, 
    (value_embedding): TokenEmbedding(
      10.75 k, 0.051% Params, 1.55 MMac, 0.065% MACs, 
      (tokenConv): Conv1d(10.75 k, 0.051% Params, 1.55 MMac, 0.065% MACs, 7, 512, kernel_size=(3,), stride=(1,), padding=(1,), bias=False, padding_mode=circular)
    )
    (position_embedding): PositionalEmbedding(0, 0.000% Params, 0.0 Mac, 0.000% MACs, )
    (temporal_embedding): TimeFeatureEmbedding(
      2.05 k, 0.010% Params, 294.91 KMac, 0.012% MACs, 
      (embed): Linear(2.05 k, 0.010% Params, 294.91 KMac, 0.012% MACs, in_features=4, out_features=512, bias=False)
    )
    (dropout): Dropout(0, 0.000% Params, 0.0 Mac, 0.000% MACs, p=0.05, inplace=False)
  )
  (encoder): Encoder(
    12.6 M, 59.867% Params, 1.21 GMac, 50.991% MACs, 
    (attn_layers): ModuleList(
      12.6 M, 59.867% Params, 1.21 GMac, 50.991% MACs, 
      (0): EncoderLayer(
        3.15 M, 14.967% Params, 302.24 MMac, 12.748% MACs, 
        (attention): AttentionLayer(
          1.05 M, 4.991% Params, 100.67 MMac, 4.246% MACs, 
          (inner_attention): FullAttention(
            0, 0.000% Params, 0.0 Mac, 0.000% MACs, 
            (dropout): Dropout(0, 0.000% Params, 0.0 Mac, 0.000% MACs, p=0.05, inplace=False)
          )
          (query_projection): Linear(262.66 k, 1.248% Params, 25.17 MMac, 1.061% MACs, in_features=512, out_features=512, bias=True)
          (key_projection): Linear(262.66 k, 1.248% Params, 25.17 MMac, 1.061% MACs, in_features=512, out_features=512, bias=True)
          (value_projection): Linear(262.66 k, 1.248% Params, 25.17 MMac, 1.061% MACs, in_features=512, out_features=512, bias=True)
          (out_projection): Linear(262.66 k, 1.248% Params, 25.17 MMac, 1.061% MACs, in_features=512, out_features=512, bias=True)
        )
        (conv1): Conv1d(1.05 M, 4.991% Params, 100.86 MMac, 4.254% MACs, 512, 2048, kernel_size=(1,), stride=(1,))
        (conv2): Conv1d(1.05 M, 4.984% Params, 100.71 MMac, 4.248% MACs, 2048, 512, kernel_size=(1,), stride=(1,))
        (norm1): LayerNorm(0, 0.000% Params, 0.0 Mac, 0.000% MACs, (512,), eps=1e-05, elementwise_affine=True)
        (norm2): LayerNorm(0, 0.000% Params, 0.0 Mac, 0.000% MACs, (512,), eps=1e-05, elementwise_affine=True)
        (dropout): Dropout(0, 0.000% Params, 0.0 Mac, 0.000% MACs, p=0.05, inplace=False)
      )
      (1): EncoderLayer(
        3.15 M, 14.967% Params, 302.24 MMac, 12.748% MACs, 
        (attention): AttentionLayer(
          1.05 M, 4.991% Params, 100.67 MMac, 4.246% MACs, 
          (inner_attention): FullAttention(
            0, 0.000% Params, 0.0 Mac, 0.000% MACs, 
            (dropout): Dropout(0, 0.000% Params, 0.0 Mac, 0.000% MACs, p=0.05, inplace=False)
          )
          (query_projection): Linear(262.66 k, 1.248% Params, 25.17 MMac, 1.061% MACs, in_features=512, out_features=512, bias=True)
          (key_projection): Linear(262.66 k, 1.248% Params, 25.17 MMac, 1.061% MACs, in_features=512, out_features=512, bias=True)
          (value_projection): Linear(262.66 k, 1.248% Params, 25.17 MMac, 1.061% MACs, in_features=512, out_features=512, bias=True)
          (out_projection): Linear(262.66 k, 1.248% Params, 25.17 MMac, 1.061% MACs, in_features=512, out_features=512, bias=True)
        )
        (conv1): Conv1d(1.05 M, 4.991% Params, 100.86 MMac, 4.254% MACs, 512, 2048, kernel_size=(1,), stride=(1,))
        (conv2): Conv1d(1.05 M, 4.984% Params, 100.71 MMac, 4.248% MACs, 2048, 512, kernel_size=(1,), stride=(1,))
        (norm1): LayerNorm(0, 0.000% Params, 0.0 Mac, 0.000% MACs, (512,), eps=1e-05, elementwise_affine=True)
        (norm2): LayerNorm(0, 0.000% Params, 0.0 Mac, 0.000% MACs, (512,), eps=1e-05, elementwise_affine=True)
        (dropout): Dropout(0, 0.000% Params, 0.0 Mac, 0.000% MACs, p=0.05, inplace=False)
      )
      (2): EncoderLayer(
        3.15 M, 14.967% Params, 302.24 MMac, 12.748% MACs, 
        (attention): AttentionLayer(
          1.05 M, 4.991% Params, 100.67 MMac, 4.246% MACs, 
          (inner_attention): FullAttention(
            0, 0.000% Params, 0.0 Mac, 0.000% MACs, 
            (dropout): Dropout(0, 0.000% Params, 0.0 Mac, 0.000% MACs, p=0.05, inplace=False)
          )
          (query_projection): Linear(262.66 k, 1.248% Params, 25.17 MMac, 1.061% MACs, in_features=512, out_features=512, bias=True)
          (key_projection): Linear(262.66 k, 1.248% Params, 25.17 MMac, 1.061% MACs, in_features=512, out_features=512, bias=True)
          (value_projection): Linear(262.66 k, 1.248% Params, 25.17 MMac, 1.061% MACs, in_features=512, out_features=512, bias=True)
          (out_projection): Linear(262.66 k, 1.248% Params, 25.17 MMac, 1.061% MACs, in_features=512, out_features=512, bias=True)
        )
        (conv1): Conv1d(1.05 M, 4.991% Params, 100.86 MMac, 4.254% MACs, 512, 2048, kernel_size=(1,), stride=(1,))
        (conv2): Conv1d(1.05 M, 4.984% Params, 100.71 MMac, 4.248% MACs, 2048, 512, kernel_size=(1,), stride=(1,))
        (norm1): LayerNorm(0, 0.000% Params, 0.0 Mac, 0.000% MACs, (512,), eps=1e-05, elementwise_affine=True)
        (norm2): LayerNorm(0, 0.000% Params, 0.0 Mac, 0.000% MACs, (512,), eps=1e-05, elementwise_affine=True)
        (dropout): Dropout(0, 0.000% Params, 0.0 Mac, 0.000% MACs, p=0.05, inplace=False)
      )
      (3): EncoderLayer(
        3.15 M, 14.967% Params, 302.24 MMac, 12.748% MACs, 
        (attention): AttentionLayer(
          1.05 M, 4.991% Params, 100.67 MMac, 4.246% MACs, 
          (inner_attention): FullAttention(
            0, 0.000% Params, 0.0 Mac, 0.000% MACs, 
            (dropout): Dropout(0, 0.000% Params, 0.0 Mac, 0.000% MACs, p=0.05, inplace=False)
          )
          (query_projection): Linear(262.66 k, 1.248% Params, 25.17 MMac, 1.061% MACs, in_features=512, out_features=512, bias=True)
          (key_projection): Linear(262.66 k, 1.248% Params, 25.17 MMac, 1.061% MACs, in_features=512, out_features=512, bias=True)
          (value_projection): Linear(262.66 k, 1.248% Params, 25.17 MMac, 1.061% MACs, in_features=512, out_features=512, bias=True)
          (out_projection): Linear(262.66 k, 1.248% Params, 25.17 MMac, 1.061% MACs, in_features=512, out_features=512, bias=True)
        )
        (conv1): Conv1d(1.05 M, 4.991% Params, 100.86 MMac, 4.254% MACs, 512, 2048, kernel_size=(1,), stride=(1,))
        (conv2): Conv1d(1.05 M, 4.984% Params, 100.71 MMac, 4.248% MACs, 2048, 512, kernel_size=(1,), stride=(1,))
        (norm1): LayerNorm(0, 0.000% Params, 0.0 Mac, 0.000% MACs, (512,), eps=1e-05, elementwise_affine=True)
        (norm2): LayerNorm(0, 0.000% Params, 0.0 Mac, 0.000% MACs, (512,), eps=1e-05, elementwise_affine=True)
        (dropout): Dropout(0, 0.000% Params, 0.0 Mac, 0.000% MACs, p=0.05, inplace=False)
      )
    )
    (norm): LayerNorm(0, 0.000% Params, 0.0 Mac, 0.000% MACs, (512,), eps=1e-05, elementwise_affine=True)
  )
  (decoder): Decoder(
    8.41 M, 39.933% Params, 1.16 GMac, 48.879% MACs, 
    (layers): ModuleList(
      8.4 M, 39.916% Params, 1.16 GMac, 48.858% MACs, 
      (0): DecoderLayer(
        4.2 M, 19.958% Params, 579.19 MMac, 24.429% MACs, 
        (self_attention): AttentionLayer(
          1.05 M, 4.991% Params, 151.0 MMac, 6.369% MACs, 
          (inner_attention): FullAttention(
            0, 0.000% Params, 0.0 Mac, 0.000% MACs, 
            (dropout): Dropout(0, 0.000% Params, 0.0 Mac, 0.000% MACs, p=0.05, inplace=False)
          )
          (query_projection): Linear(262.66 k, 1.248% Params, 37.75 MMac, 1.592% MACs, in_features=512, out_features=512, bias=True)
          (key_projection): Linear(262.66 k, 1.248% Params, 37.75 MMac, 1.592% MACs, in_features=512, out_features=512, bias=True)
          (value_projection): Linear(262.66 k, 1.248% Params, 37.75 MMac, 1.592% MACs, in_features=512, out_features=512, bias=True)
          (out_projection): Linear(262.66 k, 1.248% Params, 37.75 MMac, 1.592% MACs, in_features=512, out_features=512, bias=True)
        )
        (cross_attention): AttentionLayer(
          1.05 M, 4.991% Params, 125.83 MMac, 5.307% MACs, 
          (inner_attention): FullAttention(
            0, 0.000% Params, 0.0 Mac, 0.000% MACs, 
            (dropout): Dropout(0, 0.000% Params, 0.0 Mac, 0.000% MACs, p=0.05, inplace=False)
          )
          (query_projection): Linear(262.66 k, 1.248% Params, 37.75 MMac, 1.592% MACs, in_features=512, out_features=512, bias=True)
          (key_projection): Linear(262.66 k, 1.248% Params, 25.17 MMac, 1.061% MACs, in_features=512, out_features=512, bias=True)
          (value_projection): Linear(262.66 k, 1.248% Params, 25.17 MMac, 1.061% MACs, in_features=512, out_features=512, bias=True)
          (out_projection): Linear(262.66 k, 1.248% Params, 37.75 MMac, 1.592% MACs, in_features=512, out_features=512, bias=True)
        )
        (conv1): Conv1d(1.05 M, 4.991% Params, 151.29 MMac, 6.381% MACs, 512, 2048, kernel_size=(1,), stride=(1,))
        (conv2): Conv1d(1.05 M, 4.984% Params, 151.07 MMac, 6.372% MACs, 2048, 512, kernel_size=(1,), stride=(1,))
        (norm1): LayerNorm(0, 0.000% Params, 0.0 Mac, 0.000% MACs, (512,), eps=1e-05, elementwise_affine=True)
        (norm2): LayerNorm(0, 0.000% Params, 0.0 Mac, 0.000% MACs, (512,), eps=1e-05, elementwise_affine=True)
        (norm3): LayerNorm(0, 0.000% Params, 0.0 Mac, 0.000% MACs, (512,), eps=1e-05, elementwise_affine=True)
        (dropout): Dropout(0, 0.000% Params, 0.0 Mac, 0.000% MACs, p=0.05, inplace=False)
      )
      (1): DecoderLayer(
        4.2 M, 19.958% Params, 579.19 MMac, 24.429% MACs, 
        (self_attention): AttentionLayer(
          1.05 M, 4.991% Params, 151.0 MMac, 6.369% MACs, 
          (inner_attention): FullAttention(
            0, 0.000% Params, 0.0 Mac, 0.000% MACs, 
            (dropout): Dropout(0, 0.000% Params, 0.0 Mac, 0.000% MACs, p=0.05, inplace=False)
          )
          (query_projection): Linear(262.66 k, 1.248% Params, 37.75 MMac, 1.592% MACs, in_features=512, out_features=512, bias=True)
          (key_projection): Linear(262.66 k, 1.248% Params, 37.75 MMac, 1.592% MACs, in_features=512, out_features=512, bias=True)
          (value_projection): Linear(262.66 k, 1.248% Params, 37.75 MMac, 1.592% MACs, in_features=512, out_features=512, bias=True)
          (out_projection): Linear(262.66 k, 1.248% Params, 37.75 MMac, 1.592% MACs, in_features=512, out_features=512, bias=True)
        )
        (cross_attention): AttentionLayer(
          1.05 M, 4.991% Params, 125.83 MMac, 5.307% MACs, 
          (inner_attention): FullAttention(
            0, 0.000% Params, 0.0 Mac, 0.000% MACs, 
            (dropout): Dropout(0, 0.000% Params, 0.0 Mac, 0.000% MACs, p=0.05, inplace=False)
          )
          (query_projection): Linear(262.66 k, 1.248% Params, 37.75 MMac, 1.592% MACs, in_features=512, out_features=512, bias=True)
          (key_projection): Linear(262.66 k, 1.248% Params, 25.17 MMac, 1.061% MACs, in_features=512, out_features=512, bias=True)
          (value_projection): Linear(262.66 k, 1.248% Params, 25.17 MMac, 1.061% MACs, in_features=512, out_features=512, bias=True)
          (out_projection): Linear(262.66 k, 1.248% Params, 37.75 MMac, 1.592% MACs, in_features=512, out_features=512, bias=True)
        )
        (conv1): Conv1d(1.05 M, 4.991% Params, 151.29 MMac, 6.381% MACs, 512, 2048, kernel_size=(1,), stride=(1,))
        (conv2): Conv1d(1.05 M, 4.984% Params, 151.07 MMac, 6.372% MACs, 2048, 512, kernel_size=(1,), stride=(1,))
        (norm1): LayerNorm(0, 0.000% Params, 0.0 Mac, 0.000% MACs, (512,), eps=1e-05, elementwise_affine=True)
        (norm2): LayerNorm(0, 0.000% Params, 0.0 Mac, 0.000% MACs, (512,), eps=1e-05, elementwise_affine=True)
        (norm3): LayerNorm(0, 0.000% Params, 0.0 Mac, 0.000% MACs, (512,), eps=1e-05, elementwise_affine=True)
        (dropout): Dropout(0, 0.000% Params, 0.0 Mac, 0.000% MACs, p=0.05, inplace=False)
      )
    )
    (norm): LayerNorm(0, 0.000% Params, 0.0 Mac, 0.000% MACs, (512,), eps=1e-05, elementwise_affine=True)
    (projection): Linear(3.59 k, 0.017% Params, 516.1 KMac, 0.022% MACs, in_features=512, out_features=7, bias=True)
  )
)
Computational complexity:       2.37 GMac
Number of parameters:           21.05 M 
