…
INFO: Trainable parameter count: 14.74M
INFO: Trainable parameter count: 14.74M
INFO: Trainable parameter count: 14.74M
INFO: Trainable parameter count: 14.74M
INFO: Trainable parameter count: 14.74M
INFO: Trainable parameter count: 14.74M
INFO: Trainable parameter count: 14.74M
INFO: Trainable parameter count: 14.74M
INFO: Trainable parameter count: 14.74M
Model(
  14.73 M, 99.917% Params, 1.77 GMac, 100.000% MACs, 
  (enc_embedding): DataEmbedding(
    12.8 k, 0.087% Params, 1.23 MMac, 0.070% MACs, 
    (value_embedding): TokenEmbedding(
      10.75 k, 0.073% Params, 1.03 MMac, 0.058% MACs, 
      (tokenConv): Conv1d(10.75 k, 0.073% Params, 1.03 MMac, 0.058% MACs, 7, 512, kernel_size=(3,), stride=(1,), padding=(1,), bias=False, padding_mode=circular)
    )
    (position_embedding): PositionalEmbedding(0, 0.000% Params, 0.0 Mac, 0.000% MACs, )
    (temporal_embedding): TimeFeatureEmbedding(
      2.05 k, 0.014% Params, 196.61 KMac, 0.011% MACs, 
      (embed): Linear(2.05 k, 0.014% Params, 196.61 KMac, 0.011% MACs, in_features=4, out_features=512, bias=False)
    )
    (dropout): Dropout(0, 0.000% Params, 0.0 Mac, 0.000% MACs, p=0.05, inplace=False)
  )
  (dec_embedding): DataEmbedding(
    12.8 k, 0.087% Params, 1.84 MMac, 0.104% MACs, 
    (value_embedding): TokenEmbedding(
      10.75 k, 0.073% Params, 1.55 MMac, 0.088% MACs, 
      (tokenConv): Conv1d(10.75 k, 0.073% Params, 1.55 MMac, 0.088% MACs, 7, 512, kernel_size=(3,), stride=(1,), padding=(1,), bias=False, padding_mode=circular)
    )
    (position_embedding): PositionalEmbedding(0, 0.000% Params, 0.0 Mac, 0.000% MACs, )
    (temporal_embedding): TimeFeatureEmbedding(
      2.05 k, 0.014% Params, 294.91 KMac, 0.017% MACs, 
      (embed): Linear(2.05 k, 0.014% Params, 294.91 KMac, 0.017% MACs, in_features=4, out_features=512, bias=False)
    )
    (dropout): Dropout(0, 0.000% Params, 0.0 Mac, 0.000% MACs, p=0.05, inplace=False)
  )
  (encoder): Encoder(
    6.3 M, 42.734% Params, 604.48 MMac, 34.220% MACs, 
    (attn_layers): ModuleList(
      6.3 M, 42.734% Params, 604.48 MMac, 34.220% MACs, 
      (0): EncoderLayer(
        3.15 M, 21.367% Params, 302.24 MMac, 17.110% MACs, 
        (attention): AttentionLayer(
          1.05 M, 7.126% Params, 100.67 MMac, 5.699% MACs, 
          (inner_attention): FullAttention(
            0, 0.000% Params, 0.0 Mac, 0.000% MACs, 
            (dropout): Dropout(0, 0.000% Params, 0.0 Mac, 0.000% MACs, p=0.05, inplace=False)
          )
          (query_projection): Linear(262.66 k, 1.781% Params, 25.17 MMac, 1.425% MACs, in_features=512, out_features=512, bias=True)
          (key_projection): Linear(262.66 k, 1.781% Params, 25.17 MMac, 1.425% MACs, in_features=512, out_features=512, bias=True)
          (value_projection): Linear(262.66 k, 1.781% Params, 25.17 MMac, 1.425% MACs, in_features=512, out_features=512, bias=True)
          (out_projection): Linear(262.66 k, 1.781% Params, 25.17 MMac, 1.425% MACs, in_features=512, out_features=512, bias=True)
        )
        (conv1): Conv1d(1.05 M, 7.126% Params, 100.86 MMac, 5.710% MACs, 512, 2048, kernel_size=(1,), stride=(1,))
        (conv2): Conv1d(1.05 M, 7.115% Params, 100.71 MMac, 5.701% MACs, 2048, 512, kernel_size=(1,), stride=(1,))
        (norm1): LayerNorm(0, 0.000% Params, 0.0 Mac, 0.000% MACs, (512,), eps=1e-05, elementwise_affine=True)
        (norm2): LayerNorm(0, 0.000% Params, 0.0 Mac, 0.000% MACs, (512,), eps=1e-05, elementwise_affine=True)
        (dropout): Dropout(0, 0.000% Params, 0.0 Mac, 0.000% MACs, p=0.05, inplace=False)
      )
      (1): EncoderLayer(
        3.15 M, 21.367% Params, 302.24 MMac, 17.110% MACs, 
        (attention): AttentionLayer(
          1.05 M, 7.126% Params, 100.67 MMac, 5.699% MACs, 
          (inner_attention): FullAttention(
            0, 0.000% Params, 0.0 Mac, 0.000% MACs, 
            (dropout): Dropout(0, 0.000% Params, 0.0 Mac, 0.000% MACs, p=0.05, inplace=False)
          )
          (query_projection): Linear(262.66 k, 1.781% Params, 25.17 MMac, 1.425% MACs, in_features=512, out_features=512, bias=True)
          (key_projection): Linear(262.66 k, 1.781% Params, 25.17 MMac, 1.425% MACs, in_features=512, out_features=512, bias=True)
          (value_projection): Linear(262.66 k, 1.781% Params, 25.17 MMac, 1.425% MACs, in_features=512, out_features=512, bias=True)
          (out_projection): Linear(262.66 k, 1.781% Params, 25.17 MMac, 1.425% MACs, in_features=512, out_features=512, bias=True)
        )
        (conv1): Conv1d(1.05 M, 7.126% Params, 100.86 MMac, 5.710% MACs, 512, 2048, kernel_size=(1,), stride=(1,))
        (conv2): Conv1d(1.05 M, 7.115% Params, 100.71 MMac, 5.701% MACs, 2048, 512, kernel_size=(1,), stride=(1,))
        (norm1): LayerNorm(0, 0.000% Params, 0.0 Mac, 0.000% MACs, (512,), eps=1e-05, elementwise_affine=True)
        (norm2): LayerNorm(0, 0.000% Params, 0.0 Mac, 0.000% MACs, (512,), eps=1e-05, elementwise_affine=True)
        (dropout): Dropout(0, 0.000% Params, 0.0 Mac, 0.000% MACs, p=0.05, inplace=False)
      )
    )
    (norm): LayerNorm(0, 0.000% Params, 0.0 Mac, 0.000% MACs, (512,), eps=1e-05, elementwise_affine=True)
  )
  (decoder): Decoder(
    8.41 M, 57.009% Params, 1.16 GMac, 65.606% MACs, 
    (layers): ModuleList(
      8.4 M, 56.985% Params, 1.16 GMac, 65.577% MACs, 
      (0): DecoderLayer(
        4.2 M, 28.493% Params, 579.19 MMac, 32.788% MACs, 
        (self_attention): AttentionLayer(
          1.05 M, 7.126% Params, 151.0 MMac, 8.548% MACs, 
          (inner_attention): FullAttention(
            0, 0.000% Params, 0.0 Mac, 0.000% MACs, 
            (dropout): Dropout(0, 0.000% Params, 0.0 Mac, 0.000% MACs, p=0.05, inplace=False)
          )
          (query_projection): Linear(262.66 k, 1.781% Params, 37.75 MMac, 2.137% MACs, in_features=512, out_features=512, bias=True)
          (key_projection): Linear(262.66 k, 1.781% Params, 37.75 MMac, 2.137% MACs, in_features=512, out_features=512, bias=True)
          (value_projection): Linear(262.66 k, 1.781% Params, 37.75 MMac, 2.137% MACs, in_features=512, out_features=512, bias=True)
          (out_projection): Linear(262.66 k, 1.781% Params, 37.75 MMac, 2.137% MACs, in_features=512, out_features=512, bias=True)
        )
        (cross_attention): AttentionLayer(
          1.05 M, 7.126% Params, 125.83 MMac, 7.123% MACs, 
          (inner_attention): FullAttention(
            0, 0.000% Params, 0.0 Mac, 0.000% MACs, 
            (dropout): Dropout(0, 0.000% Params, 0.0 Mac, 0.000% MACs, p=0.05, inplace=False)
          )
          (query_projection): Linear(262.66 k, 1.781% Params, 37.75 MMac, 2.137% MACs, in_features=512, out_features=512, bias=True)
          (key_projection): Linear(262.66 k, 1.781% Params, 25.17 MMac, 1.425% MACs, in_features=512, out_features=512, bias=True)
          (value_projection): Linear(262.66 k, 1.781% Params, 25.17 MMac, 1.425% MACs, in_features=512, out_features=512, bias=True)
          (out_projection): Linear(262.66 k, 1.781% Params, 37.75 MMac, 2.137% MACs, in_features=512, out_features=512, bias=True)
        )
        (conv1): Conv1d(1.05 M, 7.126% Params, 151.29 MMac, 8.565% MACs, 512, 2048, kernel_size=(1,), stride=(1,))
        (conv2): Conv1d(1.05 M, 7.115% Params, 151.07 MMac, 8.552% MACs, 2048, 512, kernel_size=(1,), stride=(1,))
        (norm1): LayerNorm(0, 0.000% Params, 0.0 Mac, 0.000% MACs, (512,), eps=1e-05, elementwise_affine=True)
        (norm2): LayerNorm(0, 0.000% Params, 0.0 Mac, 0.000% MACs, (512,), eps=1e-05, elementwise_affine=True)
        (norm3): LayerNorm(0, 0.000% Params, 0.0 Mac, 0.000% MACs, (512,), eps=1e-05, elementwise_affine=True)
        (dropout): Dropout(0, 0.000% Params, 0.0 Mac, 0.000% MACs, p=0.05, inplace=False)
      )
      (1): DecoderLayer(
        4.2 M, 28.493% Params, 579.19 MMac, 32.788% MACs, 
        (self_attention): AttentionLayer(
          1.05 M, 7.126% Params, 151.0 MMac, 8.548% MACs, 
          (inner_attention): FullAttention(
            0, 0.000% Params, 0.0 Mac, 0.000% MACs, 
            (dropout): Dropout(0, 0.000% Params, 0.0 Mac, 0.000% MACs, p=0.05, inplace=False)
          )
          (query_projection): Linear(262.66 k, 1.781% Params, 37.75 MMac, 2.137% MACs, in_features=512, out_features=512, bias=True)
          (key_projection): Linear(262.66 k, 1.781% Params, 37.75 MMac, 2.137% MACs, in_features=512, out_features=512, bias=True)
          (value_projection): Linear(262.66 k, 1.781% Params, 37.75 MMac, 2.137% MACs, in_features=512, out_features=512, bias=True)
          (out_projection): Linear(262.66 k, 1.781% Params, 37.75 MMac, 2.137% MACs, in_features=512, out_features=512, bias=True)
        )
        (cross_attention): AttentionLayer(
          1.05 M, 7.126% Params, 125.83 MMac, 7.123% MACs, 
          (inner_attention): FullAttention(
            0, 0.000% Params, 0.0 Mac, 0.000% MACs, 
            (dropout): Dropout(0, 0.000% Params, 0.0 Mac, 0.000% MACs, p=0.05, inplace=False)
          )
          (query_projection): Linear(262.66 k, 1.781% Params, 37.75 MMac, 2.137% MACs, in_features=512, out_features=512, bias=True)
          (key_projection): Linear(262.66 k, 1.781% Params, 25.17 MMac, 1.425% MACs, in_features=512, out_features=512, bias=True)
          (value_projection): Linear(262.66 k, 1.781% Params, 25.17 MMac, 1.425% MACs, in_features=512, out_features=512, bias=True)
          (out_projection): Linear(262.66 k, 1.781% Params, 37.75 MMac, 2.137% MACs, in_features=512, out_features=512, bias=True)
        )
        (conv1): Conv1d(1.05 M, 7.126% Params, 151.29 MMac, 8.565% MACs, 512, 2048, kernel_size=(1,), stride=(1,))
        (conv2): Conv1d(1.05 M, 7.115% Params, 151.07 MMac, 8.552% MACs, 2048, 512, kernel_size=(1,), stride=(1,))
        (norm1): LayerNorm(0, 0.000% Params, 0.0 Mac, 0.000% MACs, (512,), eps=1e-05, elementwise_affine=True)
        (norm2): LayerNorm(0, 0.000% Params, 0.0 Mac, 0.000% MACs, (512,), eps=1e-05, elementwise_affine=True)
        (norm3): LayerNorm(0, 0.000% Params, 0.0 Mac, 0.000% MACs, (512,), eps=1e-05, elementwise_affine=True)
        (dropout): Dropout(0, 0.000% Params, 0.0 Mac, 0.000% MACs, p=0.05, inplace=False)
      )
    )
    (norm): LayerNorm(0, 0.000% Params, 0.0 Mac, 0.000% MACs, (512,), eps=1e-05, elementwise_affine=True)
    (projection): Linear(3.59 k, 0.024% Params, 516.1 KMac, 0.029% MACs, in_features=512, out_features=7, bias=True)
  )
)
Computational complexity:       1.77 GMac
Number of parameters:           14.74 M 
