…
INFO: Trainable parameter count: 15.70M
INFO: Trainable parameter count: 15.70M
INFO: Trainable parameter count: 15.70M
INFO: Trainable parameter count: 15.70M
INFO: Trainable parameter count: 15.70M
INFO: Trainable parameter count: 15.70M
INFO: Trainable parameter count: 15.71M
INFO: Trainable parameter count: 15.87M
INFO: Trainable parameter count: 15.87M
Model(
  15.86 M, 99.923% Params, 1.91 GMac, 100.000% MACs, 
  (enc_embedding): DataEmbedding(
    495.1 k, 3.120% Params, 47.53 MMac, 2.495% MACs, 
    (value_embedding): TokenEmbedding(
      493.06 k, 3.107% Params, 47.33 MMac, 2.484% MACs, 
      (tokenConv): Conv1d(493.06 k, 3.107% Params, 47.33 MMac, 2.484% MACs, 321, 512, kernel_size=(3,), stride=(1,), padding=(1,), bias=False, padding_mode=circular)
    )
    (position_embedding): PositionalEmbedding(0, 0.000% Params, 0.0 Mac, 0.000% MACs, )
    (temporal_embedding): TimeFeatureEmbedding(
      2.05 k, 0.013% Params, 196.61 KMac, 0.010% MACs, 
      (embed): Linear(2.05 k, 0.013% Params, 196.61 KMac, 0.010% MACs, in_features=4, out_features=512, bias=False)
    )
    (dropout): Dropout(0, 0.000% Params, 0.0 Mac, 0.000% MACs, p=0.05, inplace=False)
  )
  (dec_embedding): DataEmbedding(
    495.1 k, 3.120% Params, 71.29 MMac, 3.742% MACs, 
    (value_embedding): TokenEmbedding(
      493.06 k, 3.107% Params, 71.0 MMac, 3.726% MACs, 
      (tokenConv): Conv1d(493.06 k, 3.107% Params, 71.0 MMac, 3.726% MACs, 321, 512, kernel_size=(3,), stride=(1,), padding=(1,), bias=False, padding_mode=circular)
    )
    (position_embedding): PositionalEmbedding(0, 0.000% Params, 0.0 Mac, 0.000% MACs, )
    (temporal_embedding): TimeFeatureEmbedding(
      2.05 k, 0.013% Params, 294.91 KMac, 0.015% MACs, 
      (embed): Linear(2.05 k, 0.013% Params, 294.91 KMac, 0.015% MACs, in_features=4, out_features=512, bias=False)
    )
    (dropout): Dropout(0, 0.000% Params, 0.0 Mac, 0.000% MACs, p=0.05, inplace=False)
  )
  (encoder): Encoder(
    6.3 M, 39.702% Params, 604.48 MMac, 31.725% MACs, 
    (attn_layers): ModuleList(
      6.3 M, 39.702% Params, 604.48 MMac, 31.725% MACs, 
      (0): EncoderLayer(
        3.15 M, 19.851% Params, 302.24 MMac, 15.863% MACs, 
        (attention): AttentionLayer(
          1.05 M, 6.620% Params, 100.67 MMac, 5.283% MACs, 
          (inner_attention): FullAttention(
            0, 0.000% Params, 0.0 Mac, 0.000% MACs, 
            (dropout): Dropout(0, 0.000% Params, 0.0 Mac, 0.000% MACs, p=0.05, inplace=False)
          )
          (query_projection): Linear(262.66 k, 1.655% Params, 25.17 MMac, 1.321% MACs, in_features=512, out_features=512, bias=True)
          (key_projection): Linear(262.66 k, 1.655% Params, 25.17 MMac, 1.321% MACs, in_features=512, out_features=512, bias=True)
          (value_projection): Linear(262.66 k, 1.655% Params, 25.17 MMac, 1.321% MACs, in_features=512, out_features=512, bias=True)
          (out_projection): Linear(262.66 k, 1.655% Params, 25.17 MMac, 1.321% MACs, in_features=512, out_features=512, bias=True)
        )
        (conv1): Conv1d(1.05 M, 6.620% Params, 100.86 MMac, 5.294% MACs, 512, 2048, kernel_size=(1,), stride=(1,))
        (conv2): Conv1d(1.05 M, 6.611% Params, 100.71 MMac, 5.286% MACs, 2048, 512, kernel_size=(1,), stride=(1,))
        (norm1): LayerNorm(0, 0.000% Params, 0.0 Mac, 0.000% MACs, (512,), eps=1e-05, elementwise_affine=True)
        (norm2): LayerNorm(0, 0.000% Params, 0.0 Mac, 0.000% MACs, (512,), eps=1e-05, elementwise_affine=True)
        (dropout): Dropout(0, 0.000% Params, 0.0 Mac, 0.000% MACs, p=0.05, inplace=False)
      )
      (1): EncoderLayer(
        3.15 M, 19.851% Params, 302.24 MMac, 15.863% MACs, 
        (attention): AttentionLayer(
          1.05 M, 6.620% Params, 100.67 MMac, 5.283% MACs, 
          (inner_attention): FullAttention(
            0, 0.000% Params, 0.0 Mac, 0.000% MACs, 
            (dropout): Dropout(0, 0.000% Params, 0.0 Mac, 0.000% MACs, p=0.05, inplace=False)
          )
          (query_projection): Linear(262.66 k, 1.655% Params, 25.17 MMac, 1.321% MACs, in_features=512, out_features=512, bias=True)
          (key_projection): Linear(262.66 k, 1.655% Params, 25.17 MMac, 1.321% MACs, in_features=512, out_features=512, bias=True)
          (value_projection): Linear(262.66 k, 1.655% Params, 25.17 MMac, 1.321% MACs, in_features=512, out_features=512, bias=True)
          (out_projection): Linear(262.66 k, 1.655% Params, 25.17 MMac, 1.321% MACs, in_features=512, out_features=512, bias=True)
        )
        (conv1): Conv1d(1.05 M, 6.620% Params, 100.86 MMac, 5.294% MACs, 512, 2048, kernel_size=(1,), stride=(1,))
        (conv2): Conv1d(1.05 M, 6.611% Params, 100.71 MMac, 5.286% MACs, 2048, 512, kernel_size=(1,), stride=(1,))
        (norm1): LayerNorm(0, 0.000% Params, 0.0 Mac, 0.000% MACs, (512,), eps=1e-05, elementwise_affine=True)
        (norm2): LayerNorm(0, 0.000% Params, 0.0 Mac, 0.000% MACs, (512,), eps=1e-05, elementwise_affine=True)
        (dropout): Dropout(0, 0.000% Params, 0.0 Mac, 0.000% MACs, p=0.05, inplace=False)
      )
    )
    (norm): LayerNorm(0, 0.000% Params, 0.0 Mac, 0.000% MACs, (512,), eps=1e-05, elementwise_affine=True)
  )
  (decoder): Decoder(
    8.57 M, 53.981% Params, 1.18 GMac, 62.038% MACs, 
    (layers): ModuleList(
      8.4 M, 52.943% Params, 1.16 GMac, 60.796% MACs, 
      (0): DecoderLayer(
        4.2 M, 26.471% Params, 579.19 MMac, 30.398% MACs, 
        (self_attention): AttentionLayer(
          1.05 M, 6.620% Params, 151.0 MMac, 7.925% MACs, 
          (inner_attention): FullAttention(
            0, 0.000% Params, 0.0 Mac, 0.000% MACs, 
            (dropout): Dropout(0, 0.000% Params, 0.0 Mac, 0.000% MACs, p=0.05, inplace=False)
          )
          (query_projection): Linear(262.66 k, 1.655% Params, 37.75 MMac, 1.981% MACs, in_features=512, out_features=512, bias=True)
          (key_projection): Linear(262.66 k, 1.655% Params, 37.75 MMac, 1.981% MACs, in_features=512, out_features=512, bias=True)
          (value_projection): Linear(262.66 k, 1.655% Params, 37.75 MMac, 1.981% MACs, in_features=512, out_features=512, bias=True)
          (out_projection): Linear(262.66 k, 1.655% Params, 37.75 MMac, 1.981% MACs, in_features=512, out_features=512, bias=True)
        )
        (cross_attention): AttentionLayer(
          1.05 M, 6.620% Params, 125.83 MMac, 6.604% MACs, 
          (inner_attention): FullAttention(
            0, 0.000% Params, 0.0 Mac, 0.000% MACs, 
            (dropout): Dropout(0, 0.000% Params, 0.0 Mac, 0.000% MACs, p=0.05, inplace=False)
          )
          (query_projection): Linear(262.66 k, 1.655% Params, 37.75 MMac, 1.981% MACs, in_features=512, out_features=512, bias=True)
          (key_projection): Linear(262.66 k, 1.655% Params, 25.17 MMac, 1.321% MACs, in_features=512, out_features=512, bias=True)
          (value_projection): Linear(262.66 k, 1.655% Params, 25.17 MMac, 1.321% MACs, in_features=512, out_features=512, bias=True)
          (out_projection): Linear(262.66 k, 1.655% Params, 37.75 MMac, 1.981% MACs, in_features=512, out_features=512, bias=True)
        )
        (conv1): Conv1d(1.05 M, 6.620% Params, 151.29 MMac, 7.940% MACs, 512, 2048, kernel_size=(1,), stride=(1,))
        (conv2): Conv1d(1.05 M, 6.611% Params, 151.07 MMac, 7.929% MACs, 2048, 512, kernel_size=(1,), stride=(1,))
        (norm1): LayerNorm(0, 0.000% Params, 0.0 Mac, 0.000% MACs, (512,), eps=1e-05, elementwise_affine=True)
        (norm2): LayerNorm(0, 0.000% Params, 0.0 Mac, 0.000% MACs, (512,), eps=1e-05, elementwise_affine=True)
        (norm3): LayerNorm(0, 0.000% Params, 0.0 Mac, 0.000% MACs, (512,), eps=1e-05, elementwise_affine=True)
        (dropout): Dropout(0, 0.000% Params, 0.0 Mac, 0.000% MACs, p=0.05, inplace=False)
      )
      (1): DecoderLayer(
        4.2 M, 26.471% Params, 579.19 MMac, 30.398% MACs, 
        (self_attention): AttentionLayer(
          1.05 M, 6.620% Params, 151.0 MMac, 7.925% MACs, 
          (inner_attention): FullAttention(
            0, 0.000% Params, 0.0 Mac, 0.000% MACs, 
            (dropout): Dropout(0, 0.000% Params, 0.0 Mac, 0.000% MACs, p=0.05, inplace=False)
          )
          (query_projection): Linear(262.66 k, 1.655% Params, 37.75 MMac, 1.981% MACs, in_features=512, out_features=512, bias=True)
          (key_projection): Linear(262.66 k, 1.655% Params, 37.75 MMac, 1.981% MACs, in_features=512, out_features=512, bias=True)
          (value_projection): Linear(262.66 k, 1.655% Params, 37.75 MMac, 1.981% MACs, in_features=512, out_features=512, bias=True)
          (out_projection): Linear(262.66 k, 1.655% Params, 37.75 MMac, 1.981% MACs, in_features=512, out_features=512, bias=True)
        )
        (cross_attention): AttentionLayer(
          1.05 M, 6.620% Params, 125.83 MMac, 6.604% MACs, 
          (inner_attention): FullAttention(
            0, 0.000% Params, 0.0 Mac, 0.000% MACs, 
            (dropout): Dropout(0, 0.000% Params, 0.0 Mac, 0.000% MACs, p=0.05, inplace=False)
          )
          (query_projection): Linear(262.66 k, 1.655% Params, 37.75 MMac, 1.981% MACs, in_features=512, out_features=512, bias=True)
          (key_projection): Linear(262.66 k, 1.655% Params, 25.17 MMac, 1.321% MACs, in_features=512, out_features=512, bias=True)
          (value_projection): Linear(262.66 k, 1.655% Params, 25.17 MMac, 1.321% MACs, in_features=512, out_features=512, bias=True)
          (out_projection): Linear(262.66 k, 1.655% Params, 37.75 MMac, 1.981% MACs, in_features=512, out_features=512, bias=True)
        )
        (conv1): Conv1d(1.05 M, 6.620% Params, 151.29 MMac, 7.940% MACs, 512, 2048, kernel_size=(1,), stride=(1,))
        (conv2): Conv1d(1.05 M, 6.611% Params, 151.07 MMac, 7.929% MACs, 2048, 512, kernel_size=(1,), stride=(1,))
        (norm1): LayerNorm(0, 0.000% Params, 0.0 Mac, 0.000% MACs, (512,), eps=1e-05, elementwise_affine=True)
        (norm2): LayerNorm(0, 0.000% Params, 0.0 Mac, 0.000% MACs, (512,), eps=1e-05, elementwise_affine=True)
        (norm3): LayerNorm(0, 0.000% Params, 0.0 Mac, 0.000% MACs, (512,), eps=1e-05, elementwise_affine=True)
        (dropout): Dropout(0, 0.000% Params, 0.0 Mac, 0.000% MACs, p=0.05, inplace=False)
      )
    )
    (norm): LayerNorm(0, 0.000% Params, 0.0 Mac, 0.000% MACs, (512,), eps=1e-05, elementwise_affine=True)
    (projection): Linear(164.67 k, 1.038% Params, 23.67 MMac, 1.242% MACs, in_features=512, out_features=321, bias=True)
  )
)
Computational complexity:       1.91 GMac
Number of parameters:           15.87 M 
