…
INFO: Trainable parameter count: 11.59M
INFO: Trainable parameter count: 11.59M
INFO: Trainable parameter count: 11.59M
INFO: Trainable parameter count: 11.59M
INFO: Trainable parameter count: 11.59M
INFO: Trainable parameter count: 11.59M
INFO: Trainable parameter count: 11.59M
INFO: Trainable parameter count: 11.59M
INFO: Trainable parameter count: 11.59M
Model(
  11.58 M, 99.912% Params, 1.46 GMac, 100.000% MACs, 
  (enc_embedding): DataEmbedding(
    12.8 k, 0.110% Params, 1.23 MMac, 0.084% MACs, 
    (value_embedding): TokenEmbedding(
      10.75 k, 0.093% Params, 1.03 MMac, 0.070% MACs, 
      (tokenConv): Conv1d(10.75 k, 0.093% Params, 1.03 MMac, 0.070% MACs, 7, 512, kernel_size=(3,), stride=(1,), padding=(1,), bias=False, padding_mode=circular)
    )
    (position_embedding): PositionalEmbedding(0, 0.000% Params, 0.0 Mac, 0.000% MACs, )
    (temporal_embedding): TimeFeatureEmbedding(
      2.05 k, 0.018% Params, 196.61 KMac, 0.013% MACs, 
      (embed): Linear(2.05 k, 0.018% Params, 196.61 KMac, 0.013% MACs, in_features=4, out_features=512, bias=False)
    )
    (dropout): Dropout(0, 0.000% Params, 0.0 Mac, 0.000% MACs, p=0.05, inplace=False)
  )
  (dec_embedding): DataEmbedding(
    12.8 k, 0.110% Params, 1.84 MMac, 0.126% MACs, 
    (value_embedding): TokenEmbedding(
      10.75 k, 0.093% Params, 1.55 MMac, 0.106% MACs, 
      (tokenConv): Conv1d(10.75 k, 0.093% Params, 1.55 MMac, 0.106% MACs, 7, 512, kernel_size=(3,), stride=(1,), padding=(1,), bias=False, padding_mode=circular)
    )
    (position_embedding): PositionalEmbedding(0, 0.000% Params, 0.0 Mac, 0.000% MACs, )
    (temporal_embedding): TimeFeatureEmbedding(
      2.05 k, 0.018% Params, 294.91 KMac, 0.020% MACs, 
      (embed): Linear(2.05 k, 0.018% Params, 294.91 KMac, 0.020% MACs, in_features=4, out_features=512, bias=False)
    )
    (dropout): Dropout(0, 0.000% Params, 0.0 Mac, 0.000% MACs, p=0.05, inplace=False)
  )
  (encoder): Encoder(
    3.15 M, 27.178% Params, 302.24 MMac, 20.642% MACs, 
    (attn_layers): ModuleList(
      3.15 M, 27.178% Params, 302.24 MMac, 20.642% MACs, 
      (0): EncoderLayer(
        3.15 M, 27.178% Params, 302.24 MMac, 20.642% MACs, 
        (attention): AttentionLayer(
          1.05 M, 9.064% Params, 100.67 MMac, 6.875% MACs, 
          (inner_attention): FullAttention(
            0, 0.000% Params, 0.0 Mac, 0.000% MACs, 
            (dropout): Dropout(0, 0.000% Params, 0.0 Mac, 0.000% MACs, p=0.05, inplace=False)
          )
          (query_projection): Linear(262.66 k, 2.266% Params, 25.17 MMac, 1.719% MACs, in_features=512, out_features=512, bias=True)
          (key_projection): Linear(262.66 k, 2.266% Params, 25.17 MMac, 1.719% MACs, in_features=512, out_features=512, bias=True)
          (value_projection): Linear(262.66 k, 2.266% Params, 25.17 MMac, 1.719% MACs, in_features=512, out_features=512, bias=True)
          (out_projection): Linear(262.66 k, 2.266% Params, 25.17 MMac, 1.719% MACs, in_features=512, out_features=512, bias=True)
        )
        (conv1): Conv1d(1.05 M, 9.064% Params, 100.86 MMac, 6.888% MACs, 512, 2048, kernel_size=(1,), stride=(1,))
        (conv2): Conv1d(1.05 M, 9.050% Params, 100.71 MMac, 6.878% MACs, 2048, 512, kernel_size=(1,), stride=(1,))
        (norm1): LayerNorm(0, 0.000% Params, 0.0 Mac, 0.000% MACs, (512,), eps=1e-05, elementwise_affine=True)
        (norm2): LayerNorm(0, 0.000% Params, 0.0 Mac, 0.000% MACs, (512,), eps=1e-05, elementwise_affine=True)
        (dropout): Dropout(0, 0.000% Params, 0.0 Mac, 0.000% MACs, p=0.05, inplace=False)
      )
    )
    (norm): LayerNorm(0, 0.000% Params, 0.0 Mac, 0.000% MACs, (512,), eps=1e-05, elementwise_affine=True)
  )
  (decoder): Decoder(
    8.41 M, 72.513% Params, 1.16 GMac, 79.148% MACs, 
    (layers): ModuleList(
      8.4 M, 72.482% Params, 1.16 GMac, 79.113% MACs, 
      (0): DecoderLayer(
        4.2 M, 36.241% Params, 579.19 MMac, 39.557% MACs, 
        (self_attention): AttentionLayer(
          1.05 M, 9.064% Params, 151.0 MMac, 10.313% MACs, 
          (inner_attention): FullAttention(
            0, 0.000% Params, 0.0 Mac, 0.000% MACs, 
            (dropout): Dropout(0, 0.000% Params, 0.0 Mac, 0.000% MACs, p=0.05, inplace=False)
          )
          (query_projection): Linear(262.66 k, 2.266% Params, 37.75 MMac, 2.578% MACs, in_features=512, out_features=512, bias=True)
          (key_projection): Linear(262.66 k, 2.266% Params, 37.75 MMac, 2.578% MACs, in_features=512, out_features=512, bias=True)
          (value_projection): Linear(262.66 k, 2.266% Params, 37.75 MMac, 2.578% MACs, in_features=512, out_features=512, bias=True)
          (out_projection): Linear(262.66 k, 2.266% Params, 37.75 MMac, 2.578% MACs, in_features=512, out_features=512, bias=True)
        )
        (cross_attention): AttentionLayer(
          1.05 M, 9.064% Params, 125.83 MMac, 8.594% MACs, 
          (inner_attention): FullAttention(
            0, 0.000% Params, 0.0 Mac, 0.000% MACs, 
            (dropout): Dropout(0, 0.000% Params, 0.0 Mac, 0.000% MACs, p=0.05, inplace=False)
          )
          (query_projection): Linear(262.66 k, 2.266% Params, 37.75 MMac, 2.578% MACs, in_features=512, out_features=512, bias=True)
          (key_projection): Linear(262.66 k, 2.266% Params, 25.17 MMac, 1.719% MACs, in_features=512, out_features=512, bias=True)
          (value_projection): Linear(262.66 k, 2.266% Params, 25.17 MMac, 1.719% MACs, in_features=512, out_features=512, bias=True)
          (out_projection): Linear(262.66 k, 2.266% Params, 37.75 MMac, 2.578% MACs, in_features=512, out_features=512, bias=True)
        )
        (conv1): Conv1d(1.05 M, 9.064% Params, 151.29 MMac, 10.333% MACs, 512, 2048, kernel_size=(1,), stride=(1,))
        (conv2): Conv1d(1.05 M, 9.050% Params, 151.07 MMac, 10.317% MACs, 2048, 512, kernel_size=(1,), stride=(1,))
        (norm1): LayerNorm(0, 0.000% Params, 0.0 Mac, 0.000% MACs, (512,), eps=1e-05, elementwise_affine=True)
        (norm2): LayerNorm(0, 0.000% Params, 0.0 Mac, 0.000% MACs, (512,), eps=1e-05, elementwise_affine=True)
        (norm3): LayerNorm(0, 0.000% Params, 0.0 Mac, 0.000% MACs, (512,), eps=1e-05, elementwise_affine=True)
        (dropout): Dropout(0, 0.000% Params, 0.0 Mac, 0.000% MACs, p=0.05, inplace=False)
      )
      (1): DecoderLayer(
        4.2 M, 36.241% Params, 579.19 MMac, 39.557% MACs, 
        (self_attention): AttentionLayer(
          1.05 M, 9.064% Params, 151.0 MMac, 10.313% MACs, 
          (inner_attention): FullAttention(
            0, 0.000% Params, 0.0 Mac, 0.000% MACs, 
            (dropout): Dropout(0, 0.000% Params, 0.0 Mac, 0.000% MACs, p=0.05, inplace=False)
          )
          (query_projection): Linear(262.66 k, 2.266% Params, 37.75 MMac, 2.578% MACs, in_features=512, out_features=512, bias=True)
          (key_projection): Linear(262.66 k, 2.266% Params, 37.75 MMac, 2.578% MACs, in_features=512, out_features=512, bias=True)
          (value_projection): Linear(262.66 k, 2.266% Params, 37.75 MMac, 2.578% MACs, in_features=512, out_features=512, bias=True)
          (out_projection): Linear(262.66 k, 2.266% Params, 37.75 MMac, 2.578% MACs, in_features=512, out_features=512, bias=True)
        )
        (cross_attention): AttentionLayer(
          1.05 M, 9.064% Params, 125.83 MMac, 8.594% MACs, 
          (inner_attention): FullAttention(
            0, 0.000% Params, 0.0 Mac, 0.000% MACs, 
            (dropout): Dropout(0, 0.000% Params, 0.0 Mac, 0.000% MACs, p=0.05, inplace=False)
          )
          (query_projection): Linear(262.66 k, 2.266% Params, 37.75 MMac, 2.578% MACs, in_features=512, out_features=512, bias=True)
          (key_projection): Linear(262.66 k, 2.266% Params, 25.17 MMac, 1.719% MACs, in_features=512, out_features=512, bias=True)
          (value_projection): Linear(262.66 k, 2.266% Params, 25.17 MMac, 1.719% MACs, in_features=512, out_features=512, bias=True)
          (out_projection): Linear(262.66 k, 2.266% Params, 37.75 MMac, 2.578% MACs, in_features=512, out_features=512, bias=True)
        )
        (conv1): Conv1d(1.05 M, 9.064% Params, 151.29 MMac, 10.333% MACs, 512, 2048, kernel_size=(1,), stride=(1,))
        (conv2): Conv1d(1.05 M, 9.050% Params, 151.07 MMac, 10.317% MACs, 2048, 512, kernel_size=(1,), stride=(1,))
        (norm1): LayerNorm(0, 0.000% Params, 0.0 Mac, 0.000% MACs, (512,), eps=1e-05, elementwise_affine=True)
        (norm2): LayerNorm(0, 0.000% Params, 0.0 Mac, 0.000% MACs, (512,), eps=1e-05, elementwise_affine=True)
        (norm3): LayerNorm(0, 0.000% Params, 0.0 Mac, 0.000% MACs, (512,), eps=1e-05, elementwise_affine=True)
        (dropout): Dropout(0, 0.000% Params, 0.0 Mac, 0.000% MACs, p=0.05, inplace=False)
      )
    )
    (norm): LayerNorm(0, 0.000% Params, 0.0 Mac, 0.000% MACs, (512,), eps=1e-05, elementwise_affine=True)
    (projection): Linear(3.59 k, 0.031% Params, 516.1 KMac, 0.035% MACs, in_features=512, out_features=7, bias=True)
  )
)
Computational complexity:       1.46 GMac
Number of parameters:           11.59 M 
