…
INFO: Trainable parameter count: 15.79M
INFO: Trainable parameter count: 15.79M
INFO: Trainable parameter count: 15.79M
INFO: Trainable parameter count: 15.79M
INFO: Trainable parameter count: 15.79M
INFO: Trainable parameter count: 15.79M
INFO: Trainable parameter count: 15.79M
INFO: Trainable parameter count: 15.80M
INFO: Trainable parameter count: 15.80M
Model(
  15.78 M, 99.916% Params, 2.04 GMac, 100.000% MACs, 
  (enc_embedding): DataEmbedding(
    12.8 k, 0.081% Params, 1.23 MMac, 0.060% MACs, 
    (value_embedding): TokenEmbedding(
      10.75 k, 0.068% Params, 1.03 MMac, 0.051% MACs, 
      (tokenConv): Conv1d(10.75 k, 0.068% Params, 1.03 MMac, 0.051% MACs, 7, 512, kernel_size=(3,), stride=(1,), padding=(1,), bias=False, padding_mode=circular)
    )
    (position_embedding): PositionalEmbedding(0, 0.000% Params, 0.0 Mac, 0.000% MACs, )
    (temporal_embedding): TimeFeatureEmbedding(
      2.05 k, 0.013% Params, 196.61 KMac, 0.010% MACs, 
      (embed): Linear(2.05 k, 0.013% Params, 196.61 KMac, 0.010% MACs, in_features=4, out_features=512, bias=False)
    )
    (dropout): Dropout(0, 0.000% Params, 0.0 Mac, 0.000% MACs, p=0.05, inplace=False)
  )
  (dec_embedding): DataEmbedding(
    12.8 k, 0.081% Params, 1.84 MMac, 0.090% MACs, 
    (value_embedding): TokenEmbedding(
      10.75 k, 0.068% Params, 1.55 MMac, 0.076% MACs, 
      (tokenConv): Conv1d(10.75 k, 0.068% Params, 1.55 MMac, 0.076% MACs, 7, 512, kernel_size=(3,), stride=(1,), padding=(1,), bias=False, padding_mode=circular)
    )
    (position_embedding): PositionalEmbedding(0, 0.000% Params, 0.0 Mac, 0.000% MACs, )
    (temporal_embedding): TimeFeatureEmbedding(
      2.05 k, 0.013% Params, 294.91 KMac, 0.014% MACs, 
      (embed): Linear(2.05 k, 0.013% Params, 294.91 KMac, 0.014% MACs, in_features=4, out_features=512, bias=False)
    )
    (dropout): Dropout(0, 0.000% Params, 0.0 Mac, 0.000% MACs, p=0.05, inplace=False)
  )
  (encoder): Encoder(
    3.15 M, 19.944% Params, 302.24 MMac, 14.791% MACs, 
    (attn_layers): ModuleList(
      3.15 M, 19.944% Params, 302.24 MMac, 14.791% MACs, 
      (0): EncoderLayer(
        3.15 M, 19.944% Params, 302.24 MMac, 14.791% MACs, 
        (attention): AttentionLayer(
          1.05 M, 6.651% Params, 100.67 MMac, 4.926% MACs, 
          (inner_attention): FullAttention(
            0, 0.000% Params, 0.0 Mac, 0.000% MACs, 
            (dropout): Dropout(0, 0.000% Params, 0.0 Mac, 0.000% MACs, p=0.05, inplace=False)
          )
          (query_projection): Linear(262.66 k, 1.663% Params, 25.17 MMac, 1.232% MACs, in_features=512, out_features=512, bias=True)
          (key_projection): Linear(262.66 k, 1.663% Params, 25.17 MMac, 1.232% MACs, in_features=512, out_features=512, bias=True)
          (value_projection): Linear(262.66 k, 1.663% Params, 25.17 MMac, 1.232% MACs, in_features=512, out_features=512, bias=True)
          (out_projection): Linear(262.66 k, 1.663% Params, 25.17 MMac, 1.232% MACs, in_features=512, out_features=512, bias=True)
        )
        (conv1): Conv1d(1.05 M, 6.651% Params, 100.86 MMac, 4.936% MACs, 512, 2048, kernel_size=(1,), stride=(1,))
        (conv2): Conv1d(1.05 M, 6.642% Params, 100.71 MMac, 4.929% MACs, 2048, 512, kernel_size=(1,), stride=(1,))
        (norm1): LayerNorm(0, 0.000% Params, 0.0 Mac, 0.000% MACs, (512,), eps=1e-05, elementwise_affine=True)
        (norm2): LayerNorm(0, 0.000% Params, 0.0 Mac, 0.000% MACs, (512,), eps=1e-05, elementwise_affine=True)
        (dropout): Dropout(0, 0.000% Params, 0.0 Mac, 0.000% MACs, p=0.05, inplace=False)
      )
    )
    (norm): LayerNorm(0, 0.000% Params, 0.0 Mac, 0.000% MACs, (512,), eps=1e-05, elementwise_affine=True)
  )
  (decoder): Decoder(
    12.61 M, 79.809% Params, 1.74 GMac, 85.059% MACs, 
    (layers): ModuleList(
      12.6 M, 79.787% Params, 1.74 GMac, 85.033% MACs, 
      (0): DecoderLayer(
        4.2 M, 26.596% Params, 579.19 MMac, 28.344% MACs, 
        (self_attention): AttentionLayer(
          1.05 M, 6.651% Params, 151.0 MMac, 7.390% MACs, 
          (inner_attention): FullAttention(
            0, 0.000% Params, 0.0 Mac, 0.000% MACs, 
            (dropout): Dropout(0, 0.000% Params, 0.0 Mac, 0.000% MACs, p=0.05, inplace=False)
          )
          (query_projection): Linear(262.66 k, 1.663% Params, 37.75 MMac, 1.847% MACs, in_features=512, out_features=512, bias=True)
          (key_projection): Linear(262.66 k, 1.663% Params, 37.75 MMac, 1.847% MACs, in_features=512, out_features=512, bias=True)
          (value_projection): Linear(262.66 k, 1.663% Params, 37.75 MMac, 1.847% MACs, in_features=512, out_features=512, bias=True)
          (out_projection): Linear(262.66 k, 1.663% Params, 37.75 MMac, 1.847% MACs, in_features=512, out_features=512, bias=True)
        )
        (cross_attention): AttentionLayer(
          1.05 M, 6.651% Params, 125.83 MMac, 6.158% MACs, 
          (inner_attention): FullAttention(
            0, 0.000% Params, 0.0 Mac, 0.000% MACs, 
            (dropout): Dropout(0, 0.000% Params, 0.0 Mac, 0.000% MACs, p=0.05, inplace=False)
          )
          (query_projection): Linear(262.66 k, 1.663% Params, 37.75 MMac, 1.847% MACs, in_features=512, out_features=512, bias=True)
          (key_projection): Linear(262.66 k, 1.663% Params, 25.17 MMac, 1.232% MACs, in_features=512, out_features=512, bias=True)
          (value_projection): Linear(262.66 k, 1.663% Params, 25.17 MMac, 1.232% MACs, in_features=512, out_features=512, bias=True)
          (out_projection): Linear(262.66 k, 1.663% Params, 37.75 MMac, 1.847% MACs, in_features=512, out_features=512, bias=True)
        )
        (conv1): Conv1d(1.05 M, 6.651% Params, 151.29 MMac, 7.404% MACs, 512, 2048, kernel_size=(1,), stride=(1,))
        (conv2): Conv1d(1.05 M, 6.642% Params, 151.07 MMac, 7.393% MACs, 2048, 512, kernel_size=(1,), stride=(1,))
        (norm1): LayerNorm(0, 0.000% Params, 0.0 Mac, 0.000% MACs, (512,), eps=1e-05, elementwise_affine=True)
        (norm2): LayerNorm(0, 0.000% Params, 0.0 Mac, 0.000% MACs, (512,), eps=1e-05, elementwise_affine=True)
        (norm3): LayerNorm(0, 0.000% Params, 0.0 Mac, 0.000% MACs, (512,), eps=1e-05, elementwise_affine=True)
        (dropout): Dropout(0, 0.000% Params, 0.0 Mac, 0.000% MACs, p=0.05, inplace=False)
      )
      (1): DecoderLayer(
        4.2 M, 26.596% Params, 579.19 MMac, 28.344% MACs, 
        (self_attention): AttentionLayer(
          1.05 M, 6.651% Params, 151.0 MMac, 7.390% MACs, 
          (inner_attention): FullAttention(
            0, 0.000% Params, 0.0 Mac, 0.000% MACs, 
            (dropout): Dropout(0, 0.000% Params, 0.0 Mac, 0.000% MACs, p=0.05, inplace=False)
          )
          (query_projection): Linear(262.66 k, 1.663% Params, 37.75 MMac, 1.847% MACs, in_features=512, out_features=512, bias=True)
          (key_projection): Linear(262.66 k, 1.663% Params, 37.75 MMac, 1.847% MACs, in_features=512, out_features=512, bias=True)
          (value_projection): Linear(262.66 k, 1.663% Params, 37.75 MMac, 1.847% MACs, in_features=512, out_features=512, bias=True)
          (out_projection): Linear(262.66 k, 1.663% Params, 37.75 MMac, 1.847% MACs, in_features=512, out_features=512, bias=True)
        )
        (cross_attention): AttentionLayer(
          1.05 M, 6.651% Params, 125.83 MMac, 6.158% MACs, 
          (inner_attention): FullAttention(
            0, 0.000% Params, 0.0 Mac, 0.000% MACs, 
            (dropout): Dropout(0, 0.000% Params, 0.0 Mac, 0.000% MACs, p=0.05, inplace=False)
          )
          (query_projection): Linear(262.66 k, 1.663% Params, 37.75 MMac, 1.847% MACs, in_features=512, out_features=512, bias=True)
          (key_projection): Linear(262.66 k, 1.663% Params, 25.17 MMac, 1.232% MACs, in_features=512, out_features=512, bias=True)
          (value_projection): Linear(262.66 k, 1.663% Params, 25.17 MMac, 1.232% MACs, in_features=512, out_features=512, bias=True)
          (out_projection): Linear(262.66 k, 1.663% Params, 37.75 MMac, 1.847% MACs, in_features=512, out_features=512, bias=True)
        )
        (conv1): Conv1d(1.05 M, 6.651% Params, 151.29 MMac, 7.404% MACs, 512, 2048, kernel_size=(1,), stride=(1,))
        (conv2): Conv1d(1.05 M, 6.642% Params, 151.07 MMac, 7.393% MACs, 2048, 512, kernel_size=(1,), stride=(1,))
        (norm1): LayerNorm(0, 0.000% Params, 0.0 Mac, 0.000% MACs, (512,), eps=1e-05, elementwise_affine=True)
        (norm2): LayerNorm(0, 0.000% Params, 0.0 Mac, 0.000% MACs, (512,), eps=1e-05, elementwise_affine=True)
        (norm3): LayerNorm(0, 0.000% Params, 0.0 Mac, 0.000% MACs, (512,), eps=1e-05, elementwise_affine=True)
        (dropout): Dropout(0, 0.000% Params, 0.0 Mac, 0.000% MACs, p=0.05, inplace=False)
      )
      (2): DecoderLayer(
        4.2 M, 26.596% Params, 579.19 MMac, 28.344% MACs, 
        (self_attention): AttentionLayer(
          1.05 M, 6.651% Params, 151.0 MMac, 7.390% MACs, 
          (inner_attention): FullAttention(
            0, 0.000% Params, 0.0 Mac, 0.000% MACs, 
            (dropout): Dropout(0, 0.000% Params, 0.0 Mac, 0.000% MACs, p=0.05, inplace=False)
          )
          (query_projection): Linear(262.66 k, 1.663% Params, 37.75 MMac, 1.847% MACs, in_features=512, out_features=512, bias=True)
          (key_projection): Linear(262.66 k, 1.663% Params, 37.75 MMac, 1.847% MACs, in_features=512, out_features=512, bias=True)
          (value_projection): Linear(262.66 k, 1.663% Params, 37.75 MMac, 1.847% MACs, in_features=512, out_features=512, bias=True)
          (out_projection): Linear(262.66 k, 1.663% Params, 37.75 MMac, 1.847% MACs, in_features=512, out_features=512, bias=True)
        )
        (cross_attention): AttentionLayer(
          1.05 M, 6.651% Params, 125.83 MMac, 6.158% MACs, 
          (inner_attention): FullAttention(
            0, 0.000% Params, 0.0 Mac, 0.000% MACs, 
            (dropout): Dropout(0, 0.000% Params, 0.0 Mac, 0.000% MACs, p=0.05, inplace=False)
          )
          (query_projection): Linear(262.66 k, 1.663% Params, 37.75 MMac, 1.847% MACs, in_features=512, out_features=512, bias=True)
          (key_projection): Linear(262.66 k, 1.663% Params, 25.17 MMac, 1.232% MACs, in_features=512, out_features=512, bias=True)
          (value_projection): Linear(262.66 k, 1.663% Params, 25.17 MMac, 1.232% MACs, in_features=512, out_features=512, bias=True)
          (out_projection): Linear(262.66 k, 1.663% Params, 37.75 MMac, 1.847% MACs, in_features=512, out_features=512, bias=True)
        )
        (conv1): Conv1d(1.05 M, 6.651% Params, 151.29 MMac, 7.404% MACs, 512, 2048, kernel_size=(1,), stride=(1,))
        (conv2): Conv1d(1.05 M, 6.642% Params, 151.07 MMac, 7.393% MACs, 2048, 512, kernel_size=(1,), stride=(1,))
        (norm1): LayerNorm(0, 0.000% Params, 0.0 Mac, 0.000% MACs, (512,), eps=1e-05, elementwise_affine=True)
        (norm2): LayerNorm(0, 0.000% Params, 0.0 Mac, 0.000% MACs, (512,), eps=1e-05, elementwise_affine=True)
        (norm3): LayerNorm(0, 0.000% Params, 0.0 Mac, 0.000% MACs, (512,), eps=1e-05, elementwise_affine=True)
        (dropout): Dropout(0, 0.000% Params, 0.0 Mac, 0.000% MACs, p=0.05, inplace=False)
      )
    )
    (norm): LayerNorm(0, 0.000% Params, 0.0 Mac, 0.000% MACs, (512,), eps=1e-05, elementwise_affine=True)
    (projection): Linear(3.59 k, 0.023% Params, 516.1 KMac, 0.025% MACs, in_features=512, out_features=7, bias=True)
  )
)
Computational complexity:       2.04 GMac
Number of parameters:           15.8 M  
