…
INFO: Trainable parameter count: 22.09M
INFO: Trainable parameter count: 22.09M
INFO: Trainable parameter count: 22.09M
INFO: Trainable parameter count: 22.10M
INFO: Trainable parameter count: 22.10M
INFO: Trainable parameter count: 22.10M
INFO: Trainable parameter count: 22.10M
INFO: Trainable parameter count: 22.10M
INFO: Trainable parameter count: 22.10M
Model(
  22.08 M, 99.921% Params, 2.65 GMac, 100.000% MACs, 
  (enc_embedding): DataEmbedding(
    12.8 k, 0.058% Params, 1.23 MMac, 0.046% MACs, 
    (value_embedding): TokenEmbedding(
      10.75 k, 0.049% Params, 1.03 MMac, 0.039% MACs, 
      (tokenConv): Conv1d(10.75 k, 0.049% Params, 1.03 MMac, 0.039% MACs, 7, 512, kernel_size=(3,), stride=(1,), padding=(1,), bias=False, padding_mode=circular)
    )
    (position_embedding): PositionalEmbedding(0, 0.000% Params, 0.0 Mac, 0.000% MACs, )
    (temporal_embedding): TimeFeatureEmbedding(
      2.05 k, 0.009% Params, 196.61 KMac, 0.007% MACs, 
      (embed): Linear(2.05 k, 0.009% Params, 196.61 KMac, 0.007% MACs, in_features=4, out_features=512, bias=False)
    )
    (dropout): Dropout(0, 0.000% Params, 0.0 Mac, 0.000% MACs, p=0.05, inplace=False)
  )
  (dec_embedding): DataEmbedding(
    12.8 k, 0.058% Params, 1.84 MMac, 0.070% MACs, 
    (value_embedding): TokenEmbedding(
      10.75 k, 0.049% Params, 1.55 MMac, 0.058% MACs, 
      (tokenConv): Conv1d(10.75 k, 0.049% Params, 1.55 MMac, 0.058% MACs, 7, 512, kernel_size=(3,), stride=(1,), padding=(1,), bias=False, padding_mode=circular)
    )
    (position_embedding): PositionalEmbedding(0, 0.000% Params, 0.0 Mac, 0.000% MACs, )
    (temporal_embedding): TimeFeatureEmbedding(
      2.05 k, 0.009% Params, 294.91 KMac, 0.011% MACs, 
      (embed): Linear(2.05 k, 0.009% Params, 294.91 KMac, 0.011% MACs, in_features=4, out_features=512, bias=False)
    )
    (dropout): Dropout(0, 0.000% Params, 0.0 Mac, 0.000% MACs, p=0.05, inplace=False)
  )
  (encoder): Encoder(
    9.45 M, 42.764% Params, 906.71 MMac, 34.243% MACs, 
    (attn_layers): ModuleList(
      9.45 M, 42.764% Params, 906.71 MMac, 34.243% MACs, 
      (0): EncoderLayer(
        3.15 M, 14.255% Params, 302.24 MMac, 11.414% MACs, 
        (attention): AttentionLayer(
          1.05 M, 4.754% Params, 100.67 MMac, 3.802% MACs, 
          (inner_attention): FullAttention(
            0, 0.000% Params, 0.0 Mac, 0.000% MACs, 
            (dropout): Dropout(0, 0.000% Params, 0.0 Mac, 0.000% MACs, p=0.05, inplace=False)
          )
          (query_projection): Linear(262.66 k, 1.188% Params, 25.17 MMac, 0.950% MACs, in_features=512, out_features=512, bias=True)
          (key_projection): Linear(262.66 k, 1.188% Params, 25.17 MMac, 0.950% MACs, in_features=512, out_features=512, bias=True)
          (value_projection): Linear(262.66 k, 1.188% Params, 25.17 MMac, 0.950% MACs, in_features=512, out_features=512, bias=True)
          (out_projection): Linear(262.66 k, 1.188% Params, 25.17 MMac, 0.950% MACs, in_features=512, out_features=512, bias=True)
        )
        (conv1): Conv1d(1.05 M, 4.754% Params, 100.86 MMac, 3.809% MACs, 512, 2048, kernel_size=(1,), stride=(1,))
        (conv2): Conv1d(1.05 M, 4.747% Params, 100.71 MMac, 3.804% MACs, 2048, 512, kernel_size=(1,), stride=(1,))
        (norm1): LayerNorm(0, 0.000% Params, 0.0 Mac, 0.000% MACs, (512,), eps=1e-05, elementwise_affine=True)
        (norm2): LayerNorm(0, 0.000% Params, 0.0 Mac, 0.000% MACs, (512,), eps=1e-05, elementwise_affine=True)
        (dropout): Dropout(0, 0.000% Params, 0.0 Mac, 0.000% MACs, p=0.05, inplace=False)
      )
      (1): EncoderLayer(
        3.15 M, 14.255% Params, 302.24 MMac, 11.414% MACs, 
        (attention): AttentionLayer(
          1.05 M, 4.754% Params, 100.67 MMac, 3.802% MACs, 
          (inner_attention): FullAttention(
            0, 0.000% Params, 0.0 Mac, 0.000% MACs, 
            (dropout): Dropout(0, 0.000% Params, 0.0 Mac, 0.000% MACs, p=0.05, inplace=False)
          )
          (query_projection): Linear(262.66 k, 1.188% Params, 25.17 MMac, 0.950% MACs, in_features=512, out_features=512, bias=True)
          (key_projection): Linear(262.66 k, 1.188% Params, 25.17 MMac, 0.950% MACs, in_features=512, out_features=512, bias=True)
          (value_projection): Linear(262.66 k, 1.188% Params, 25.17 MMac, 0.950% MACs, in_features=512, out_features=512, bias=True)
          (out_projection): Linear(262.66 k, 1.188% Params, 25.17 MMac, 0.950% MACs, in_features=512, out_features=512, bias=True)
        )
        (conv1): Conv1d(1.05 M, 4.754% Params, 100.86 MMac, 3.809% MACs, 512, 2048, kernel_size=(1,), stride=(1,))
        (conv2): Conv1d(1.05 M, 4.747% Params, 100.71 MMac, 3.804% MACs, 2048, 512, kernel_size=(1,), stride=(1,))
        (norm1): LayerNorm(0, 0.000% Params, 0.0 Mac, 0.000% MACs, (512,), eps=1e-05, elementwise_affine=True)
        (norm2): LayerNorm(0, 0.000% Params, 0.0 Mac, 0.000% MACs, (512,), eps=1e-05, elementwise_affine=True)
        (dropout): Dropout(0, 0.000% Params, 0.0 Mac, 0.000% MACs, p=0.05, inplace=False)
      )
      (2): EncoderLayer(
        3.15 M, 14.255% Params, 302.24 MMac, 11.414% MACs, 
        (attention): AttentionLayer(
          1.05 M, 4.754% Params, 100.67 MMac, 3.802% MACs, 
          (inner_attention): FullAttention(
            0, 0.000% Params, 0.0 Mac, 0.000% MACs, 
            (dropout): Dropout(0, 0.000% Params, 0.0 Mac, 0.000% MACs, p=0.05, inplace=False)
          )
          (query_projection): Linear(262.66 k, 1.188% Params, 25.17 MMac, 0.950% MACs, in_features=512, out_features=512, bias=True)
          (key_projection): Linear(262.66 k, 1.188% Params, 25.17 MMac, 0.950% MACs, in_features=512, out_features=512, bias=True)
          (value_projection): Linear(262.66 k, 1.188% Params, 25.17 MMac, 0.950% MACs, in_features=512, out_features=512, bias=True)
          (out_projection): Linear(262.66 k, 1.188% Params, 25.17 MMac, 0.950% MACs, in_features=512, out_features=512, bias=True)
        )
        (conv1): Conv1d(1.05 M, 4.754% Params, 100.86 MMac, 3.809% MACs, 512, 2048, kernel_size=(1,), stride=(1,))
        (conv2): Conv1d(1.05 M, 4.747% Params, 100.71 MMac, 3.804% MACs, 2048, 512, kernel_size=(1,), stride=(1,))
        (norm1): LayerNorm(0, 0.000% Params, 0.0 Mac, 0.000% MACs, (512,), eps=1e-05, elementwise_affine=True)
        (norm2): LayerNorm(0, 0.000% Params, 0.0 Mac, 0.000% MACs, (512,), eps=1e-05, elementwise_affine=True)
        (dropout): Dropout(0, 0.000% Params, 0.0 Mac, 0.000% MACs, p=0.05, inplace=False)
      )
    )
    (norm): LayerNorm(0, 0.000% Params, 0.0 Mac, 0.000% MACs, (512,), eps=1e-05, elementwise_affine=True)
  )
  (decoder): Decoder(
    12.61 M, 57.042% Params, 1.74 GMac, 65.641% MACs, 
    (layers): ModuleList(
      12.6 M, 57.025% Params, 1.74 GMac, 65.621% MACs, 
      (0): DecoderLayer(
        4.2 M, 19.008% Params, 579.19 MMac, 21.874% MACs, 
        (self_attention): AttentionLayer(
          1.05 M, 4.754% Params, 151.0 MMac, 5.703% MACs, 
          (inner_attention): FullAttention(
            0, 0.000% Params, 0.0 Mac, 0.000% MACs, 
            (dropout): Dropout(0, 0.000% Params, 0.0 Mac, 0.000% MACs, p=0.05, inplace=False)
          )
          (query_projection): Linear(262.66 k, 1.188% Params, 37.75 MMac, 1.426% MACs, in_features=512, out_features=512, bias=True)
          (key_projection): Linear(262.66 k, 1.188% Params, 37.75 MMac, 1.426% MACs, in_features=512, out_features=512, bias=True)
          (value_projection): Linear(262.66 k, 1.188% Params, 37.75 MMac, 1.426% MACs, in_features=512, out_features=512, bias=True)
          (out_projection): Linear(262.66 k, 1.188% Params, 37.75 MMac, 1.426% MACs, in_features=512, out_features=512, bias=True)
        )
        (cross_attention): AttentionLayer(
          1.05 M, 4.754% Params, 125.83 MMac, 4.752% MACs, 
          (inner_attention): FullAttention(
            0, 0.000% Params, 0.0 Mac, 0.000% MACs, 
            (dropout): Dropout(0, 0.000% Params, 0.0 Mac, 0.000% MACs, p=0.05, inplace=False)
          )
          (query_projection): Linear(262.66 k, 1.188% Params, 37.75 MMac, 1.426% MACs, in_features=512, out_features=512, bias=True)
          (key_projection): Linear(262.66 k, 1.188% Params, 25.17 MMac, 0.950% MACs, in_features=512, out_features=512, bias=True)
          (value_projection): Linear(262.66 k, 1.188% Params, 25.17 MMac, 0.950% MACs, in_features=512, out_features=512, bias=True)
          (out_projection): Linear(262.66 k, 1.188% Params, 37.75 MMac, 1.426% MACs, in_features=512, out_features=512, bias=True)
        )
        (conv1): Conv1d(1.05 M, 4.754% Params, 151.29 MMac, 5.714% MACs, 512, 2048, kernel_size=(1,), stride=(1,))
        (conv2): Conv1d(1.05 M, 4.747% Params, 151.07 MMac, 5.705% MACs, 2048, 512, kernel_size=(1,), stride=(1,))
        (norm1): LayerNorm(0, 0.000% Params, 0.0 Mac, 0.000% MACs, (512,), eps=1e-05, elementwise_affine=True)
        (norm2): LayerNorm(0, 0.000% Params, 0.0 Mac, 0.000% MACs, (512,), eps=1e-05, elementwise_affine=True)
        (norm3): LayerNorm(0, 0.000% Params, 0.0 Mac, 0.000% MACs, (512,), eps=1e-05, elementwise_affine=True)
        (dropout): Dropout(0, 0.000% Params, 0.0 Mac, 0.000% MACs, p=0.05, inplace=False)
      )
      (1): DecoderLayer(
        4.2 M, 19.008% Params, 579.19 MMac, 21.874% MACs, 
        (self_attention): AttentionLayer(
          1.05 M, 4.754% Params, 151.0 MMac, 5.703% MACs, 
          (inner_attention): FullAttention(
            0, 0.000% Params, 0.0 Mac, 0.000% MACs, 
            (dropout): Dropout(0, 0.000% Params, 0.0 Mac, 0.000% MACs, p=0.05, inplace=False)
          )
          (query_projection): Linear(262.66 k, 1.188% Params, 37.75 MMac, 1.426% MACs, in_features=512, out_features=512, bias=True)
          (key_projection): Linear(262.66 k, 1.188% Params, 37.75 MMac, 1.426% MACs, in_features=512, out_features=512, bias=True)
          (value_projection): Linear(262.66 k, 1.188% Params, 37.75 MMac, 1.426% MACs, in_features=512, out_features=512, bias=True)
          (out_projection): Linear(262.66 k, 1.188% Params, 37.75 MMac, 1.426% MACs, in_features=512, out_features=512, bias=True)
        )
        (cross_attention): AttentionLayer(
          1.05 M, 4.754% Params, 125.83 MMac, 4.752% MACs, 
          (inner_attention): FullAttention(
            0, 0.000% Params, 0.0 Mac, 0.000% MACs, 
            (dropout): Dropout(0, 0.000% Params, 0.0 Mac, 0.000% MACs, p=0.05, inplace=False)
          )
          (query_projection): Linear(262.66 k, 1.188% Params, 37.75 MMac, 1.426% MACs, in_features=512, out_features=512, bias=True)
          (key_projection): Linear(262.66 k, 1.188% Params, 25.17 MMac, 0.950% MACs, in_features=512, out_features=512, bias=True)
          (value_projection): Linear(262.66 k, 1.188% Params, 25.17 MMac, 0.950% MACs, in_features=512, out_features=512, bias=True)
          (out_projection): Linear(262.66 k, 1.188% Params, 37.75 MMac, 1.426% MACs, in_features=512, out_features=512, bias=True)
        )
        (conv1): Conv1d(1.05 M, 4.754% Params, 151.29 MMac, 5.714% MACs, 512, 2048, kernel_size=(1,), stride=(1,))
        (conv2): Conv1d(1.05 M, 4.747% Params, 151.07 MMac, 5.705% MACs, 2048, 512, kernel_size=(1,), stride=(1,))
        (norm1): LayerNorm(0, 0.000% Params, 0.0 Mac, 0.000% MACs, (512,), eps=1e-05, elementwise_affine=True)
        (norm2): LayerNorm(0, 0.000% Params, 0.0 Mac, 0.000% MACs, (512,), eps=1e-05, elementwise_affine=True)
        (norm3): LayerNorm(0, 0.000% Params, 0.0 Mac, 0.000% MACs, (512,), eps=1e-05, elementwise_affine=True)
        (dropout): Dropout(0, 0.000% Params, 0.0 Mac, 0.000% MACs, p=0.05, inplace=False)
      )
      (2): DecoderLayer(
        4.2 M, 19.008% Params, 579.19 MMac, 21.874% MACs, 
        (self_attention): AttentionLayer(
          1.05 M, 4.754% Params, 151.0 MMac, 5.703% MACs, 
          (inner_attention): FullAttention(
            0, 0.000% Params, 0.0 Mac, 0.000% MACs, 
            (dropout): Dropout(0, 0.000% Params, 0.0 Mac, 0.000% MACs, p=0.05, inplace=False)
          )
          (query_projection): Linear(262.66 k, 1.188% Params, 37.75 MMac, 1.426% MACs, in_features=512, out_features=512, bias=True)
          (key_projection): Linear(262.66 k, 1.188% Params, 37.75 MMac, 1.426% MACs, in_features=512, out_features=512, bias=True)
          (value_projection): Linear(262.66 k, 1.188% Params, 37.75 MMac, 1.426% MACs, in_features=512, out_features=512, bias=True)
          (out_projection): Linear(262.66 k, 1.188% Params, 37.75 MMac, 1.426% MACs, in_features=512, out_features=512, bias=True)
        )
        (cross_attention): AttentionLayer(
          1.05 M, 4.754% Params, 125.83 MMac, 4.752% MACs, 
          (inner_attention): FullAttention(
            0, 0.000% Params, 0.0 Mac, 0.000% MACs, 
            (dropout): Dropout(0, 0.000% Params, 0.0 Mac, 0.000% MACs, p=0.05, inplace=False)
          )
          (query_projection): Linear(262.66 k, 1.188% Params, 37.75 MMac, 1.426% MACs, in_features=512, out_features=512, bias=True)
          (key_projection): Linear(262.66 k, 1.188% Params, 25.17 MMac, 0.950% MACs, in_features=512, out_features=512, bias=True)
          (value_projection): Linear(262.66 k, 1.188% Params, 25.17 MMac, 0.950% MACs, in_features=512, out_features=512, bias=True)
          (out_projection): Linear(262.66 k, 1.188% Params, 37.75 MMac, 1.426% MACs, in_features=512, out_features=512, bias=True)
        )
        (conv1): Conv1d(1.05 M, 4.754% Params, 151.29 MMac, 5.714% MACs, 512, 2048, kernel_size=(1,), stride=(1,))
        (conv2): Conv1d(1.05 M, 4.747% Params, 151.07 MMac, 5.705% MACs, 2048, 512, kernel_size=(1,), stride=(1,))
        (norm1): LayerNorm(0, 0.000% Params, 0.0 Mac, 0.000% MACs, (512,), eps=1e-05, elementwise_affine=True)
        (norm2): LayerNorm(0, 0.000% Params, 0.0 Mac, 0.000% MACs, (512,), eps=1e-05, elementwise_affine=True)
        (norm3): LayerNorm(0, 0.000% Params, 0.0 Mac, 0.000% MACs, (512,), eps=1e-05, elementwise_affine=True)
        (dropout): Dropout(0, 0.000% Params, 0.0 Mac, 0.000% MACs, p=0.05, inplace=False)
      )
    )
    (norm): LayerNorm(0, 0.000% Params, 0.0 Mac, 0.000% MACs, (512,), eps=1e-05, elementwise_affine=True)
    (projection): Linear(3.59 k, 0.016% Params, 516.1 KMac, 0.019% MACs, in_features=512, out_features=7, bias=True)
  )
)
Computational complexity:       2.65 GMac
Number of parameters:           22.1 M  
