…
INFO: Trainable parameter count: 26.30M
INFO: Trainable parameter count: 26.30M
INFO: Trainable parameter count: 26.30M
INFO: Trainable parameter count: 26.30M
INFO: Trainable parameter count: 26.30M
INFO: Trainable parameter count: 26.30M
INFO: Trainable parameter count: 26.30M
INFO: Trainable parameter count: 26.30M
INFO: Trainable parameter count: 26.30M
Model(
  26.28 M, 99.922% Params, 3.23 GMac, 100.000% MACs, 
  (enc_embedding): DataEmbedding(
    12.8 k, 0.049% Params, 1.23 MMac, 0.038% MACs, 
    (value_embedding): TokenEmbedding(
      10.75 k, 0.041% Params, 1.03 MMac, 0.032% MACs, 
      (tokenConv): Conv1d(10.75 k, 0.041% Params, 1.03 MMac, 0.032% MACs, 7, 512, kernel_size=(3,), stride=(1,), padding=(1,), bias=False, padding_mode=circular)
    )
    (position_embedding): PositionalEmbedding(0, 0.000% Params, 0.0 Mac, 0.000% MACs, )
    (temporal_embedding): TimeFeatureEmbedding(
      2.05 k, 0.008% Params, 196.61 KMac, 0.006% MACs, 
      (embed): Linear(2.05 k, 0.008% Params, 196.61 KMac, 0.006% MACs, in_features=4, out_features=512, bias=False)
    )
    (dropout): Dropout(0, 0.000% Params, 0.0 Mac, 0.000% MACs, p=0.05, inplace=False)
  )
  (dec_embedding): DataEmbedding(
    12.8 k, 0.049% Params, 1.84 MMac, 0.057% MACs, 
    (value_embedding): TokenEmbedding(
      10.75 k, 0.041% Params, 1.55 MMac, 0.048% MACs, 
      (tokenConv): Conv1d(10.75 k, 0.041% Params, 1.55 MMac, 0.048% MACs, 7, 512, kernel_size=(3,), stride=(1,), padding=(1,), bias=False, padding_mode=circular)
    )
    (position_embedding): PositionalEmbedding(0, 0.000% Params, 0.0 Mac, 0.000% MACs, )
    (temporal_embedding): TimeFeatureEmbedding(
      2.05 k, 0.008% Params, 294.91 KMac, 0.009% MACs, 
      (embed): Linear(2.05 k, 0.008% Params, 294.91 KMac, 0.009% MACs, in_features=4, out_features=512, bias=False)
    )
    (dropout): Dropout(0, 0.000% Params, 0.0 Mac, 0.000% MACs, p=0.05, inplace=False)
  )
  (encoder): Encoder(
    9.45 M, 35.929% Params, 906.71 MMac, 28.097% MACs, 
    (attn_layers): ModuleList(
      9.45 M, 35.929% Params, 906.71 MMac, 28.097% MACs, 
      (0): EncoderLayer(
        3.15 M, 11.976% Params, 302.24 MMac, 9.366% MACs, 
        (attention): AttentionLayer(
          1.05 M, 3.994% Params, 100.67 MMac, 3.119% MACs, 
          (inner_attention): FullAttention(
            0, 0.000% Params, 0.0 Mac, 0.000% MACs, 
            (dropout): Dropout(0, 0.000% Params, 0.0 Mac, 0.000% MACs, p=0.05, inplace=False)
          )
          (query_projection): Linear(262.66 k, 0.999% Params, 25.17 MMac, 0.780% MACs, in_features=512, out_features=512, bias=True)
          (key_projection): Linear(262.66 k, 0.999% Params, 25.17 MMac, 0.780% MACs, in_features=512, out_features=512, bias=True)
          (value_projection): Linear(262.66 k, 0.999% Params, 25.17 MMac, 0.780% MACs, in_features=512, out_features=512, bias=True)
          (out_projection): Linear(262.66 k, 0.999% Params, 25.17 MMac, 0.780% MACs, in_features=512, out_features=512, bias=True)
        )
        (conv1): Conv1d(1.05 M, 3.994% Params, 100.86 MMac, 3.125% MACs, 512, 2048, kernel_size=(1,), stride=(1,))
        (conv2): Conv1d(1.05 M, 3.988% Params, 100.71 MMac, 3.121% MACs, 2048, 512, kernel_size=(1,), stride=(1,))
        (norm1): LayerNorm(0, 0.000% Params, 0.0 Mac, 0.000% MACs, (512,), eps=1e-05, elementwise_affine=True)
        (norm2): LayerNorm(0, 0.000% Params, 0.0 Mac, 0.000% MACs, (512,), eps=1e-05, elementwise_affine=True)
        (dropout): Dropout(0, 0.000% Params, 0.0 Mac, 0.000% MACs, p=0.05, inplace=False)
      )
      (1): EncoderLayer(
        3.15 M, 11.976% Params, 302.24 MMac, 9.366% MACs, 
        (attention): AttentionLayer(
          1.05 M, 3.994% Params, 100.67 MMac, 3.119% MACs, 
          (inner_attention): FullAttention(
            0, 0.000% Params, 0.0 Mac, 0.000% MACs, 
            (dropout): Dropout(0, 0.000% Params, 0.0 Mac, 0.000% MACs, p=0.05, inplace=False)
          )
          (query_projection): Linear(262.66 k, 0.999% Params, 25.17 MMac, 0.780% MACs, in_features=512, out_features=512, bias=True)
          (key_projection): Linear(262.66 k, 0.999% Params, 25.17 MMac, 0.780% MACs, in_features=512, out_features=512, bias=True)
          (value_projection): Linear(262.66 k, 0.999% Params, 25.17 MMac, 0.780% MACs, in_features=512, out_features=512, bias=True)
          (out_projection): Linear(262.66 k, 0.999% Params, 25.17 MMac, 0.780% MACs, in_features=512, out_features=512, bias=True)
        )
        (conv1): Conv1d(1.05 M, 3.994% Params, 100.86 MMac, 3.125% MACs, 512, 2048, kernel_size=(1,), stride=(1,))
        (conv2): Conv1d(1.05 M, 3.988% Params, 100.71 MMac, 3.121% MACs, 2048, 512, kernel_size=(1,), stride=(1,))
        (norm1): LayerNorm(0, 0.000% Params, 0.0 Mac, 0.000% MACs, (512,), eps=1e-05, elementwise_affine=True)
        (norm2): LayerNorm(0, 0.000% Params, 0.0 Mac, 0.000% MACs, (512,), eps=1e-05, elementwise_affine=True)
        (dropout): Dropout(0, 0.000% Params, 0.0 Mac, 0.000% MACs, p=0.05, inplace=False)
      )
      (2): EncoderLayer(
        3.15 M, 11.976% Params, 302.24 MMac, 9.366% MACs, 
        (attention): AttentionLayer(
          1.05 M, 3.994% Params, 100.67 MMac, 3.119% MACs, 
          (inner_attention): FullAttention(
            0, 0.000% Params, 0.0 Mac, 0.000% MACs, 
            (dropout): Dropout(0, 0.000% Params, 0.0 Mac, 0.000% MACs, p=0.05, inplace=False)
          )
          (query_projection): Linear(262.66 k, 0.999% Params, 25.17 MMac, 0.780% MACs, in_features=512, out_features=512, bias=True)
          (key_projection): Linear(262.66 k, 0.999% Params, 25.17 MMac, 0.780% MACs, in_features=512, out_features=512, bias=True)
          (value_projection): Linear(262.66 k, 0.999% Params, 25.17 MMac, 0.780% MACs, in_features=512, out_features=512, bias=True)
          (out_projection): Linear(262.66 k, 0.999% Params, 25.17 MMac, 0.780% MACs, in_features=512, out_features=512, bias=True)
        )
        (conv1): Conv1d(1.05 M, 3.994% Params, 100.86 MMac, 3.125% MACs, 512, 2048, kernel_size=(1,), stride=(1,))
        (conv2): Conv1d(1.05 M, 3.988% Params, 100.71 MMac, 3.121% MACs, 2048, 512, kernel_size=(1,), stride=(1,))
        (norm1): LayerNorm(0, 0.000% Params, 0.0 Mac, 0.000% MACs, (512,), eps=1e-05, elementwise_affine=True)
        (norm2): LayerNorm(0, 0.000% Params, 0.0 Mac, 0.000% MACs, (512,), eps=1e-05, elementwise_affine=True)
        (dropout): Dropout(0, 0.000% Params, 0.0 Mac, 0.000% MACs, p=0.05, inplace=False)
      )
    )
    (norm): LayerNorm(0, 0.000% Params, 0.0 Mac, 0.000% MACs, (512,), eps=1e-05, elementwise_affine=True)
  )
  (decoder): Decoder(
    16.81 M, 63.896% Params, 2.32 GMac, 71.808% MACs, 
    (layers): ModuleList(
      16.8 M, 63.882% Params, 2.32 GMac, 71.792% MACs, 
      (0): DecoderLayer(
        4.2 M, 15.970% Params, 579.19 MMac, 17.948% MACs, 
        (self_attention): AttentionLayer(
          1.05 M, 3.994% Params, 151.0 MMac, 4.679% MACs, 
          (inner_attention): FullAttention(
            0, 0.000% Params, 0.0 Mac, 0.000% MACs, 
            (dropout): Dropout(0, 0.000% Params, 0.0 Mac, 0.000% MACs, p=0.05, inplace=False)
          )
          (query_projection): Linear(262.66 k, 0.999% Params, 37.75 MMac, 1.170% MACs, in_features=512, out_features=512, bias=True)
          (key_projection): Linear(262.66 k, 0.999% Params, 37.75 MMac, 1.170% MACs, in_features=512, out_features=512, bias=True)
          (value_projection): Linear(262.66 k, 0.999% Params, 37.75 MMac, 1.170% MACs, in_features=512, out_features=512, bias=True)
          (out_projection): Linear(262.66 k, 0.999% Params, 37.75 MMac, 1.170% MACs, in_features=512, out_features=512, bias=True)
        )
        (cross_attention): AttentionLayer(
          1.05 M, 3.994% Params, 125.83 MMac, 3.899% MACs, 
          (inner_attention): FullAttention(
            0, 0.000% Params, 0.0 Mac, 0.000% MACs, 
            (dropout): Dropout(0, 0.000% Params, 0.0 Mac, 0.000% MACs, p=0.05, inplace=False)
          )
          (query_projection): Linear(262.66 k, 0.999% Params, 37.75 MMac, 1.170% MACs, in_features=512, out_features=512, bias=True)
          (key_projection): Linear(262.66 k, 0.999% Params, 25.17 MMac, 0.780% MACs, in_features=512, out_features=512, bias=True)
          (value_projection): Linear(262.66 k, 0.999% Params, 25.17 MMac, 0.780% MACs, in_features=512, out_features=512, bias=True)
          (out_projection): Linear(262.66 k, 0.999% Params, 37.75 MMac, 1.170% MACs, in_features=512, out_features=512, bias=True)
        )
        (conv1): Conv1d(1.05 M, 3.994% Params, 151.29 MMac, 4.688% MACs, 512, 2048, kernel_size=(1,), stride=(1,))
        (conv2): Conv1d(1.05 M, 3.988% Params, 151.07 MMac, 4.681% MACs, 2048, 512, kernel_size=(1,), stride=(1,))
        (norm1): LayerNorm(0, 0.000% Params, 0.0 Mac, 0.000% MACs, (512,), eps=1e-05, elementwise_affine=True)
        (norm2): LayerNorm(0, 0.000% Params, 0.0 Mac, 0.000% MACs, (512,), eps=1e-05, elementwise_affine=True)
        (norm3): LayerNorm(0, 0.000% Params, 0.0 Mac, 0.000% MACs, (512,), eps=1e-05, elementwise_affine=True)
        (dropout): Dropout(0, 0.000% Params, 0.0 Mac, 0.000% MACs, p=0.05, inplace=False)
      )
      (1): DecoderLayer(
        4.2 M, 15.970% Params, 579.19 MMac, 17.948% MACs, 
        (self_attention): AttentionLayer(
          1.05 M, 3.994% Params, 151.0 MMac, 4.679% MACs, 
          (inner_attention): FullAttention(
            0, 0.000% Params, 0.0 Mac, 0.000% MACs, 
            (dropout): Dropout(0, 0.000% Params, 0.0 Mac, 0.000% MACs, p=0.05, inplace=False)
          )
          (query_projection): Linear(262.66 k, 0.999% Params, 37.75 MMac, 1.170% MACs, in_features=512, out_features=512, bias=True)
          (key_projection): Linear(262.66 k, 0.999% Params, 37.75 MMac, 1.170% MACs, in_features=512, out_features=512, bias=True)
          (value_projection): Linear(262.66 k, 0.999% Params, 37.75 MMac, 1.170% MACs, in_features=512, out_features=512, bias=True)
          (out_projection): Linear(262.66 k, 0.999% Params, 37.75 MMac, 1.170% MACs, in_features=512, out_features=512, bias=True)
        )
        (cross_attention): AttentionLayer(
          1.05 M, 3.994% Params, 125.83 MMac, 3.899% MACs, 
          (inner_attention): FullAttention(
            0, 0.000% Params, 0.0 Mac, 0.000% MACs, 
            (dropout): Dropout(0, 0.000% Params, 0.0 Mac, 0.000% MACs, p=0.05, inplace=False)
          )
          (query_projection): Linear(262.66 k, 0.999% Params, 37.75 MMac, 1.170% MACs, in_features=512, out_features=512, bias=True)
          (key_projection): Linear(262.66 k, 0.999% Params, 25.17 MMac, 0.780% MACs, in_features=512, out_features=512, bias=True)
          (value_projection): Linear(262.66 k, 0.999% Params, 25.17 MMac, 0.780% MACs, in_features=512, out_features=512, bias=True)
          (out_projection): Linear(262.66 k, 0.999% Params, 37.75 MMac, 1.170% MACs, in_features=512, out_features=512, bias=True)
        )
        (conv1): Conv1d(1.05 M, 3.994% Params, 151.29 MMac, 4.688% MACs, 512, 2048, kernel_size=(1,), stride=(1,))
        (conv2): Conv1d(1.05 M, 3.988% Params, 151.07 MMac, 4.681% MACs, 2048, 512, kernel_size=(1,), stride=(1,))
        (norm1): LayerNorm(0, 0.000% Params, 0.0 Mac, 0.000% MACs, (512,), eps=1e-05, elementwise_affine=True)
        (norm2): LayerNorm(0, 0.000% Params, 0.0 Mac, 0.000% MACs, (512,), eps=1e-05, elementwise_affine=True)
        (norm3): LayerNorm(0, 0.000% Params, 0.0 Mac, 0.000% MACs, (512,), eps=1e-05, elementwise_affine=True)
        (dropout): Dropout(0, 0.000% Params, 0.0 Mac, 0.000% MACs, p=0.05, inplace=False)
      )
      (2): DecoderLayer(
        4.2 M, 15.970% Params, 579.19 MMac, 17.948% MACs, 
        (self_attention): AttentionLayer(
          1.05 M, 3.994% Params, 151.0 MMac, 4.679% MACs, 
          (inner_attention): FullAttention(
            0, 0.000% Params, 0.0 Mac, 0.000% MACs, 
            (dropout): Dropout(0, 0.000% Params, 0.0 Mac, 0.000% MACs, p=0.05, inplace=False)
          )
          (query_projection): Linear(262.66 k, 0.999% Params, 37.75 MMac, 1.170% MACs, in_features=512, out_features=512, bias=True)
          (key_projection): Linear(262.66 k, 0.999% Params, 37.75 MMac, 1.170% MACs, in_features=512, out_features=512, bias=True)
          (value_projection): Linear(262.66 k, 0.999% Params, 37.75 MMac, 1.170% MACs, in_features=512, out_features=512, bias=True)
          (out_projection): Linear(262.66 k, 0.999% Params, 37.75 MMac, 1.170% MACs, in_features=512, out_features=512, bias=True)
        )
        (cross_attention): AttentionLayer(
          1.05 M, 3.994% Params, 125.83 MMac, 3.899% MACs, 
          (inner_attention): FullAttention(
            0, 0.000% Params, 0.0 Mac, 0.000% MACs, 
            (dropout): Dropout(0, 0.000% Params, 0.0 Mac, 0.000% MACs, p=0.05, inplace=False)
          )
          (query_projection): Linear(262.66 k, 0.999% Params, 37.75 MMac, 1.170% MACs, in_features=512, out_features=512, bias=True)
          (key_projection): Linear(262.66 k, 0.999% Params, 25.17 MMac, 0.780% MACs, in_features=512, out_features=512, bias=True)
          (value_projection): Linear(262.66 k, 0.999% Params, 25.17 MMac, 0.780% MACs, in_features=512, out_features=512, bias=True)
          (out_projection): Linear(262.66 k, 0.999% Params, 37.75 MMac, 1.170% MACs, in_features=512, out_features=512, bias=True)
        )
        (conv1): Conv1d(1.05 M, 3.994% Params, 151.29 MMac, 4.688% MACs, 512, 2048, kernel_size=(1,), stride=(1,))
        (conv2): Conv1d(1.05 M, 3.988% Params, 151.07 MMac, 4.681% MACs, 2048, 512, kernel_size=(1,), stride=(1,))
        (norm1): LayerNorm(0, 0.000% Params, 0.0 Mac, 0.000% MACs, (512,), eps=1e-05, elementwise_affine=True)
        (norm2): LayerNorm(0, 0.000% Params, 0.0 Mac, 0.000% MACs, (512,), eps=1e-05, elementwise_affine=True)
        (norm3): LayerNorm(0, 0.000% Params, 0.0 Mac, 0.000% MACs, (512,), eps=1e-05, elementwise_affine=True)
        (dropout): Dropout(0, 0.000% Params, 0.0 Mac, 0.000% MACs, p=0.05, inplace=False)
      )
      (3): DecoderLayer(
        4.2 M, 15.970% Params, 579.19 MMac, 17.948% MACs, 
        (self_attention): AttentionLayer(
          1.05 M, 3.994% Params, 151.0 MMac, 4.679% MACs, 
          (inner_attention): FullAttention(
            0, 0.000% Params, 0.0 Mac, 0.000% MACs, 
            (dropout): Dropout(0, 0.000% Params, 0.0 Mac, 0.000% MACs, p=0.05, inplace=False)
          )
          (query_projection): Linear(262.66 k, 0.999% Params, 37.75 MMac, 1.170% MACs, in_features=512, out_features=512, bias=True)
          (key_projection): Linear(262.66 k, 0.999% Params, 37.75 MMac, 1.170% MACs, in_features=512, out_features=512, bias=True)
          (value_projection): Linear(262.66 k, 0.999% Params, 37.75 MMac, 1.170% MACs, in_features=512, out_features=512, bias=True)
          (out_projection): Linear(262.66 k, 0.999% Params, 37.75 MMac, 1.170% MACs, in_features=512, out_features=512, bias=True)
        )
        (cross_attention): AttentionLayer(
          1.05 M, 3.994% Params, 125.83 MMac, 3.899% MACs, 
          (inner_attention): FullAttention(
            0, 0.000% Params, 0.0 Mac, 0.000% MACs, 
            (dropout): Dropout(0, 0.000% Params, 0.0 Mac, 0.000% MACs, p=0.05, inplace=False)
          )
          (query_projection): Linear(262.66 k, 0.999% Params, 37.75 MMac, 1.170% MACs, in_features=512, out_features=512, bias=True)
          (key_projection): Linear(262.66 k, 0.999% Params, 25.17 MMac, 0.780% MACs, in_features=512, out_features=512, bias=True)
          (value_projection): Linear(262.66 k, 0.999% Params, 25.17 MMac, 0.780% MACs, in_features=512, out_features=512, bias=True)
          (out_projection): Linear(262.66 k, 0.999% Params, 37.75 MMac, 1.170% MACs, in_features=512, out_features=512, bias=True)
        )
        (conv1): Conv1d(1.05 M, 3.994% Params, 151.29 MMac, 4.688% MACs, 512, 2048, kernel_size=(1,), stride=(1,))
        (conv2): Conv1d(1.05 M, 3.988% Params, 151.07 MMac, 4.681% MACs, 2048, 512, kernel_size=(1,), stride=(1,))
        (norm1): LayerNorm(0, 0.000% Params, 0.0 Mac, 0.000% MACs, (512,), eps=1e-05, elementwise_affine=True)
        (norm2): LayerNorm(0, 0.000% Params, 0.0 Mac, 0.000% MACs, (512,), eps=1e-05, elementwise_affine=True)
        (norm3): LayerNorm(0, 0.000% Params, 0.0 Mac, 0.000% MACs, (512,), eps=1e-05, elementwise_affine=True)
        (dropout): Dropout(0, 0.000% Params, 0.0 Mac, 0.000% MACs, p=0.05, inplace=False)
      )
    )
    (norm): LayerNorm(0, 0.000% Params, 0.0 Mac, 0.000% MACs, (512,), eps=1e-05, elementwise_affine=True)
    (projection): Linear(3.59 k, 0.014% Params, 516.1 KMac, 0.016% MACs, in_features=512, out_features=7, bias=True)
  )
)
Computational complexity:       3.23 GMac
Number of parameters:           26.3 M  
