…
INFO: Trainable parameter count: 16.75M
INFO: Trainable parameter count: 16.75M
INFO: Trainable parameter count: 16.75M
INFO: Trainable parameter count: 16.76M
INFO: Trainable parameter count: 16.76M
INFO: Trainable parameter count: 16.76M
INFO: Trainable parameter count: 16.76M
INFO: Trainable parameter count: 16.92M
INFO: Trainable parameter count: 16.92M
Model(
  16.91 M, 99.921% Params, 2.18 GMac, 100.000% MACs, 
  (enc_embedding): DataEmbedding(
    495.1 k, 2.926% Params, 47.53 MMac, 2.178% MACs, 
    (value_embedding): TokenEmbedding(
      493.06 k, 2.914% Params, 47.33 MMac, 2.169% MACs, 
      (tokenConv): Conv1d(493.06 k, 2.914% Params, 47.33 MMac, 2.169% MACs, 321, 512, kernel_size=(3,), stride=(1,), padding=(1,), bias=False, padding_mode=circular)
    )
    (position_embedding): PositionalEmbedding(0, 0.000% Params, 0.0 Mac, 0.000% MACs, )
    (temporal_embedding): TimeFeatureEmbedding(
      2.05 k, 0.012% Params, 196.61 KMac, 0.009% MACs, 
      (embed): Linear(2.05 k, 0.012% Params, 196.61 KMac, 0.009% MACs, in_features=4, out_features=512, bias=False)
    )
    (dropout): Dropout(0, 0.000% Params, 0.0 Mac, 0.000% MACs, p=0.05, inplace=False)
  )
  (dec_embedding): DataEmbedding(
    495.1 k, 2.926% Params, 71.29 MMac, 3.267% MACs, 
    (value_embedding): TokenEmbedding(
      493.06 k, 2.914% Params, 71.0 MMac, 3.253% MACs, 
      (tokenConv): Conv1d(493.06 k, 2.914% Params, 71.0 MMac, 3.253% MACs, 321, 512, kernel_size=(3,), stride=(1,), padding=(1,), bias=False, padding_mode=circular)
    )
    (position_embedding): PositionalEmbedding(0, 0.000% Params, 0.0 Mac, 0.000% MACs, )
    (temporal_embedding): TimeFeatureEmbedding(
      2.05 k, 0.012% Params, 294.91 KMac, 0.014% MACs, 
      (embed): Linear(2.05 k, 0.012% Params, 294.91 KMac, 0.014% MACs, in_features=4, out_features=512, bias=False)
    )
    (dropout): Dropout(0, 0.000% Params, 0.0 Mac, 0.000% MACs, p=0.05, inplace=False)
  )
  (encoder): Encoder(
    3.15 M, 18.617% Params, 302.24 MMac, 13.850% MACs, 
    (attn_layers): ModuleList(
      3.15 M, 18.617% Params, 302.24 MMac, 13.850% MACs, 
      (0): EncoderLayer(
        3.15 M, 18.617% Params, 302.24 MMac, 13.850% MACs, 
        (attention): AttentionLayer(
          1.05 M, 6.209% Params, 100.67 MMac, 4.613% MACs, 
          (inner_attention): FullAttention(
            0, 0.000% Params, 0.0 Mac, 0.000% MACs, 
            (dropout): Dropout(0, 0.000% Params, 0.0 Mac, 0.000% MACs, p=0.05, inplace=False)
          )
          (query_projection): Linear(262.66 k, 1.552% Params, 25.17 MMac, 1.153% MACs, in_features=512, out_features=512, bias=True)
          (key_projection): Linear(262.66 k, 1.552% Params, 25.17 MMac, 1.153% MACs, in_features=512, out_features=512, bias=True)
          (value_projection): Linear(262.66 k, 1.552% Params, 25.17 MMac, 1.153% MACs, in_features=512, out_features=512, bias=True)
          (out_projection): Linear(262.66 k, 1.552% Params, 25.17 MMac, 1.153% MACs, in_features=512, out_features=512, bias=True)
        )
        (conv1): Conv1d(1.05 M, 6.209% Params, 100.86 MMac, 4.622% MACs, 512, 2048, kernel_size=(1,), stride=(1,))
        (conv2): Conv1d(1.05 M, 6.200% Params, 100.71 MMac, 4.615% MACs, 2048, 512, kernel_size=(1,), stride=(1,))
        (norm1): LayerNorm(0, 0.000% Params, 0.0 Mac, 0.000% MACs, (512,), eps=1e-05, elementwise_affine=True)
        (norm2): LayerNorm(0, 0.000% Params, 0.0 Mac, 0.000% MACs, (512,), eps=1e-05, elementwise_affine=True)
        (dropout): Dropout(0, 0.000% Params, 0.0 Mac, 0.000% MACs, p=0.05, inplace=False)
      )
    )
    (norm): LayerNorm(0, 0.000% Params, 0.0 Mac, 0.000% MACs, (512,), eps=1e-05, elementwise_affine=True)
  )
  (decoder): Decoder(
    12.77 M, 75.452% Params, 1.76 GMac, 80.705% MACs, 
    (layers): ModuleList(
      12.6 M, 74.479% Params, 1.74 GMac, 79.621% MACs, 
      (0): DecoderLayer(
        4.2 M, 24.826% Params, 579.19 MMac, 26.540% MACs, 
        (self_attention): AttentionLayer(
          1.05 M, 6.209% Params, 151.0 MMac, 6.919% MACs, 
          (inner_attention): FullAttention(
            0, 0.000% Params, 0.0 Mac, 0.000% MACs, 
            (dropout): Dropout(0, 0.000% Params, 0.0 Mac, 0.000% MACs, p=0.05, inplace=False)
          )
          (query_projection): Linear(262.66 k, 1.552% Params, 37.75 MMac, 1.730% MACs, in_features=512, out_features=512, bias=True)
          (key_projection): Linear(262.66 k, 1.552% Params, 37.75 MMac, 1.730% MACs, in_features=512, out_features=512, bias=True)
          (value_projection): Linear(262.66 k, 1.552% Params, 37.75 MMac, 1.730% MACs, in_features=512, out_features=512, bias=True)
          (out_projection): Linear(262.66 k, 1.552% Params, 37.75 MMac, 1.730% MACs, in_features=512, out_features=512, bias=True)
        )
        (cross_attention): AttentionLayer(
          1.05 M, 6.209% Params, 125.83 MMac, 5.766% MACs, 
          (inner_attention): FullAttention(
            0, 0.000% Params, 0.0 Mac, 0.000% MACs, 
            (dropout): Dropout(0, 0.000% Params, 0.0 Mac, 0.000% MACs, p=0.05, inplace=False)
          )
          (query_projection): Linear(262.66 k, 1.552% Params, 37.75 MMac, 1.730% MACs, in_features=512, out_features=512, bias=True)
          (key_projection): Linear(262.66 k, 1.552% Params, 25.17 MMac, 1.153% MACs, in_features=512, out_features=512, bias=True)
          (value_projection): Linear(262.66 k, 1.552% Params, 25.17 MMac, 1.153% MACs, in_features=512, out_features=512, bias=True)
          (out_projection): Linear(262.66 k, 1.552% Params, 37.75 MMac, 1.730% MACs, in_features=512, out_features=512, bias=True)
        )
        (conv1): Conv1d(1.05 M, 6.209% Params, 151.29 MMac, 6.933% MACs, 512, 2048, kernel_size=(1,), stride=(1,))
        (conv2): Conv1d(1.05 M, 6.200% Params, 151.07 MMac, 6.922% MACs, 2048, 512, kernel_size=(1,), stride=(1,))
        (norm1): LayerNorm(0, 0.000% Params, 0.0 Mac, 0.000% MACs, (512,), eps=1e-05, elementwise_affine=True)
        (norm2): LayerNorm(0, 0.000% Params, 0.0 Mac, 0.000% MACs, (512,), eps=1e-05, elementwise_affine=True)
        (norm3): LayerNorm(0, 0.000% Params, 0.0 Mac, 0.000% MACs, (512,), eps=1e-05, elementwise_affine=True)
        (dropout): Dropout(0, 0.000% Params, 0.0 Mac, 0.000% MACs, p=0.05, inplace=False)
      )
      (1): DecoderLayer(
        4.2 M, 24.826% Params, 579.19 MMac, 26.540% MACs, 
        (self_attention): AttentionLayer(
          1.05 M, 6.209% Params, 151.0 MMac, 6.919% MACs, 
          (inner_attention): FullAttention(
            0, 0.000% Params, 0.0 Mac, 0.000% MACs, 
            (dropout): Dropout(0, 0.000% Params, 0.0 Mac, 0.000% MACs, p=0.05, inplace=False)
          )
          (query_projection): Linear(262.66 k, 1.552% Params, 37.75 MMac, 1.730% MACs, in_features=512, out_features=512, bias=True)
          (key_projection): Linear(262.66 k, 1.552% Params, 37.75 MMac, 1.730% MACs, in_features=512, out_features=512, bias=True)
          (value_projection): Linear(262.66 k, 1.552% Params, 37.75 MMac, 1.730% MACs, in_features=512, out_features=512, bias=True)
          (out_projection): Linear(262.66 k, 1.552% Params, 37.75 MMac, 1.730% MACs, in_features=512, out_features=512, bias=True)
        )
        (cross_attention): AttentionLayer(
          1.05 M, 6.209% Params, 125.83 MMac, 5.766% MACs, 
          (inner_attention): FullAttention(
            0, 0.000% Params, 0.0 Mac, 0.000% MACs, 
            (dropout): Dropout(0, 0.000% Params, 0.0 Mac, 0.000% MACs, p=0.05, inplace=False)
          )
          (query_projection): Linear(262.66 k, 1.552% Params, 37.75 MMac, 1.730% MACs, in_features=512, out_features=512, bias=True)
          (key_projection): Linear(262.66 k, 1.552% Params, 25.17 MMac, 1.153% MACs, in_features=512, out_features=512, bias=True)
          (value_projection): Linear(262.66 k, 1.552% Params, 25.17 MMac, 1.153% MACs, in_features=512, out_features=512, bias=True)
          (out_projection): Linear(262.66 k, 1.552% Params, 37.75 MMac, 1.730% MACs, in_features=512, out_features=512, bias=True)
        )
        (conv1): Conv1d(1.05 M, 6.209% Params, 151.29 MMac, 6.933% MACs, 512, 2048, kernel_size=(1,), stride=(1,))
        (conv2): Conv1d(1.05 M, 6.200% Params, 151.07 MMac, 6.922% MACs, 2048, 512, kernel_size=(1,), stride=(1,))
        (norm1): LayerNorm(0, 0.000% Params, 0.0 Mac, 0.000% MACs, (512,), eps=1e-05, elementwise_affine=True)
        (norm2): LayerNorm(0, 0.000% Params, 0.0 Mac, 0.000% MACs, (512,), eps=1e-05, elementwise_affine=True)
        (norm3): LayerNorm(0, 0.000% Params, 0.0 Mac, 0.000% MACs, (512,), eps=1e-05, elementwise_affine=True)
        (dropout): Dropout(0, 0.000% Params, 0.0 Mac, 0.000% MACs, p=0.05, inplace=False)
      )
      (2): DecoderLayer(
        4.2 M, 24.826% Params, 579.19 MMac, 26.540% MACs, 
        (self_attention): AttentionLayer(
          1.05 M, 6.209% Params, 151.0 MMac, 6.919% MACs, 
          (inner_attention): FullAttention(
            0, 0.000% Params, 0.0 Mac, 0.000% MACs, 
            (dropout): Dropout(0, 0.000% Params, 0.0 Mac, 0.000% MACs, p=0.05, inplace=False)
          )
          (query_projection): Linear(262.66 k, 1.552% Params, 37.75 MMac, 1.730% MACs, in_features=512, out_features=512, bias=True)
          (key_projection): Linear(262.66 k, 1.552% Params, 37.75 MMac, 1.730% MACs, in_features=512, out_features=512, bias=True)
          (value_projection): Linear(262.66 k, 1.552% Params, 37.75 MMac, 1.730% MACs, in_features=512, out_features=512, bias=True)
          (out_projection): Linear(262.66 k, 1.552% Params, 37.75 MMac, 1.730% MACs, in_features=512, out_features=512, bias=True)
        )
        (cross_attention): AttentionLayer(
          1.05 M, 6.209% Params, 125.83 MMac, 5.766% MACs, 
          (inner_attention): FullAttention(
            0, 0.000% Params, 0.0 Mac, 0.000% MACs, 
            (dropout): Dropout(0, 0.000% Params, 0.0 Mac, 0.000% MACs, p=0.05, inplace=False)
          )
          (query_projection): Linear(262.66 k, 1.552% Params, 37.75 MMac, 1.730% MACs, in_features=512, out_features=512, bias=True)
          (key_projection): Linear(262.66 k, 1.552% Params, 25.17 MMac, 1.153% MACs, in_features=512, out_features=512, bias=True)
          (value_projection): Linear(262.66 k, 1.552% Params, 25.17 MMac, 1.153% MACs, in_features=512, out_features=512, bias=True)
          (out_projection): Linear(262.66 k, 1.552% Params, 37.75 MMac, 1.730% MACs, in_features=512, out_features=512, bias=True)
        )
        (conv1): Conv1d(1.05 M, 6.209% Params, 151.29 MMac, 6.933% MACs, 512, 2048, kernel_size=(1,), stride=(1,))
        (conv2): Conv1d(1.05 M, 6.200% Params, 151.07 MMac, 6.922% MACs, 2048, 512, kernel_size=(1,), stride=(1,))
        (norm1): LayerNorm(0, 0.000% Params, 0.0 Mac, 0.000% MACs, (512,), eps=1e-05, elementwise_affine=True)
        (norm2): LayerNorm(0, 0.000% Params, 0.0 Mac, 0.000% MACs, (512,), eps=1e-05, elementwise_affine=True)
        (norm3): LayerNorm(0, 0.000% Params, 0.0 Mac, 0.000% MACs, (512,), eps=1e-05, elementwise_affine=True)
        (dropout): Dropout(0, 0.000% Params, 0.0 Mac, 0.000% MACs, p=0.05, inplace=False)
      )
    )
    (norm): LayerNorm(0, 0.000% Params, 0.0 Mac, 0.000% MACs, (512,), eps=1e-05, elementwise_affine=True)
    (projection): Linear(164.67 k, 0.973% Params, 23.67 MMac, 1.085% MACs, in_features=512, out_features=321, bias=True)
  )
)
Computational complexity:       2.18 GMac
Number of parameters:           16.92 M 
