…
INFO: Trainable parameter count: 13.69M
INFO: Trainable parameter count: 13.69M
INFO: Trainable parameter count: 13.69M
INFO: Trainable parameter count: 13.69M
INFO: Trainable parameter count: 13.69M
INFO: Trainable parameter count: 13.69M
INFO: Trainable parameter count: 13.69M
INFO: Trainable parameter count: 13.69M
INFO: Trainable parameter count: 13.69M
Model(
  13.68 M, 99.918% Params, 1.49 GMac, 100.000% MACs, 
  (enc_embedding): DataEmbedding(
    12.8 k, 0.093% Params, 1.23 MMac, 0.082% MACs, 
    (value_embedding): TokenEmbedding(
      10.75 k, 0.079% Params, 1.03 MMac, 0.069% MACs, 
      (tokenConv): Conv1d(10.75 k, 0.079% Params, 1.03 MMac, 0.069% MACs, 7, 512, kernel_size=(3,), stride=(1,), padding=(1,), bias=False, padding_mode=circular)
    )
    (position_embedding): PositionalEmbedding(0, 0.000% Params, 0.0 Mac, 0.000% MACs, )
    (temporal_embedding): TimeFeatureEmbedding(
      2.05 k, 0.015% Params, 196.61 KMac, 0.013% MACs, 
      (embed): Linear(2.05 k, 0.015% Params, 196.61 KMac, 0.013% MACs, in_features=4, out_features=512, bias=False)
    )
    (dropout): Dropout(0, 0.000% Params, 0.0 Mac, 0.000% MACs, p=0.05, inplace=False)
  )
  (dec_embedding): DataEmbedding(
    12.8 k, 0.093% Params, 1.84 MMac, 0.124% MACs, 
    (value_embedding): TokenEmbedding(
      10.75 k, 0.079% Params, 1.55 MMac, 0.104% MACs, 
      (tokenConv): Conv1d(10.75 k, 0.079% Params, 1.55 MMac, 0.104% MACs, 7, 512, kernel_size=(3,), stride=(1,), padding=(1,), bias=False, padding_mode=circular)
    )
    (position_embedding): PositionalEmbedding(0, 0.000% Params, 0.0 Mac, 0.000% MACs, )
    (temporal_embedding): TimeFeatureEmbedding(
      2.05 k, 0.015% Params, 294.91 KMac, 0.020% MACs, 
      (embed): Linear(2.05 k, 0.015% Params, 294.91 KMac, 0.020% MACs, in_features=4, out_features=512, bias=False)
    )
    (dropout): Dropout(0, 0.000% Params, 0.0 Mac, 0.000% MACs, p=0.05, inplace=False)
  )
  (encoder): Encoder(
    9.45 M, 69.024% Params, 906.71 MMac, 60.874% MACs, 
    (attn_layers): ModuleList(
      9.45 M, 69.024% Params, 906.71 MMac, 60.874% MACs, 
      (0): EncoderLayer(
        3.15 M, 23.008% Params, 302.24 MMac, 20.291% MACs, 
        (attention): AttentionLayer(
          1.05 M, 7.673% Params, 100.67 MMac, 6.758% MACs, 
          (inner_attention): FullAttention(
            0, 0.000% Params, 0.0 Mac, 0.000% MACs, 
            (dropout): Dropout(0, 0.000% Params, 0.0 Mac, 0.000% MACs, p=0.05, inplace=False)
          )
          (query_projection): Linear(262.66 k, 1.918% Params, 25.17 MMac, 1.690% MACs, in_features=512, out_features=512, bias=True)
          (key_projection): Linear(262.66 k, 1.918% Params, 25.17 MMac, 1.690% MACs, in_features=512, out_features=512, bias=True)
          (value_projection): Linear(262.66 k, 1.918% Params, 25.17 MMac, 1.690% MACs, in_features=512, out_features=512, bias=True)
          (out_projection): Linear(262.66 k, 1.918% Params, 25.17 MMac, 1.690% MACs, in_features=512, out_features=512, bias=True)
        )
        (conv1): Conv1d(1.05 M, 7.673% Params, 100.86 MMac, 6.771% MACs, 512, 2048, kernel_size=(1,), stride=(1,))
        (conv2): Conv1d(1.05 M, 7.662% Params, 100.71 MMac, 6.762% MACs, 2048, 512, kernel_size=(1,), stride=(1,))
        (norm1): LayerNorm(0, 0.000% Params, 0.0 Mac, 0.000% MACs, (512,), eps=1e-05, elementwise_affine=True)
        (norm2): LayerNorm(0, 0.000% Params, 0.0 Mac, 0.000% MACs, (512,), eps=1e-05, elementwise_affine=True)
        (dropout): Dropout(0, 0.000% Params, 0.0 Mac, 0.000% MACs, p=0.05, inplace=False)
      )
      (1): EncoderLayer(
        3.15 M, 23.008% Params, 302.24 MMac, 20.291% MACs, 
        (attention): AttentionLayer(
          1.05 M, 7.673% Params, 100.67 MMac, 6.758% MACs, 
          (inner_attention): FullAttention(
            0, 0.000% Params, 0.0 Mac, 0.000% MACs, 
            (dropout): Dropout(0, 0.000% Params, 0.0 Mac, 0.000% MACs, p=0.05, inplace=False)
          )
          (query_projection): Linear(262.66 k, 1.918% Params, 25.17 MMac, 1.690% MACs, in_features=512, out_features=512, bias=True)
          (key_projection): Linear(262.66 k, 1.918% Params, 25.17 MMac, 1.690% MACs, in_features=512, out_features=512, bias=True)
          (value_projection): Linear(262.66 k, 1.918% Params, 25.17 MMac, 1.690% MACs, in_features=512, out_features=512, bias=True)
          (out_projection): Linear(262.66 k, 1.918% Params, 25.17 MMac, 1.690% MACs, in_features=512, out_features=512, bias=True)
        )
        (conv1): Conv1d(1.05 M, 7.673% Params, 100.86 MMac, 6.771% MACs, 512, 2048, kernel_size=(1,), stride=(1,))
        (conv2): Conv1d(1.05 M, 7.662% Params, 100.71 MMac, 6.762% MACs, 2048, 512, kernel_size=(1,), stride=(1,))
        (norm1): LayerNorm(0, 0.000% Params, 0.0 Mac, 0.000% MACs, (512,), eps=1e-05, elementwise_affine=True)
        (norm2): LayerNorm(0, 0.000% Params, 0.0 Mac, 0.000% MACs, (512,), eps=1e-05, elementwise_affine=True)
        (dropout): Dropout(0, 0.000% Params, 0.0 Mac, 0.000% MACs, p=0.05, inplace=False)
      )
      (2): EncoderLayer(
        3.15 M, 23.008% Params, 302.24 MMac, 20.291% MACs, 
        (attention): AttentionLayer(
          1.05 M, 7.673% Params, 100.67 MMac, 6.758% MACs, 
          (inner_attention): FullAttention(
            0, 0.000% Params, 0.0 Mac, 0.000% MACs, 
            (dropout): Dropout(0, 0.000% Params, 0.0 Mac, 0.000% MACs, p=0.05, inplace=False)
          )
          (query_projection): Linear(262.66 k, 1.918% Params, 25.17 MMac, 1.690% MACs, in_features=512, out_features=512, bias=True)
          (key_projection): Linear(262.66 k, 1.918% Params, 25.17 MMac, 1.690% MACs, in_features=512, out_features=512, bias=True)
          (value_projection): Linear(262.66 k, 1.918% Params, 25.17 MMac, 1.690% MACs, in_features=512, out_features=512, bias=True)
          (out_projection): Linear(262.66 k, 1.918% Params, 25.17 MMac, 1.690% MACs, in_features=512, out_features=512, bias=True)
        )
        (conv1): Conv1d(1.05 M, 7.673% Params, 100.86 MMac, 6.771% MACs, 512, 2048, kernel_size=(1,), stride=(1,))
        (conv2): Conv1d(1.05 M, 7.662% Params, 100.71 MMac, 6.762% MACs, 2048, 512, kernel_size=(1,), stride=(1,))
        (norm1): LayerNorm(0, 0.000% Params, 0.0 Mac, 0.000% MACs, (512,), eps=1e-05, elementwise_affine=True)
        (norm2): LayerNorm(0, 0.000% Params, 0.0 Mac, 0.000% MACs, (512,), eps=1e-05, elementwise_affine=True)
        (dropout): Dropout(0, 0.000% Params, 0.0 Mac, 0.000% MACs, p=0.05, inplace=False)
      )
    )
    (norm): LayerNorm(0, 0.000% Params, 0.0 Mac, 0.000% MACs, (512,), eps=1e-05, elementwise_affine=True)
  )
  (decoder): Decoder(
    4.2 M, 30.707% Params, 579.7 MMac, 38.920% MACs, 
    (layers): ModuleList(
      4.2 M, 30.681% Params, 579.19 MMac, 38.885% MACs, 
      (0): DecoderLayer(
        4.2 M, 30.681% Params, 579.19 MMac, 38.885% MACs, 
        (self_attention): AttentionLayer(
          1.05 M, 7.673% Params, 151.0 MMac, 10.138% MACs, 
          (inner_attention): FullAttention(
            0, 0.000% Params, 0.0 Mac, 0.000% MACs, 
            (dropout): Dropout(0, 0.000% Params, 0.0 Mac, 0.000% MACs, p=0.05, inplace=False)
          )
          (query_projection): Linear(262.66 k, 1.918% Params, 37.75 MMac, 2.534% MACs, in_features=512, out_features=512, bias=True)
          (key_projection): Linear(262.66 k, 1.918% Params, 37.75 MMac, 2.534% MACs, in_features=512, out_features=512, bias=True)
          (value_projection): Linear(262.66 k, 1.918% Params, 37.75 MMac, 2.534% MACs, in_features=512, out_features=512, bias=True)
          (out_projection): Linear(262.66 k, 1.918% Params, 37.75 MMac, 2.534% MACs, in_features=512, out_features=512, bias=True)
        )
        (cross_attention): AttentionLayer(
          1.05 M, 7.673% Params, 125.83 MMac, 8.448% MACs, 
          (inner_attention): FullAttention(
            0, 0.000% Params, 0.0 Mac, 0.000% MACs, 
            (dropout): Dropout(0, 0.000% Params, 0.0 Mac, 0.000% MACs, p=0.05, inplace=False)
          )
          (query_projection): Linear(262.66 k, 1.918% Params, 37.75 MMac, 2.534% MACs, in_features=512, out_features=512, bias=True)
          (key_projection): Linear(262.66 k, 1.918% Params, 25.17 MMac, 1.690% MACs, in_features=512, out_features=512, bias=True)
          (value_projection): Linear(262.66 k, 1.918% Params, 25.17 MMac, 1.690% MACs, in_features=512, out_features=512, bias=True)
          (out_projection): Linear(262.66 k, 1.918% Params, 37.75 MMac, 2.534% MACs, in_features=512, out_features=512, bias=True)
        )
        (conv1): Conv1d(1.05 M, 7.673% Params, 151.29 MMac, 10.157% MACs, 512, 2048, kernel_size=(1,), stride=(1,))
        (conv2): Conv1d(1.05 M, 7.662% Params, 151.07 MMac, 10.142% MACs, 2048, 512, kernel_size=(1,), stride=(1,))
        (norm1): LayerNorm(0, 0.000% Params, 0.0 Mac, 0.000% MACs, (512,), eps=1e-05, elementwise_affine=True)
        (norm2): LayerNorm(0, 0.000% Params, 0.0 Mac, 0.000% MACs, (512,), eps=1e-05, elementwise_affine=True)
        (norm3): LayerNorm(0, 0.000% Params, 0.0 Mac, 0.000% MACs, (512,), eps=1e-05, elementwise_affine=True)
        (dropout): Dropout(0, 0.000% Params, 0.0 Mac, 0.000% MACs, p=0.05, inplace=False)
      )
    )
    (norm): LayerNorm(0, 0.000% Params, 0.0 Mac, 0.000% MACs, (512,), eps=1e-05, elementwise_affine=True)
    (projection): Linear(3.59 k, 0.026% Params, 516.1 KMac, 0.035% MACs, in_features=512, out_features=7, bias=True)
  )
)
Computational complexity:       1.49 GMac
Number of parameters:           13.69 M 
