…
INFO: Trainable parameter count: 16.84M
INFO: Trainable parameter count: 16.84M
INFO: Trainable parameter count: 16.84M
INFO: Trainable parameter count: 16.84M
INFO: Trainable parameter count: 16.84M
INFO: Trainable parameter count: 16.84M
INFO: Trainable parameter count: 16.84M
INFO: Trainable parameter count: 16.84M
INFO: Trainable parameter count: 16.84M
Model(
  16.83 M, 99.921% Params, 1.79 GMac, 100.000% MACs, 
  (enc_embedding): DataEmbedding(
    12.8 k, 0.076% Params, 1.23 MMac, 0.069% MACs, 
    (value_embedding): TokenEmbedding(
      10.75 k, 0.064% Params, 1.03 MMac, 0.058% MACs, 
      (tokenConv): Conv1d(10.75 k, 0.064% Params, 1.03 MMac, 0.058% MACs, 7, 512, kernel_size=(3,), stride=(1,), padding=(1,), bias=False, padding_mode=circular)
    )
    (position_embedding): PositionalEmbedding(0, 0.000% Params, 0.0 Mac, 0.000% MACs, )
    (temporal_embedding): TimeFeatureEmbedding(
      2.05 k, 0.012% Params, 196.61 KMac, 0.011% MACs, 
      (embed): Linear(2.05 k, 0.012% Params, 196.61 KMac, 0.011% MACs, in_features=4, out_features=512, bias=False)
    )
    (dropout): Dropout(0, 0.000% Params, 0.0 Mac, 0.000% MACs, p=0.05, inplace=False)
  )
  (dec_embedding): DataEmbedding(
    12.8 k, 0.076% Params, 1.84 MMac, 0.103% MACs, 
    (value_embedding): TokenEmbedding(
      10.75 k, 0.064% Params, 1.55 MMac, 0.086% MACs, 
      (tokenConv): Conv1d(10.75 k, 0.064% Params, 1.55 MMac, 0.086% MACs, 7, 512, kernel_size=(3,), stride=(1,), padding=(1,), bias=False, padding_mode=circular)
    )
    (position_embedding): PositionalEmbedding(0, 0.000% Params, 0.0 Mac, 0.000% MACs, )
    (temporal_embedding): TimeFeatureEmbedding(
      2.05 k, 0.012% Params, 294.91 KMac, 0.016% MACs, 
      (embed): Linear(2.05 k, 0.012% Params, 294.91 KMac, 0.016% MACs, in_features=4, out_features=512, bias=False)
    )
    (dropout): Dropout(0, 0.000% Params, 0.0 Mac, 0.000% MACs, p=0.05, inplace=False)
  )
  (encoder): Encoder(
    12.6 M, 74.808% Params, 1.21 GMac, 67.474% MACs, 
    (attn_layers): ModuleList(
      12.6 M, 74.808% Params, 1.21 GMac, 67.474% MACs, 
      (0): EncoderLayer(
        3.15 M, 18.702% Params, 302.24 MMac, 16.869% MACs, 
        (attention): AttentionLayer(
          1.05 M, 6.237% Params, 100.67 MMac, 5.618% MACs, 
          (inner_attention): FullAttention(
            0, 0.000% Params, 0.0 Mac, 0.000% MACs, 
            (dropout): Dropout(0, 0.000% Params, 0.0 Mac, 0.000% MACs, p=0.05, inplace=False)
          )
          (query_projection): Linear(262.66 k, 1.559% Params, 25.17 MMac, 1.405% MACs, in_features=512, out_features=512, bias=True)
          (key_projection): Linear(262.66 k, 1.559% Params, 25.17 MMac, 1.405% MACs, in_features=512, out_features=512, bias=True)
          (value_projection): Linear(262.66 k, 1.559% Params, 25.17 MMac, 1.405% MACs, in_features=512, out_features=512, bias=True)
          (out_projection): Linear(262.66 k, 1.559% Params, 25.17 MMac, 1.405% MACs, in_features=512, out_features=512, bias=True)
        )
        (conv1): Conv1d(1.05 M, 6.237% Params, 100.86 MMac, 5.629% MACs, 512, 2048, kernel_size=(1,), stride=(1,))
        (conv2): Conv1d(1.05 M, 6.228% Params, 100.71 MMac, 5.621% MACs, 2048, 512, kernel_size=(1,), stride=(1,))
        (norm1): LayerNorm(0, 0.000% Params, 0.0 Mac, 0.000% MACs, (512,), eps=1e-05, elementwise_affine=True)
        (norm2): LayerNorm(0, 0.000% Params, 0.0 Mac, 0.000% MACs, (512,), eps=1e-05, elementwise_affine=True)
        (dropout): Dropout(0, 0.000% Params, 0.0 Mac, 0.000% MACs, p=0.05, inplace=False)
      )
      (1): EncoderLayer(
        3.15 M, 18.702% Params, 302.24 MMac, 16.869% MACs, 
        (attention): AttentionLayer(
          1.05 M, 6.237% Params, 100.67 MMac, 5.618% MACs, 
          (inner_attention): FullAttention(
            0, 0.000% Params, 0.0 Mac, 0.000% MACs, 
            (dropout): Dropout(0, 0.000% Params, 0.0 Mac, 0.000% MACs, p=0.05, inplace=False)
          )
          (query_projection): Linear(262.66 k, 1.559% Params, 25.17 MMac, 1.405% MACs, in_features=512, out_features=512, bias=True)
          (key_projection): Linear(262.66 k, 1.559% Params, 25.17 MMac, 1.405% MACs, in_features=512, out_features=512, bias=True)
          (value_projection): Linear(262.66 k, 1.559% Params, 25.17 MMac, 1.405% MACs, in_features=512, out_features=512, bias=True)
          (out_projection): Linear(262.66 k, 1.559% Params, 25.17 MMac, 1.405% MACs, in_features=512, out_features=512, bias=True)
        )
        (conv1): Conv1d(1.05 M, 6.237% Params, 100.86 MMac, 5.629% MACs, 512, 2048, kernel_size=(1,), stride=(1,))
        (conv2): Conv1d(1.05 M, 6.228% Params, 100.71 MMac, 5.621% MACs, 2048, 512, kernel_size=(1,), stride=(1,))
        (norm1): LayerNorm(0, 0.000% Params, 0.0 Mac, 0.000% MACs, (512,), eps=1e-05, elementwise_affine=True)
        (norm2): LayerNorm(0, 0.000% Params, 0.0 Mac, 0.000% MACs, (512,), eps=1e-05, elementwise_affine=True)
        (dropout): Dropout(0, 0.000% Params, 0.0 Mac, 0.000% MACs, p=0.05, inplace=False)
      )
      (2): EncoderLayer(
        3.15 M, 18.702% Params, 302.24 MMac, 16.869% MACs, 
        (attention): AttentionLayer(
          1.05 M, 6.237% Params, 100.67 MMac, 5.618% MACs, 
          (inner_attention): FullAttention(
            0, 0.000% Params, 0.0 Mac, 0.000% MACs, 
            (dropout): Dropout(0, 0.000% Params, 0.0 Mac, 0.000% MACs, p=0.05, inplace=False)
          )
          (query_projection): Linear(262.66 k, 1.559% Params, 25.17 MMac, 1.405% MACs, in_features=512, out_features=512, bias=True)
          (key_projection): Linear(262.66 k, 1.559% Params, 25.17 MMac, 1.405% MACs, in_features=512, out_features=512, bias=True)
          (value_projection): Linear(262.66 k, 1.559% Params, 25.17 MMac, 1.405% MACs, in_features=512, out_features=512, bias=True)
          (out_projection): Linear(262.66 k, 1.559% Params, 25.17 MMac, 1.405% MACs, in_features=512, out_features=512, bias=True)
        )
        (conv1): Conv1d(1.05 M, 6.237% Params, 100.86 MMac, 5.629% MACs, 512, 2048, kernel_size=(1,), stride=(1,))
        (conv2): Conv1d(1.05 M, 6.228% Params, 100.71 MMac, 5.621% MACs, 2048, 512, kernel_size=(1,), stride=(1,))
        (norm1): LayerNorm(0, 0.000% Params, 0.0 Mac, 0.000% MACs, (512,), eps=1e-05, elementwise_affine=True)
        (norm2): LayerNorm(0, 0.000% Params, 0.0 Mac, 0.000% MACs, (512,), eps=1e-05, elementwise_affine=True)
        (dropout): Dropout(0, 0.000% Params, 0.0 Mac, 0.000% MACs, p=0.05, inplace=False)
      )
      (3): EncoderLayer(
        3.15 M, 18.702% Params, 302.24 MMac, 16.869% MACs, 
        (attention): AttentionLayer(
          1.05 M, 6.237% Params, 100.67 MMac, 5.618% MACs, 
          (inner_attention): FullAttention(
            0, 0.000% Params, 0.0 Mac, 0.000% MACs, 
            (dropout): Dropout(0, 0.000% Params, 0.0 Mac, 0.000% MACs, p=0.05, inplace=False)
          )
          (query_projection): Linear(262.66 k, 1.559% Params, 25.17 MMac, 1.405% MACs, in_features=512, out_features=512, bias=True)
          (key_projection): Linear(262.66 k, 1.559% Params, 25.17 MMac, 1.405% MACs, in_features=512, out_features=512, bias=True)
          (value_projection): Linear(262.66 k, 1.559% Params, 25.17 MMac, 1.405% MACs, in_features=512, out_features=512, bias=True)
          (out_projection): Linear(262.66 k, 1.559% Params, 25.17 MMac, 1.405% MACs, in_features=512, out_features=512, bias=True)
        )
        (conv1): Conv1d(1.05 M, 6.237% Params, 100.86 MMac, 5.629% MACs, 512, 2048, kernel_size=(1,), stride=(1,))
        (conv2): Conv1d(1.05 M, 6.228% Params, 100.71 MMac, 5.621% MACs, 2048, 512, kernel_size=(1,), stride=(1,))
        (norm1): LayerNorm(0, 0.000% Params, 0.0 Mac, 0.000% MACs, (512,), eps=1e-05, elementwise_affine=True)
        (norm2): LayerNorm(0, 0.000% Params, 0.0 Mac, 0.000% MACs, (512,), eps=1e-05, elementwise_affine=True)
        (dropout): Dropout(0, 0.000% Params, 0.0 Mac, 0.000% MACs, p=0.05, inplace=False)
      )
    )
    (norm): LayerNorm(0, 0.000% Params, 0.0 Mac, 0.000% MACs, (512,), eps=1e-05, elementwise_affine=True)
  )
  (decoder): Decoder(
    4.2 M, 24.961% Params, 579.7 MMac, 32.354% MACs, 
    (layers): ModuleList(
      4.2 M, 24.939% Params, 579.19 MMac, 32.326% MACs, 
      (0): DecoderLayer(
        4.2 M, 24.939% Params, 579.19 MMac, 32.326% MACs, 
        (self_attention): AttentionLayer(
          1.05 M, 6.237% Params, 151.0 MMac, 8.427% MACs, 
          (inner_attention): FullAttention(
            0, 0.000% Params, 0.0 Mac, 0.000% MACs, 
            (dropout): Dropout(0, 0.000% Params, 0.0 Mac, 0.000% MACs, p=0.05, inplace=False)
          )
          (query_projection): Linear(262.66 k, 1.559% Params, 37.75 MMac, 2.107% MACs, in_features=512, out_features=512, bias=True)
          (key_projection): Linear(262.66 k, 1.559% Params, 37.75 MMac, 2.107% MACs, in_features=512, out_features=512, bias=True)
          (value_projection): Linear(262.66 k, 1.559% Params, 37.75 MMac, 2.107% MACs, in_features=512, out_features=512, bias=True)
          (out_projection): Linear(262.66 k, 1.559% Params, 37.75 MMac, 2.107% MACs, in_features=512, out_features=512, bias=True)
        )
        (cross_attention): AttentionLayer(
          1.05 M, 6.237% Params, 125.83 MMac, 7.023% MACs, 
          (inner_attention): FullAttention(
            0, 0.000% Params, 0.0 Mac, 0.000% MACs, 
            (dropout): Dropout(0, 0.000% Params, 0.0 Mac, 0.000% MACs, p=0.05, inplace=False)
          )
          (query_projection): Linear(262.66 k, 1.559% Params, 37.75 MMac, 2.107% MACs, in_features=512, out_features=512, bias=True)
          (key_projection): Linear(262.66 k, 1.559% Params, 25.17 MMac, 1.405% MACs, in_features=512, out_features=512, bias=True)
          (value_projection): Linear(262.66 k, 1.559% Params, 25.17 MMac, 1.405% MACs, in_features=512, out_features=512, bias=True)
          (out_projection): Linear(262.66 k, 1.559% Params, 37.75 MMac, 2.107% MACs, in_features=512, out_features=512, bias=True)
        )
        (conv1): Conv1d(1.05 M, 6.237% Params, 151.29 MMac, 8.444% MACs, 512, 2048, kernel_size=(1,), stride=(1,))
        (conv2): Conv1d(1.05 M, 6.228% Params, 151.07 MMac, 8.431% MACs, 2048, 512, kernel_size=(1,), stride=(1,))
        (norm1): LayerNorm(0, 0.000% Params, 0.0 Mac, 0.000% MACs, (512,), eps=1e-05, elementwise_affine=True)
        (norm2): LayerNorm(0, 0.000% Params, 0.0 Mac, 0.000% MACs, (512,), eps=1e-05, elementwise_affine=True)
        (norm3): LayerNorm(0, 0.000% Params, 0.0 Mac, 0.000% MACs, (512,), eps=1e-05, elementwise_affine=True)
        (dropout): Dropout(0, 0.000% Params, 0.0 Mac, 0.000% MACs, p=0.05, inplace=False)
      )
    )
    (norm): LayerNorm(0, 0.000% Params, 0.0 Mac, 0.000% MACs, (512,), eps=1e-05, elementwise_affine=True)
    (projection): Linear(3.59 k, 0.021% Params, 516.1 KMac, 0.029% MACs, in_features=512, out_features=7, bias=True)
  )
)
Computational complexity:       1.79 GMac
Number of parameters:           16.84 M 
