…
INFO: Trainable parameter count: 24.11M
INFO: Trainable parameter count: 24.11M
INFO: Trainable parameter count: 24.11M
INFO: Trainable parameter count: 24.11M
INFO: Trainable parameter count: 24.11M
INFO: Trainable parameter count: 24.11M
INFO: Trainable parameter count: 24.11M
INFO: Trainable parameter count: 24.28M
INFO: Trainable parameter count: 24.28M
Model(
  24.26 M, 99.924% Params, 3.06 GMac, 100.000% MACs, 
  (enc_embedding): DataEmbedding(
    495.1 k, 2.039% Params, 47.53 MMac, 1.551% MACs, 
    (value_embedding): TokenEmbedding(
      493.06 k, 2.031% Params, 47.33 MMac, 1.545% MACs, 
      (tokenConv): Conv1d(493.06 k, 2.031% Params, 47.33 MMac, 1.545% MACs, 321, 512, kernel_size=(3,), stride=(1,), padding=(1,), bias=False, padding_mode=circular)
    )
    (position_embedding): PositionalEmbedding(0, 0.000% Params, 0.0 Mac, 0.000% MACs, )
    (temporal_embedding): TimeFeatureEmbedding(
      2.05 k, 0.008% Params, 196.61 KMac, 0.006% MACs, 
      (embed): Linear(2.05 k, 0.008% Params, 196.61 KMac, 0.006% MACs, in_features=4, out_features=512, bias=False)
    )
    (dropout): Dropout(0, 0.000% Params, 0.0 Mac, 0.000% MACs, p=0.05, inplace=False)
  )
  (dec_embedding): DataEmbedding(
    495.1 k, 2.039% Params, 71.29 MMac, 2.327% MACs, 
    (value_embedding): TokenEmbedding(
      493.06 k, 2.031% Params, 71.0 MMac, 2.317% MACs, 
      (tokenConv): Conv1d(493.06 k, 2.031% Params, 71.0 MMac, 2.317% MACs, 321, 512, kernel_size=(3,), stride=(1,), padding=(1,), bias=False, padding_mode=circular)
    )
    (position_embedding): PositionalEmbedding(0, 0.000% Params, 0.0 Mac, 0.000% MACs, )
    (temporal_embedding): TimeFeatureEmbedding(
      2.05 k, 0.008% Params, 294.91 KMac, 0.010% MACs, 
      (embed): Linear(2.05 k, 0.008% Params, 294.91 KMac, 0.010% MACs, in_features=4, out_features=512, bias=False)
    )
    (dropout): Dropout(0, 0.000% Params, 0.0 Mac, 0.000% MACs, p=0.05, inplace=False)
  )
  (encoder): Encoder(
    6.3 M, 25.952% Params, 604.48 MMac, 19.730% MACs, 
    (attn_layers): ModuleList(
      6.3 M, 25.952% Params, 604.48 MMac, 19.730% MACs, 
      (0): EncoderLayer(
        3.15 M, 12.976% Params, 302.24 MMac, 9.865% MACs, 
        (attention): AttentionLayer(
          1.05 M, 4.328% Params, 100.67 MMac, 3.286% MACs, 
          (inner_attention): FullAttention(
            0, 0.000% Params, 0.0 Mac, 0.000% MACs, 
            (dropout): Dropout(0, 0.000% Params, 0.0 Mac, 0.000% MACs, p=0.05, inplace=False)
          )
          (query_projection): Linear(262.66 k, 1.082% Params, 25.17 MMac, 0.821% MACs, in_features=512, out_features=512, bias=True)
          (key_projection): Linear(262.66 k, 1.082% Params, 25.17 MMac, 0.821% MACs, in_features=512, out_features=512, bias=True)
          (value_projection): Linear(262.66 k, 1.082% Params, 25.17 MMac, 0.821% MACs, in_features=512, out_features=512, bias=True)
          (out_projection): Linear(262.66 k, 1.082% Params, 25.17 MMac, 0.821% MACs, in_features=512, out_features=512, bias=True)
        )
        (conv1): Conv1d(1.05 M, 4.328% Params, 100.86 MMac, 3.292% MACs, 512, 2048, kernel_size=(1,), stride=(1,))
        (conv2): Conv1d(1.05 M, 4.321% Params, 100.71 MMac, 3.287% MACs, 2048, 512, kernel_size=(1,), stride=(1,))
        (norm1): LayerNorm(0, 0.000% Params, 0.0 Mac, 0.000% MACs, (512,), eps=1e-05, elementwise_affine=True)
        (norm2): LayerNorm(0, 0.000% Params, 0.0 Mac, 0.000% MACs, (512,), eps=1e-05, elementwise_affine=True)
        (dropout): Dropout(0, 0.000% Params, 0.0 Mac, 0.000% MACs, p=0.05, inplace=False)
      )
      (1): EncoderLayer(
        3.15 M, 12.976% Params, 302.24 MMac, 9.865% MACs, 
        (attention): AttentionLayer(
          1.05 M, 4.328% Params, 100.67 MMac, 3.286% MACs, 
          (inner_attention): FullAttention(
            0, 0.000% Params, 0.0 Mac, 0.000% MACs, 
            (dropout): Dropout(0, 0.000% Params, 0.0 Mac, 0.000% MACs, p=0.05, inplace=False)
          )
          (query_projection): Linear(262.66 k, 1.082% Params, 25.17 MMac, 0.821% MACs, in_features=512, out_features=512, bias=True)
          (key_projection): Linear(262.66 k, 1.082% Params, 25.17 MMac, 0.821% MACs, in_features=512, out_features=512, bias=True)
          (value_projection): Linear(262.66 k, 1.082% Params, 25.17 MMac, 0.821% MACs, in_features=512, out_features=512, bias=True)
          (out_projection): Linear(262.66 k, 1.082% Params, 25.17 MMac, 0.821% MACs, in_features=512, out_features=512, bias=True)
        )
        (conv1): Conv1d(1.05 M, 4.328% Params, 100.86 MMac, 3.292% MACs, 512, 2048, kernel_size=(1,), stride=(1,))
        (conv2): Conv1d(1.05 M, 4.321% Params, 100.71 MMac, 3.287% MACs, 2048, 512, kernel_size=(1,), stride=(1,))
        (norm1): LayerNorm(0, 0.000% Params, 0.0 Mac, 0.000% MACs, (512,), eps=1e-05, elementwise_affine=True)
        (norm2): LayerNorm(0, 0.000% Params, 0.0 Mac, 0.000% MACs, (512,), eps=1e-05, elementwise_affine=True)
        (dropout): Dropout(0, 0.000% Params, 0.0 Mac, 0.000% MACs, p=0.05, inplace=False)
      )
    )
    (norm): LayerNorm(0, 0.000% Params, 0.0 Mac, 0.000% MACs, (512,), eps=1e-05, elementwise_affine=True)
  )
  (decoder): Decoder(
    16.97 M, 69.893% Params, 2.34 GMac, 76.391% MACs, 
    (layers): ModuleList(
      16.8 M, 69.215% Params, 2.32 GMac, 75.619% MACs, 
      (0): DecoderLayer(
        4.2 M, 17.304% Params, 579.19 MMac, 18.905% MACs, 
        (self_attention): AttentionLayer(
          1.05 M, 4.328% Params, 151.0 MMac, 4.929% MACs, 
          (inner_attention): FullAttention(
            0, 0.000% Params, 0.0 Mac, 0.000% MACs, 
            (dropout): Dropout(0, 0.000% Params, 0.0 Mac, 0.000% MACs, p=0.05, inplace=False)
          )
          (query_projection): Linear(262.66 k, 1.082% Params, 37.75 MMac, 1.232% MACs, in_features=512, out_features=512, bias=True)
          (key_projection): Linear(262.66 k, 1.082% Params, 37.75 MMac, 1.232% MACs, in_features=512, out_features=512, bias=True)
          (value_projection): Linear(262.66 k, 1.082% Params, 37.75 MMac, 1.232% MACs, in_features=512, out_features=512, bias=True)
          (out_projection): Linear(262.66 k, 1.082% Params, 37.75 MMac, 1.232% MACs, in_features=512, out_features=512, bias=True)
        )
        (cross_attention): AttentionLayer(
          1.05 M, 4.328% Params, 125.83 MMac, 4.107% MACs, 
          (inner_attention): FullAttention(
            0, 0.000% Params, 0.0 Mac, 0.000% MACs, 
            (dropout): Dropout(0, 0.000% Params, 0.0 Mac, 0.000% MACs, p=0.05, inplace=False)
          )
          (query_projection): Linear(262.66 k, 1.082% Params, 37.75 MMac, 1.232% MACs, in_features=512, out_features=512, bias=True)
          (key_projection): Linear(262.66 k, 1.082% Params, 25.17 MMac, 0.821% MACs, in_features=512, out_features=512, bias=True)
          (value_projection): Linear(262.66 k, 1.082% Params, 25.17 MMac, 0.821% MACs, in_features=512, out_features=512, bias=True)
          (out_projection): Linear(262.66 k, 1.082% Params, 37.75 MMac, 1.232% MACs, in_features=512, out_features=512, bias=True)
        )
        (conv1): Conv1d(1.05 M, 4.328% Params, 151.29 MMac, 4.938% MACs, 512, 2048, kernel_size=(1,), stride=(1,))
        (conv2): Conv1d(1.05 M, 4.321% Params, 151.07 MMac, 4.931% MACs, 2048, 512, kernel_size=(1,), stride=(1,))
        (norm1): LayerNorm(0, 0.000% Params, 0.0 Mac, 0.000% MACs, (512,), eps=1e-05, elementwise_affine=True)
        (norm2): LayerNorm(0, 0.000% Params, 0.0 Mac, 0.000% MACs, (512,), eps=1e-05, elementwise_affine=True)
        (norm3): LayerNorm(0, 0.000% Params, 0.0 Mac, 0.000% MACs, (512,), eps=1e-05, elementwise_affine=True)
        (dropout): Dropout(0, 0.000% Params, 0.0 Mac, 0.000% MACs, p=0.05, inplace=False)
      )
      (1): DecoderLayer(
        4.2 M, 17.304% Params, 579.19 MMac, 18.905% MACs, 
        (self_attention): AttentionLayer(
          1.05 M, 4.328% Params, 151.0 MMac, 4.929% MACs, 
          (inner_attention): FullAttention(
            0, 0.000% Params, 0.0 Mac, 0.000% MACs, 
            (dropout): Dropout(0, 0.000% Params, 0.0 Mac, 0.000% MACs, p=0.05, inplace=False)
          )
          (query_projection): Linear(262.66 k, 1.082% Params, 37.75 MMac, 1.232% MACs, in_features=512, out_features=512, bias=True)
          (key_projection): Linear(262.66 k, 1.082% Params, 37.75 MMac, 1.232% MACs, in_features=512, out_features=512, bias=True)
          (value_projection): Linear(262.66 k, 1.082% Params, 37.75 MMac, 1.232% MACs, in_features=512, out_features=512, bias=True)
          (out_projection): Linear(262.66 k, 1.082% Params, 37.75 MMac, 1.232% MACs, in_features=512, out_features=512, bias=True)
        )
        (cross_attention): AttentionLayer(
          1.05 M, 4.328% Params, 125.83 MMac, 4.107% MACs, 
          (inner_attention): FullAttention(
            0, 0.000% Params, 0.0 Mac, 0.000% MACs, 
            (dropout): Dropout(0, 0.000% Params, 0.0 Mac, 0.000% MACs, p=0.05, inplace=False)
          )
          (query_projection): Linear(262.66 k, 1.082% Params, 37.75 MMac, 1.232% MACs, in_features=512, out_features=512, bias=True)
          (key_projection): Linear(262.66 k, 1.082% Params, 25.17 MMac, 0.821% MACs, in_features=512, out_features=512, bias=True)
          (value_projection): Linear(262.66 k, 1.082% Params, 25.17 MMac, 0.821% MACs, in_features=512, out_features=512, bias=True)
          (out_projection): Linear(262.66 k, 1.082% Params, 37.75 MMac, 1.232% MACs, in_features=512, out_features=512, bias=True)
        )
        (conv1): Conv1d(1.05 M, 4.328% Params, 151.29 MMac, 4.938% MACs, 512, 2048, kernel_size=(1,), stride=(1,))
        (conv2): Conv1d(1.05 M, 4.321% Params, 151.07 MMac, 4.931% MACs, 2048, 512, kernel_size=(1,), stride=(1,))
        (norm1): LayerNorm(0, 0.000% Params, 0.0 Mac, 0.000% MACs, (512,), eps=1e-05, elementwise_affine=True)
        (norm2): LayerNorm(0, 0.000% Params, 0.0 Mac, 0.000% MACs, (512,), eps=1e-05, elementwise_affine=True)
        (norm3): LayerNorm(0, 0.000% Params, 0.0 Mac, 0.000% MACs, (512,), eps=1e-05, elementwise_affine=True)
        (dropout): Dropout(0, 0.000% Params, 0.0 Mac, 0.000% MACs, p=0.05, inplace=False)
      )
      (2): DecoderLayer(
        4.2 M, 17.304% Params, 579.19 MMac, 18.905% MACs, 
        (self_attention): AttentionLayer(
          1.05 M, 4.328% Params, 151.0 MMac, 4.929% MACs, 
          (inner_attention): FullAttention(
            0, 0.000% Params, 0.0 Mac, 0.000% MACs, 
            (dropout): Dropout(0, 0.000% Params, 0.0 Mac, 0.000% MACs, p=0.05, inplace=False)
          )
          (query_projection): Linear(262.66 k, 1.082% Params, 37.75 MMac, 1.232% MACs, in_features=512, out_features=512, bias=True)
          (key_projection): Linear(262.66 k, 1.082% Params, 37.75 MMac, 1.232% MACs, in_features=512, out_features=512, bias=True)
          (value_projection): Linear(262.66 k, 1.082% Params, 37.75 MMac, 1.232% MACs, in_features=512, out_features=512, bias=True)
          (out_projection): Linear(262.66 k, 1.082% Params, 37.75 MMac, 1.232% MACs, in_features=512, out_features=512, bias=True)
        )
        (cross_attention): AttentionLayer(
          1.05 M, 4.328% Params, 125.83 MMac, 4.107% MACs, 
          (inner_attention): FullAttention(
            0, 0.000% Params, 0.0 Mac, 0.000% MACs, 
            (dropout): Dropout(0, 0.000% Params, 0.0 Mac, 0.000% MACs, p=0.05, inplace=False)
          )
          (query_projection): Linear(262.66 k, 1.082% Params, 37.75 MMac, 1.232% MACs, in_features=512, out_features=512, bias=True)
          (key_projection): Linear(262.66 k, 1.082% Params, 25.17 MMac, 0.821% MACs, in_features=512, out_features=512, bias=True)
          (value_projection): Linear(262.66 k, 1.082% Params, 25.17 MMac, 0.821% MACs, in_features=512, out_features=512, bias=True)
          (out_projection): Linear(262.66 k, 1.082% Params, 37.75 MMac, 1.232% MACs, in_features=512, out_features=512, bias=True)
        )
        (conv1): Conv1d(1.05 M, 4.328% Params, 151.29 MMac, 4.938% MACs, 512, 2048, kernel_size=(1,), stride=(1,))
        (conv2): Conv1d(1.05 M, 4.321% Params, 151.07 MMac, 4.931% MACs, 2048, 512, kernel_size=(1,), stride=(1,))
        (norm1): LayerNorm(0, 0.000% Params, 0.0 Mac, 0.000% MACs, (512,), eps=1e-05, elementwise_affine=True)
        (norm2): LayerNorm(0, 0.000% Params, 0.0 Mac, 0.000% MACs, (512,), eps=1e-05, elementwise_affine=True)
        (norm3): LayerNorm(0, 0.000% Params, 0.0 Mac, 0.000% MACs, (512,), eps=1e-05, elementwise_affine=True)
        (dropout): Dropout(0, 0.000% Params, 0.0 Mac, 0.000% MACs, p=0.05, inplace=False)
      )
      (3): DecoderLayer(
        4.2 M, 17.304% Params, 579.19 MMac, 18.905% MACs, 
        (self_attention): AttentionLayer(
          1.05 M, 4.328% Params, 151.0 MMac, 4.929% MACs, 
          (inner_attention): FullAttention(
            0, 0.000% Params, 0.0 Mac, 0.000% MACs, 
            (dropout): Dropout(0, 0.000% Params, 0.0 Mac, 0.000% MACs, p=0.05, inplace=False)
          )
          (query_projection): Linear(262.66 k, 1.082% Params, 37.75 MMac, 1.232% MACs, in_features=512, out_features=512, bias=True)
          (key_projection): Linear(262.66 k, 1.082% Params, 37.75 MMac, 1.232% MACs, in_features=512, out_features=512, bias=True)
          (value_projection): Linear(262.66 k, 1.082% Params, 37.75 MMac, 1.232% MACs, in_features=512, out_features=512, bias=True)
          (out_projection): Linear(262.66 k, 1.082% Params, 37.75 MMac, 1.232% MACs, in_features=512, out_features=512, bias=True)
        )
        (cross_attention): AttentionLayer(
          1.05 M, 4.328% Params, 125.83 MMac, 4.107% MACs, 
          (inner_attention): FullAttention(
            0, 0.000% Params, 0.0 Mac, 0.000% MACs, 
            (dropout): Dropout(0, 0.000% Params, 0.0 Mac, 0.000% MACs, p=0.05, inplace=False)
          )
          (query_projection): Linear(262.66 k, 1.082% Params, 37.75 MMac, 1.232% MACs, in_features=512, out_features=512, bias=True)
          (key_projection): Linear(262.66 k, 1.082% Params, 25.17 MMac, 0.821% MACs, in_features=512, out_features=512, bias=True)
          (value_projection): Linear(262.66 k, 1.082% Params, 25.17 MMac, 0.821% MACs, in_features=512, out_features=512, bias=True)
          (out_projection): Linear(262.66 k, 1.082% Params, 37.75 MMac, 1.232% MACs, in_features=512, out_features=512, bias=True)
        )
        (conv1): Conv1d(1.05 M, 4.328% Params, 151.29 MMac, 4.938% MACs, 512, 2048, kernel_size=(1,), stride=(1,))
        (conv2): Conv1d(1.05 M, 4.321% Params, 151.07 MMac, 4.931% MACs, 2048, 512, kernel_size=(1,), stride=(1,))
        (norm1): LayerNorm(0, 0.000% Params, 0.0 Mac, 0.000% MACs, (512,), eps=1e-05, elementwise_affine=True)
        (norm2): LayerNorm(0, 0.000% Params, 0.0 Mac, 0.000% MACs, (512,), eps=1e-05, elementwise_affine=True)
        (norm3): LayerNorm(0, 0.000% Params, 0.0 Mac, 0.000% MACs, (512,), eps=1e-05, elementwise_affine=True)
        (dropout): Dropout(0, 0.000% Params, 0.0 Mac, 0.000% MACs, p=0.05, inplace=False)
      )
    )
    (norm): LayerNorm(0, 0.000% Params, 0.0 Mac, 0.000% MACs, (512,), eps=1e-05, elementwise_affine=True)
    (projection): Linear(164.67 k, 0.678% Params, 23.67 MMac, 0.772% MACs, in_features=512, out_features=321, bias=True)
  )
)
Computational complexity:       3.06 GMac
Number of parameters:           24.28 M 
