…
INFO: Trainable parameter count: 30.41M
INFO: Trainable parameter count: 30.42M
INFO: Trainable parameter count: 30.42M
INFO: Trainable parameter count: 30.42M
INFO: Trainable parameter count: 30.42M
INFO: Trainable parameter count: 30.42M
INFO: Trainable parameter count: 30.42M
INFO: Trainable parameter count: 30.58M
INFO: Trainable parameter count: 30.58M
Model(
  30.56 M, 99.926% Params, 3.67 GMac, 100.000% MACs, 
  (enc_embedding): DataEmbedding(
    495.1 k, 1.619% Params, 47.53 MMac, 1.296% MACs, 
    (value_embedding): TokenEmbedding(
      493.06 k, 1.612% Params, 47.33 MMac, 1.290% MACs, 
      (tokenConv): Conv1d(493.06 k, 1.612% Params, 47.33 MMac, 1.290% MACs, 321, 512, kernel_size=(3,), stride=(1,), padding=(1,), bias=False, padding_mode=circular)
    )
    (position_embedding): PositionalEmbedding(0, 0.000% Params, 0.0 Mac, 0.000% MACs, )
    (temporal_embedding): TimeFeatureEmbedding(
      2.05 k, 0.007% Params, 196.61 KMac, 0.005% MACs, 
      (embed): Linear(2.05 k, 0.007% Params, 196.61 KMac, 0.005% MACs, in_features=4, out_features=512, bias=False)
    )
    (dropout): Dropout(0, 0.000% Params, 0.0 Mac, 0.000% MACs, p=0.05, inplace=False)
  )
  (dec_embedding): DataEmbedding(
    495.1 k, 1.619% Params, 71.29 MMac, 1.944% MACs, 
    (value_embedding): TokenEmbedding(
      493.06 k, 1.612% Params, 71.0 MMac, 1.936% MACs, 
      (tokenConv): Conv1d(493.06 k, 1.612% Params, 71.0 MMac, 1.936% MACs, 321, 512, kernel_size=(3,), stride=(1,), padding=(1,), bias=False, padding_mode=circular)
    )
    (position_embedding): PositionalEmbedding(0, 0.000% Params, 0.0 Mac, 0.000% MACs, )
    (temporal_embedding): TimeFeatureEmbedding(
      2.05 k, 0.007% Params, 294.91 KMac, 0.008% MACs, 
      (embed): Linear(2.05 k, 0.007% Params, 294.91 KMac, 0.008% MACs, in_features=4, out_features=512, bias=False)
    )
    (dropout): Dropout(0, 0.000% Params, 0.0 Mac, 0.000% MACs, p=0.05, inplace=False)
  )
  (encoder): Encoder(
    12.6 M, 41.204% Params, 1.21 GMac, 32.958% MACs, 
    (attn_layers): ModuleList(
      12.6 M, 41.204% Params, 1.21 GMac, 32.958% MACs, 
      (0): EncoderLayer(
        3.15 M, 10.301% Params, 302.24 MMac, 8.239% MACs, 
        (attention): AttentionLayer(
          1.05 M, 3.435% Params, 100.67 MMac, 2.744% MACs, 
          (inner_attention): FullAttention(
            0, 0.000% Params, 0.0 Mac, 0.000% MACs, 
            (dropout): Dropout(0, 0.000% Params, 0.0 Mac, 0.000% MACs, p=0.05, inplace=False)
          )
          (query_projection): Linear(262.66 k, 0.859% Params, 25.17 MMac, 0.686% MACs, in_features=512, out_features=512, bias=True)
          (key_projection): Linear(262.66 k, 0.859% Params, 25.17 MMac, 0.686% MACs, in_features=512, out_features=512, bias=True)
          (value_projection): Linear(262.66 k, 0.859% Params, 25.17 MMac, 0.686% MACs, in_features=512, out_features=512, bias=True)
          (out_projection): Linear(262.66 k, 0.859% Params, 25.17 MMac, 0.686% MACs, in_features=512, out_features=512, bias=True)
        )
        (conv1): Conv1d(1.05 M, 3.435% Params, 100.86 MMac, 2.750% MACs, 512, 2048, kernel_size=(1,), stride=(1,))
        (conv2): Conv1d(1.05 M, 3.430% Params, 100.71 MMac, 2.746% MACs, 2048, 512, kernel_size=(1,), stride=(1,))
        (norm1): LayerNorm(0, 0.000% Params, 0.0 Mac, 0.000% MACs, (512,), eps=1e-05, elementwise_affine=True)
        (norm2): LayerNorm(0, 0.000% Params, 0.0 Mac, 0.000% MACs, (512,), eps=1e-05, elementwise_affine=True)
        (dropout): Dropout(0, 0.000% Params, 0.0 Mac, 0.000% MACs, p=0.05, inplace=False)
      )
      (1): EncoderLayer(
        3.15 M, 10.301% Params, 302.24 MMac, 8.239% MACs, 
        (attention): AttentionLayer(
          1.05 M, 3.435% Params, 100.67 MMac, 2.744% MACs, 
          (inner_attention): FullAttention(
            0, 0.000% Params, 0.0 Mac, 0.000% MACs, 
            (dropout): Dropout(0, 0.000% Params, 0.0 Mac, 0.000% MACs, p=0.05, inplace=False)
          )
          (query_projection): Linear(262.66 k, 0.859% Params, 25.17 MMac, 0.686% MACs, in_features=512, out_features=512, bias=True)
          (key_projection): Linear(262.66 k, 0.859% Params, 25.17 MMac, 0.686% MACs, in_features=512, out_features=512, bias=True)
          (value_projection): Linear(262.66 k, 0.859% Params, 25.17 MMac, 0.686% MACs, in_features=512, out_features=512, bias=True)
          (out_projection): Linear(262.66 k, 0.859% Params, 25.17 MMac, 0.686% MACs, in_features=512, out_features=512, bias=True)
        )
        (conv1): Conv1d(1.05 M, 3.435% Params, 100.86 MMac, 2.750% MACs, 512, 2048, kernel_size=(1,), stride=(1,))
        (conv2): Conv1d(1.05 M, 3.430% Params, 100.71 MMac, 2.746% MACs, 2048, 512, kernel_size=(1,), stride=(1,))
        (norm1): LayerNorm(0, 0.000% Params, 0.0 Mac, 0.000% MACs, (512,), eps=1e-05, elementwise_affine=True)
        (norm2): LayerNorm(0, 0.000% Params, 0.0 Mac, 0.000% MACs, (512,), eps=1e-05, elementwise_affine=True)
        (dropout): Dropout(0, 0.000% Params, 0.0 Mac, 0.000% MACs, p=0.05, inplace=False)
      )
      (2): EncoderLayer(
        3.15 M, 10.301% Params, 302.24 MMac, 8.239% MACs, 
        (attention): AttentionLayer(
          1.05 M, 3.435% Params, 100.67 MMac, 2.744% MACs, 
          (inner_attention): FullAttention(
            0, 0.000% Params, 0.0 Mac, 0.000% MACs, 
            (dropout): Dropout(0, 0.000% Params, 0.0 Mac, 0.000% MACs, p=0.05, inplace=False)
          )
          (query_projection): Linear(262.66 k, 0.859% Params, 25.17 MMac, 0.686% MACs, in_features=512, out_features=512, bias=True)
          (key_projection): Linear(262.66 k, 0.859% Params, 25.17 MMac, 0.686% MACs, in_features=512, out_features=512, bias=True)
          (value_projection): Linear(262.66 k, 0.859% Params, 25.17 MMac, 0.686% MACs, in_features=512, out_features=512, bias=True)
          (out_projection): Linear(262.66 k, 0.859% Params, 25.17 MMac, 0.686% MACs, in_features=512, out_features=512, bias=True)
        )
        (conv1): Conv1d(1.05 M, 3.435% Params, 100.86 MMac, 2.750% MACs, 512, 2048, kernel_size=(1,), stride=(1,))
        (conv2): Conv1d(1.05 M, 3.430% Params, 100.71 MMac, 2.746% MACs, 2048, 512, kernel_size=(1,), stride=(1,))
        (norm1): LayerNorm(0, 0.000% Params, 0.0 Mac, 0.000% MACs, (512,), eps=1e-05, elementwise_affine=True)
        (norm2): LayerNorm(0, 0.000% Params, 0.0 Mac, 0.000% MACs, (512,), eps=1e-05, elementwise_affine=True)
        (dropout): Dropout(0, 0.000% Params, 0.0 Mac, 0.000% MACs, p=0.05, inplace=False)
      )
      (3): EncoderLayer(
        3.15 M, 10.301% Params, 302.24 MMac, 8.239% MACs, 
        (attention): AttentionLayer(
          1.05 M, 3.435% Params, 100.67 MMac, 2.744% MACs, 
          (inner_attention): FullAttention(
            0, 0.000% Params, 0.0 Mac, 0.000% MACs, 
            (dropout): Dropout(0, 0.000% Params, 0.0 Mac, 0.000% MACs, p=0.05, inplace=False)
          )
          (query_projection): Linear(262.66 k, 0.859% Params, 25.17 MMac, 0.686% MACs, in_features=512, out_features=512, bias=True)
          (key_projection): Linear(262.66 k, 0.859% Params, 25.17 MMac, 0.686% MACs, in_features=512, out_features=512, bias=True)
          (value_projection): Linear(262.66 k, 0.859% Params, 25.17 MMac, 0.686% MACs, in_features=512, out_features=512, bias=True)
          (out_projection): Linear(262.66 k, 0.859% Params, 25.17 MMac, 0.686% MACs, in_features=512, out_features=512, bias=True)
        )
        (conv1): Conv1d(1.05 M, 3.435% Params, 100.86 MMac, 2.750% MACs, 512, 2048, kernel_size=(1,), stride=(1,))
        (conv2): Conv1d(1.05 M, 3.430% Params, 100.71 MMac, 2.746% MACs, 2048, 512, kernel_size=(1,), stride=(1,))
        (norm1): LayerNorm(0, 0.000% Params, 0.0 Mac, 0.000% MACs, (512,), eps=1e-05, elementwise_affine=True)
        (norm2): LayerNorm(0, 0.000% Params, 0.0 Mac, 0.000% MACs, (512,), eps=1e-05, elementwise_affine=True)
        (dropout): Dropout(0, 0.000% Params, 0.0 Mac, 0.000% MACs, p=0.05, inplace=False)
      )
    )
    (norm): LayerNorm(0, 0.000% Params, 0.0 Mac, 0.000% MACs, (512,), eps=1e-05, elementwise_affine=True)
  )
  (decoder): Decoder(
    16.97 M, 55.484% Params, 2.34 GMac, 63.803% MACs, 
    (layers): ModuleList(
      16.8 M, 54.946% Params, 2.32 GMac, 63.158% MACs, 
      (0): DecoderLayer(
        4.2 M, 13.736% Params, 579.19 MMac, 15.789% MACs, 
        (self_attention): AttentionLayer(
          1.05 M, 3.435% Params, 151.0 MMac, 4.116% MACs, 
          (inner_attention): FullAttention(
            0, 0.000% Params, 0.0 Mac, 0.000% MACs, 
            (dropout): Dropout(0, 0.000% Params, 0.0 Mac, 0.000% MACs, p=0.05, inplace=False)
          )
          (query_projection): Linear(262.66 k, 0.859% Params, 37.75 MMac, 1.029% MACs, in_features=512, out_features=512, bias=True)
          (key_projection): Linear(262.66 k, 0.859% Params, 37.75 MMac, 1.029% MACs, in_features=512, out_features=512, bias=True)
          (value_projection): Linear(262.66 k, 0.859% Params, 37.75 MMac, 1.029% MACs, in_features=512, out_features=512, bias=True)
          (out_projection): Linear(262.66 k, 0.859% Params, 37.75 MMac, 1.029% MACs, in_features=512, out_features=512, bias=True)
        )
        (cross_attention): AttentionLayer(
          1.05 M, 3.435% Params, 125.83 MMac, 3.430% MACs, 
          (inner_attention): FullAttention(
            0, 0.000% Params, 0.0 Mac, 0.000% MACs, 
            (dropout): Dropout(0, 0.000% Params, 0.0 Mac, 0.000% MACs, p=0.05, inplace=False)
          )
          (query_projection): Linear(262.66 k, 0.859% Params, 37.75 MMac, 1.029% MACs, in_features=512, out_features=512, bias=True)
          (key_projection): Linear(262.66 k, 0.859% Params, 25.17 MMac, 0.686% MACs, in_features=512, out_features=512, bias=True)
          (value_projection): Linear(262.66 k, 0.859% Params, 25.17 MMac, 0.686% MACs, in_features=512, out_features=512, bias=True)
          (out_projection): Linear(262.66 k, 0.859% Params, 37.75 MMac, 1.029% MACs, in_features=512, out_features=512, bias=True)
        )
        (conv1): Conv1d(1.05 M, 3.435% Params, 151.29 MMac, 4.124% MACs, 512, 2048, kernel_size=(1,), stride=(1,))
        (conv2): Conv1d(1.05 M, 3.430% Params, 151.07 MMac, 4.118% MACs, 2048, 512, kernel_size=(1,), stride=(1,))
        (norm1): LayerNorm(0, 0.000% Params, 0.0 Mac, 0.000% MACs, (512,), eps=1e-05, elementwise_affine=True)
        (norm2): LayerNorm(0, 0.000% Params, 0.0 Mac, 0.000% MACs, (512,), eps=1e-05, elementwise_affine=True)
        (norm3): LayerNorm(0, 0.000% Params, 0.0 Mac, 0.000% MACs, (512,), eps=1e-05, elementwise_affine=True)
        (dropout): Dropout(0, 0.000% Params, 0.0 Mac, 0.000% MACs, p=0.05, inplace=False)
      )
      (1): DecoderLayer(
        4.2 M, 13.736% Params, 579.19 MMac, 15.789% MACs, 
        (self_attention): AttentionLayer(
          1.05 M, 3.435% Params, 151.0 MMac, 4.116% MACs, 
          (inner_attention): FullAttention(
            0, 0.000% Params, 0.0 Mac, 0.000% MACs, 
            (dropout): Dropout(0, 0.000% Params, 0.0 Mac, 0.000% MACs, p=0.05, inplace=False)
          )
          (query_projection): Linear(262.66 k, 0.859% Params, 37.75 MMac, 1.029% MACs, in_features=512, out_features=512, bias=True)
          (key_projection): Linear(262.66 k, 0.859% Params, 37.75 MMac, 1.029% MACs, in_features=512, out_features=512, bias=True)
          (value_projection): Linear(262.66 k, 0.859% Params, 37.75 MMac, 1.029% MACs, in_features=512, out_features=512, bias=True)
          (out_projection): Linear(262.66 k, 0.859% Params, 37.75 MMac, 1.029% MACs, in_features=512, out_features=512, bias=True)
        )
        (cross_attention): AttentionLayer(
          1.05 M, 3.435% Params, 125.83 MMac, 3.430% MACs, 
          (inner_attention): FullAttention(
            0, 0.000% Params, 0.0 Mac, 0.000% MACs, 
            (dropout): Dropout(0, 0.000% Params, 0.0 Mac, 0.000% MACs, p=0.05, inplace=False)
          )
          (query_projection): Linear(262.66 k, 0.859% Params, 37.75 MMac, 1.029% MACs, in_features=512, out_features=512, bias=True)
          (key_projection): Linear(262.66 k, 0.859% Params, 25.17 MMac, 0.686% MACs, in_features=512, out_features=512, bias=True)
          (value_projection): Linear(262.66 k, 0.859% Params, 25.17 MMac, 0.686% MACs, in_features=512, out_features=512, bias=True)
          (out_projection): Linear(262.66 k, 0.859% Params, 37.75 MMac, 1.029% MACs, in_features=512, out_features=512, bias=True)
        )
        (conv1): Conv1d(1.05 M, 3.435% Params, 151.29 MMac, 4.124% MACs, 512, 2048, kernel_size=(1,), stride=(1,))
        (conv2): Conv1d(1.05 M, 3.430% Params, 151.07 MMac, 4.118% MACs, 2048, 512, kernel_size=(1,), stride=(1,))
        (norm1): LayerNorm(0, 0.000% Params, 0.0 Mac, 0.000% MACs, (512,), eps=1e-05, elementwise_affine=True)
        (norm2): LayerNorm(0, 0.000% Params, 0.0 Mac, 0.000% MACs, (512,), eps=1e-05, elementwise_affine=True)
        (norm3): LayerNorm(0, 0.000% Params, 0.0 Mac, 0.000% MACs, (512,), eps=1e-05, elementwise_affine=True)
        (dropout): Dropout(0, 0.000% Params, 0.0 Mac, 0.000% MACs, p=0.05, inplace=False)
      )
      (2): DecoderLayer(
        4.2 M, 13.736% Params, 579.19 MMac, 15.789% MACs, 
        (self_attention): AttentionLayer(
          1.05 M, 3.435% Params, 151.0 MMac, 4.116% MACs, 
          (inner_attention): FullAttention(
            0, 0.000% Params, 0.0 Mac, 0.000% MACs, 
            (dropout): Dropout(0, 0.000% Params, 0.0 Mac, 0.000% MACs, p=0.05, inplace=False)
          )
          (query_projection): Linear(262.66 k, 0.859% Params, 37.75 MMac, 1.029% MACs, in_features=512, out_features=512, bias=True)
          (key_projection): Linear(262.66 k, 0.859% Params, 37.75 MMac, 1.029% MACs, in_features=512, out_features=512, bias=True)
          (value_projection): Linear(262.66 k, 0.859% Params, 37.75 MMac, 1.029% MACs, in_features=512, out_features=512, bias=True)
          (out_projection): Linear(262.66 k, 0.859% Params, 37.75 MMac, 1.029% MACs, in_features=512, out_features=512, bias=True)
        )
        (cross_attention): AttentionLayer(
          1.05 M, 3.435% Params, 125.83 MMac, 3.430% MACs, 
          (inner_attention): FullAttention(
            0, 0.000% Params, 0.0 Mac, 0.000% MACs, 
            (dropout): Dropout(0, 0.000% Params, 0.0 Mac, 0.000% MACs, p=0.05, inplace=False)
          )
          (query_projection): Linear(262.66 k, 0.859% Params, 37.75 MMac, 1.029% MACs, in_features=512, out_features=512, bias=True)
          (key_projection): Linear(262.66 k, 0.859% Params, 25.17 MMac, 0.686% MACs, in_features=512, out_features=512, bias=True)
          (value_projection): Linear(262.66 k, 0.859% Params, 25.17 MMac, 0.686% MACs, in_features=512, out_features=512, bias=True)
          (out_projection): Linear(262.66 k, 0.859% Params, 37.75 MMac, 1.029% MACs, in_features=512, out_features=512, bias=True)
        )
        (conv1): Conv1d(1.05 M, 3.435% Params, 151.29 MMac, 4.124% MACs, 512, 2048, kernel_size=(1,), stride=(1,))
        (conv2): Conv1d(1.05 M, 3.430% Params, 151.07 MMac, 4.118% MACs, 2048, 512, kernel_size=(1,), stride=(1,))
        (norm1): LayerNorm(0, 0.000% Params, 0.0 Mac, 0.000% MACs, (512,), eps=1e-05, elementwise_affine=True)
        (norm2): LayerNorm(0, 0.000% Params, 0.0 Mac, 0.000% MACs, (512,), eps=1e-05, elementwise_affine=True)
        (norm3): LayerNorm(0, 0.000% Params, 0.0 Mac, 0.000% MACs, (512,), eps=1e-05, elementwise_affine=True)
        (dropout): Dropout(0, 0.000% Params, 0.0 Mac, 0.000% MACs, p=0.05, inplace=False)
      )
      (3): DecoderLayer(
        4.2 M, 13.736% Params, 579.19 MMac, 15.789% MACs, 
        (self_attention): AttentionLayer(
          1.05 M, 3.435% Params, 151.0 MMac, 4.116% MACs, 
          (inner_attention): FullAttention(
            0, 0.000% Params, 0.0 Mac, 0.000% MACs, 
            (dropout): Dropout(0, 0.000% Params, 0.0 Mac, 0.000% MACs, p=0.05, inplace=False)
          )
          (query_projection): Linear(262.66 k, 0.859% Params, 37.75 MMac, 1.029% MACs, in_features=512, out_features=512, bias=True)
          (key_projection): Linear(262.66 k, 0.859% Params, 37.75 MMac, 1.029% MACs, in_features=512, out_features=512, bias=True)
          (value_projection): Linear(262.66 k, 0.859% Params, 37.75 MMac, 1.029% MACs, in_features=512, out_features=512, bias=True)
          (out_projection): Linear(262.66 k, 0.859% Params, 37.75 MMac, 1.029% MACs, in_features=512, out_features=512, bias=True)
        )
        (cross_attention): AttentionLayer(
          1.05 M, 3.435% Params, 125.83 MMac, 3.430% MACs, 
          (inner_attention): FullAttention(
            0, 0.000% Params, 0.0 Mac, 0.000% MACs, 
            (dropout): Dropout(0, 0.000% Params, 0.0 Mac, 0.000% MACs, p=0.05, inplace=False)
          )
          (query_projection): Linear(262.66 k, 0.859% Params, 37.75 MMac, 1.029% MACs, in_features=512, out_features=512, bias=True)
          (key_projection): Linear(262.66 k, 0.859% Params, 25.17 MMac, 0.686% MACs, in_features=512, out_features=512, bias=True)
          (value_projection): Linear(262.66 k, 0.859% Params, 25.17 MMac, 0.686% MACs, in_features=512, out_features=512, bias=True)
          (out_projection): Linear(262.66 k, 0.859% Params, 37.75 MMac, 1.029% MACs, in_features=512, out_features=512, bias=True)
        )
        (conv1): Conv1d(1.05 M, 3.435% Params, 151.29 MMac, 4.124% MACs, 512, 2048, kernel_size=(1,), stride=(1,))
        (conv2): Conv1d(1.05 M, 3.430% Params, 151.07 MMac, 4.118% MACs, 2048, 512, kernel_size=(1,), stride=(1,))
        (norm1): LayerNorm(0, 0.000% Params, 0.0 Mac, 0.000% MACs, (512,), eps=1e-05, elementwise_affine=True)
        (norm2): LayerNorm(0, 0.000% Params, 0.0 Mac, 0.000% MACs, (512,), eps=1e-05, elementwise_affine=True)
        (norm3): LayerNorm(0, 0.000% Params, 0.0 Mac, 0.000% MACs, (512,), eps=1e-05, elementwise_affine=True)
        (dropout): Dropout(0, 0.000% Params, 0.0 Mac, 0.000% MACs, p=0.05, inplace=False)
      )
    )
    (norm): LayerNorm(0, 0.000% Params, 0.0 Mac, 0.000% MACs, (512,), eps=1e-05, elementwise_affine=True)
    (projection): Linear(164.67 k, 0.538% Params, 23.67 MMac, 0.645% MACs, in_features=512, out_features=321, bias=True)
  )
)
Computational complexity:       3.67 GMac
Number of parameters:           30.58 M 
