…
INFO: Trainable parameter count: 20.96M
INFO: Trainable parameter count: 20.96M
INFO: Trainable parameter count: 20.96M
INFO: Trainable parameter count: 20.96M
INFO: Trainable parameter count: 20.96M
INFO: Trainable parameter count: 20.96M
INFO: Trainable parameter count: 20.96M
INFO: Trainable parameter count: 21.13M
INFO: Trainable parameter count: 21.13M
Model(
  21.11 M, 99.922% Params, 2.76 GMac, 100.000% MACs, 
  (enc_embedding): DataEmbedding(
    495.1 k, 2.344% Params, 47.53 MMac, 1.721% MACs, 
    (value_embedding): TokenEmbedding(
      493.06 k, 2.334% Params, 47.33 MMac, 1.714% MACs, 
      (tokenConv): Conv1d(493.06 k, 2.334% Params, 47.33 MMac, 1.714% MACs, 321, 512, kernel_size=(3,), stride=(1,), padding=(1,), bias=False, padding_mode=circular)
    )
    (position_embedding): PositionalEmbedding(0, 0.000% Params, 0.0 Mac, 0.000% MACs, )
    (temporal_embedding): TimeFeatureEmbedding(
      2.05 k, 0.010% Params, 196.61 KMac, 0.007% MACs, 
      (embed): Linear(2.05 k, 0.010% Params, 196.61 KMac, 0.007% MACs, in_features=4, out_features=512, bias=False)
    )
    (dropout): Dropout(0, 0.000% Params, 0.0 Mac, 0.000% MACs, p=0.05, inplace=False)
  )
  (dec_embedding): DataEmbedding(
    495.1 k, 2.344% Params, 71.29 MMac, 2.582% MACs, 
    (value_embedding): TokenEmbedding(
      493.06 k, 2.334% Params, 71.0 MMac, 2.571% MACs, 
      (tokenConv): Conv1d(493.06 k, 2.334% Params, 71.0 MMac, 2.571% MACs, 321, 512, kernel_size=(3,), stride=(1,), padding=(1,), bias=False, padding_mode=circular)
    )
    (position_embedding): PositionalEmbedding(0, 0.000% Params, 0.0 Mac, 0.000% MACs, )
    (temporal_embedding): TimeFeatureEmbedding(
      2.05 k, 0.010% Params, 294.91 KMac, 0.011% MACs, 
      (embed): Linear(2.05 k, 0.010% Params, 294.91 KMac, 0.011% MACs, in_features=4, out_features=512, bias=False)
    )
    (dropout): Dropout(0, 0.000% Params, 0.0 Mac, 0.000% MACs, p=0.05, inplace=False)
  )
  (encoder): Encoder(
    3.15 M, 14.913% Params, 302.24 MMac, 10.945% MACs, 
    (attn_layers): ModuleList(
      3.15 M, 14.913% Params, 302.24 MMac, 10.945% MACs, 
      (0): EncoderLayer(
        3.15 M, 14.913% Params, 302.24 MMac, 10.945% MACs, 
        (attention): AttentionLayer(
          1.05 M, 4.973% Params, 100.67 MMac, 3.645% MACs, 
          (inner_attention): FullAttention(
            0, 0.000% Params, 0.0 Mac, 0.000% MACs, 
            (dropout): Dropout(0, 0.000% Params, 0.0 Mac, 0.000% MACs, p=0.05, inplace=False)
          )
          (query_projection): Linear(262.66 k, 1.243% Params, 25.17 MMac, 0.911% MACs, in_features=512, out_features=512, bias=True)
          (key_projection): Linear(262.66 k, 1.243% Params, 25.17 MMac, 0.911% MACs, in_features=512, out_features=512, bias=True)
          (value_projection): Linear(262.66 k, 1.243% Params, 25.17 MMac, 0.911% MACs, in_features=512, out_features=512, bias=True)
          (out_projection): Linear(262.66 k, 1.243% Params, 25.17 MMac, 0.911% MACs, in_features=512, out_features=512, bias=True)
        )
        (conv1): Conv1d(1.05 M, 4.973% Params, 100.86 MMac, 3.652% MACs, 512, 2048, kernel_size=(1,), stride=(1,))
        (conv2): Conv1d(1.05 M, 4.966% Params, 100.71 MMac, 3.647% MACs, 2048, 512, kernel_size=(1,), stride=(1,))
        (norm1): LayerNorm(0, 0.000% Params, 0.0 Mac, 0.000% MACs, (512,), eps=1e-05, elementwise_affine=True)
        (norm2): LayerNorm(0, 0.000% Params, 0.0 Mac, 0.000% MACs, (512,), eps=1e-05, elementwise_affine=True)
        (dropout): Dropout(0, 0.000% Params, 0.0 Mac, 0.000% MACs, p=0.05, inplace=False)
      )
    )
    (norm): LayerNorm(0, 0.000% Params, 0.0 Mac, 0.000% MACs, (512,), eps=1e-05, elementwise_affine=True)
  )
  (decoder): Decoder(
    16.97 M, 80.323% Params, 2.34 GMac, 84.752% MACs, 
    (layers): ModuleList(
      16.8 M, 79.543% Params, 2.32 GMac, 83.895% MACs, 
      (0): DecoderLayer(
        4.2 M, 19.886% Params, 579.19 MMac, 20.974% MACs, 
        (self_attention): AttentionLayer(
          1.05 M, 4.973% Params, 151.0 MMac, 5.468% MACs, 
          (inner_attention): FullAttention(
            0, 0.000% Params, 0.0 Mac, 0.000% MACs, 
            (dropout): Dropout(0, 0.000% Params, 0.0 Mac, 0.000% MACs, p=0.05, inplace=False)
          )
          (query_projection): Linear(262.66 k, 1.243% Params, 37.75 MMac, 1.367% MACs, in_features=512, out_features=512, bias=True)
          (key_projection): Linear(262.66 k, 1.243% Params, 37.75 MMac, 1.367% MACs, in_features=512, out_features=512, bias=True)
          (value_projection): Linear(262.66 k, 1.243% Params, 37.75 MMac, 1.367% MACs, in_features=512, out_features=512, bias=True)
          (out_projection): Linear(262.66 k, 1.243% Params, 37.75 MMac, 1.367% MACs, in_features=512, out_features=512, bias=True)
        )
        (cross_attention): AttentionLayer(
          1.05 M, 4.973% Params, 125.83 MMac, 4.557% MACs, 
          (inner_attention): FullAttention(
            0, 0.000% Params, 0.0 Mac, 0.000% MACs, 
            (dropout): Dropout(0, 0.000% Params, 0.0 Mac, 0.000% MACs, p=0.05, inplace=False)
          )
          (query_projection): Linear(262.66 k, 1.243% Params, 37.75 MMac, 1.367% MACs, in_features=512, out_features=512, bias=True)
          (key_projection): Linear(262.66 k, 1.243% Params, 25.17 MMac, 0.911% MACs, in_features=512, out_features=512, bias=True)
          (value_projection): Linear(262.66 k, 1.243% Params, 25.17 MMac, 0.911% MACs, in_features=512, out_features=512, bias=True)
          (out_projection): Linear(262.66 k, 1.243% Params, 37.75 MMac, 1.367% MACs, in_features=512, out_features=512, bias=True)
        )
        (conv1): Conv1d(1.05 M, 4.973% Params, 151.29 MMac, 5.479% MACs, 512, 2048, kernel_size=(1,), stride=(1,))
        (conv2): Conv1d(1.05 M, 4.966% Params, 151.07 MMac, 5.471% MACs, 2048, 512, kernel_size=(1,), stride=(1,))
        (norm1): LayerNorm(0, 0.000% Params, 0.0 Mac, 0.000% MACs, (512,), eps=1e-05, elementwise_affine=True)
        (norm2): LayerNorm(0, 0.000% Params, 0.0 Mac, 0.000% MACs, (512,), eps=1e-05, elementwise_affine=True)
        (norm3): LayerNorm(0, 0.000% Params, 0.0 Mac, 0.000% MACs, (512,), eps=1e-05, elementwise_affine=True)
        (dropout): Dropout(0, 0.000% Params, 0.0 Mac, 0.000% MACs, p=0.05, inplace=False)
      )
      (1): DecoderLayer(
        4.2 M, 19.886% Params, 579.19 MMac, 20.974% MACs, 
        (self_attention): AttentionLayer(
          1.05 M, 4.973% Params, 151.0 MMac, 5.468% MACs, 
          (inner_attention): FullAttention(
            0, 0.000% Params, 0.0 Mac, 0.000% MACs, 
            (dropout): Dropout(0, 0.000% Params, 0.0 Mac, 0.000% MACs, p=0.05, inplace=False)
          )
          (query_projection): Linear(262.66 k, 1.243% Params, 37.75 MMac, 1.367% MACs, in_features=512, out_features=512, bias=True)
          (key_projection): Linear(262.66 k, 1.243% Params, 37.75 MMac, 1.367% MACs, in_features=512, out_features=512, bias=True)
          (value_projection): Linear(262.66 k, 1.243% Params, 37.75 MMac, 1.367% MACs, in_features=512, out_features=512, bias=True)
          (out_projection): Linear(262.66 k, 1.243% Params, 37.75 MMac, 1.367% MACs, in_features=512, out_features=512, bias=True)
        )
        (cross_attention): AttentionLayer(
          1.05 M, 4.973% Params, 125.83 MMac, 4.557% MACs, 
          (inner_attention): FullAttention(
            0, 0.000% Params, 0.0 Mac, 0.000% MACs, 
            (dropout): Dropout(0, 0.000% Params, 0.0 Mac, 0.000% MACs, p=0.05, inplace=False)
          )
          (query_projection): Linear(262.66 k, 1.243% Params, 37.75 MMac, 1.367% MACs, in_features=512, out_features=512, bias=True)
          (key_projection): Linear(262.66 k, 1.243% Params, 25.17 MMac, 0.911% MACs, in_features=512, out_features=512, bias=True)
          (value_projection): Linear(262.66 k, 1.243% Params, 25.17 MMac, 0.911% MACs, in_features=512, out_features=512, bias=True)
          (out_projection): Linear(262.66 k, 1.243% Params, 37.75 MMac, 1.367% MACs, in_features=512, out_features=512, bias=True)
        )
        (conv1): Conv1d(1.05 M, 4.973% Params, 151.29 MMac, 5.479% MACs, 512, 2048, kernel_size=(1,), stride=(1,))
        (conv2): Conv1d(1.05 M, 4.966% Params, 151.07 MMac, 5.471% MACs, 2048, 512, kernel_size=(1,), stride=(1,))
        (norm1): LayerNorm(0, 0.000% Params, 0.0 Mac, 0.000% MACs, (512,), eps=1e-05, elementwise_affine=True)
        (norm2): LayerNorm(0, 0.000% Params, 0.0 Mac, 0.000% MACs, (512,), eps=1e-05, elementwise_affine=True)
        (norm3): LayerNorm(0, 0.000% Params, 0.0 Mac, 0.000% MACs, (512,), eps=1e-05, elementwise_affine=True)
        (dropout): Dropout(0, 0.000% Params, 0.0 Mac, 0.000% MACs, p=0.05, inplace=False)
      )
      (2): DecoderLayer(
        4.2 M, 19.886% Params, 579.19 MMac, 20.974% MACs, 
        (self_attention): AttentionLayer(
          1.05 M, 4.973% Params, 151.0 MMac, 5.468% MACs, 
          (inner_attention): FullAttention(
            0, 0.000% Params, 0.0 Mac, 0.000% MACs, 
            (dropout): Dropout(0, 0.000% Params, 0.0 Mac, 0.000% MACs, p=0.05, inplace=False)
          )
          (query_projection): Linear(262.66 k, 1.243% Params, 37.75 MMac, 1.367% MACs, in_features=512, out_features=512, bias=True)
          (key_projection): Linear(262.66 k, 1.243% Params, 37.75 MMac, 1.367% MACs, in_features=512, out_features=512, bias=True)
          (value_projection): Linear(262.66 k, 1.243% Params, 37.75 MMac, 1.367% MACs, in_features=512, out_features=512, bias=True)
          (out_projection): Linear(262.66 k, 1.243% Params, 37.75 MMac, 1.367% MACs, in_features=512, out_features=512, bias=True)
        )
        (cross_attention): AttentionLayer(
          1.05 M, 4.973% Params, 125.83 MMac, 4.557% MACs, 
          (inner_attention): FullAttention(
            0, 0.000% Params, 0.0 Mac, 0.000% MACs, 
            (dropout): Dropout(0, 0.000% Params, 0.0 Mac, 0.000% MACs, p=0.05, inplace=False)
          )
          (query_projection): Linear(262.66 k, 1.243% Params, 37.75 MMac, 1.367% MACs, in_features=512, out_features=512, bias=True)
          (key_projection): Linear(262.66 k, 1.243% Params, 25.17 MMac, 0.911% MACs, in_features=512, out_features=512, bias=True)
          (value_projection): Linear(262.66 k, 1.243% Params, 25.17 MMac, 0.911% MACs, in_features=512, out_features=512, bias=True)
          (out_projection): Linear(262.66 k, 1.243% Params, 37.75 MMac, 1.367% MACs, in_features=512, out_features=512, bias=True)
        )
        (conv1): Conv1d(1.05 M, 4.973% Params, 151.29 MMac, 5.479% MACs, 512, 2048, kernel_size=(1,), stride=(1,))
        (conv2): Conv1d(1.05 M, 4.966% Params, 151.07 MMac, 5.471% MACs, 2048, 512, kernel_size=(1,), stride=(1,))
        (norm1): LayerNorm(0, 0.000% Params, 0.0 Mac, 0.000% MACs, (512,), eps=1e-05, elementwise_affine=True)
        (norm2): LayerNorm(0, 0.000% Params, 0.0 Mac, 0.000% MACs, (512,), eps=1e-05, elementwise_affine=True)
        (norm3): LayerNorm(0, 0.000% Params, 0.0 Mac, 0.000% MACs, (512,), eps=1e-05, elementwise_affine=True)
        (dropout): Dropout(0, 0.000% Params, 0.0 Mac, 0.000% MACs, p=0.05, inplace=False)
      )
      (3): DecoderLayer(
        4.2 M, 19.886% Params, 579.19 MMac, 20.974% MACs, 
        (self_attention): AttentionLayer(
          1.05 M, 4.973% Params, 151.0 MMac, 5.468% MACs, 
          (inner_attention): FullAttention(
            0, 0.000% Params, 0.0 Mac, 0.000% MACs, 
            (dropout): Dropout(0, 0.000% Params, 0.0 Mac, 0.000% MACs, p=0.05, inplace=False)
          )
          (query_projection): Linear(262.66 k, 1.243% Params, 37.75 MMac, 1.367% MACs, in_features=512, out_features=512, bias=True)
          (key_projection): Linear(262.66 k, 1.243% Params, 37.75 MMac, 1.367% MACs, in_features=512, out_features=512, bias=True)
          (value_projection): Linear(262.66 k, 1.243% Params, 37.75 MMac, 1.367% MACs, in_features=512, out_features=512, bias=True)
          (out_projection): Linear(262.66 k, 1.243% Params, 37.75 MMac, 1.367% MACs, in_features=512, out_features=512, bias=True)
        )
        (cross_attention): AttentionLayer(
          1.05 M, 4.973% Params, 125.83 MMac, 4.557% MACs, 
          (inner_attention): FullAttention(
            0, 0.000% Params, 0.0 Mac, 0.000% MACs, 
            (dropout): Dropout(0, 0.000% Params, 0.0 Mac, 0.000% MACs, p=0.05, inplace=False)
          )
          (query_projection): Linear(262.66 k, 1.243% Params, 37.75 MMac, 1.367% MACs, in_features=512, out_features=512, bias=True)
          (key_projection): Linear(262.66 k, 1.243% Params, 25.17 MMac, 0.911% MACs, in_features=512, out_features=512, bias=True)
          (value_projection): Linear(262.66 k, 1.243% Params, 25.17 MMac, 0.911% MACs, in_features=512, out_features=512, bias=True)
          (out_projection): Linear(262.66 k, 1.243% Params, 37.75 MMac, 1.367% MACs, in_features=512, out_features=512, bias=True)
        )
        (conv1): Conv1d(1.05 M, 4.973% Params, 151.29 MMac, 5.479% MACs, 512, 2048, kernel_size=(1,), stride=(1,))
        (conv2): Conv1d(1.05 M, 4.966% Params, 151.07 MMac, 5.471% MACs, 2048, 512, kernel_size=(1,), stride=(1,))
        (norm1): LayerNorm(0, 0.000% Params, 0.0 Mac, 0.000% MACs, (512,), eps=1e-05, elementwise_affine=True)
        (norm2): LayerNorm(0, 0.000% Params, 0.0 Mac, 0.000% MACs, (512,), eps=1e-05, elementwise_affine=True)
        (norm3): LayerNorm(0, 0.000% Params, 0.0 Mac, 0.000% MACs, (512,), eps=1e-05, elementwise_affine=True)
        (dropout): Dropout(0, 0.000% Params, 0.0 Mac, 0.000% MACs, p=0.05, inplace=False)
      )
    )
    (norm): LayerNorm(0, 0.000% Params, 0.0 Mac, 0.000% MACs, (512,), eps=1e-05, elementwise_affine=True)
    (projection): Linear(164.67 k, 0.780% Params, 23.67 MMac, 0.857% MACs, in_features=512, out_features=321, bias=True)
  )
)
Computational complexity:       2.76 GMac
Number of parameters:           21.13 M 
