…
INFO: Trainable parameter count: 17.80M
INFO: Trainable parameter count: 17.80M
INFO: Trainable parameter count: 17.80M
INFO: Trainable parameter count: 17.80M
INFO: Trainable parameter count: 17.80M
INFO: Trainable parameter count: 17.81M
INFO: Trainable parameter count: 17.81M
INFO: Trainable parameter count: 17.97M
INFO: Trainable parameter count: 17.97M
Model(
  17.96 M, 99.926% Params, 1.93 GMac, 100.000% MACs, 
  (enc_embedding): DataEmbedding(
    495.1 k, 2.755% Params, 47.53 MMac, 2.462% MACs, 
    (value_embedding): TokenEmbedding(
      493.06 k, 2.744% Params, 47.33 MMac, 2.452% MACs, 
      (tokenConv): Conv1d(493.06 k, 2.744% Params, 47.33 MMac, 2.452% MACs, 321, 512, kernel_size=(3,), stride=(1,), padding=(1,), bias=False, padding_mode=circular)
    )
    (position_embedding): PositionalEmbedding(0, 0.000% Params, 0.0 Mac, 0.000% MACs, )
    (temporal_embedding): TimeFeatureEmbedding(
      2.05 k, 0.011% Params, 196.61 KMac, 0.010% MACs, 
      (embed): Linear(2.05 k, 0.011% Params, 196.61 KMac, 0.010% MACs, in_features=4, out_features=512, bias=False)
    )
    (dropout): Dropout(0, 0.000% Params, 0.0 Mac, 0.000% MACs, p=0.05, inplace=False)
  )
  (dec_embedding): DataEmbedding(
    495.1 k, 2.755% Params, 71.29 MMac, 3.693% MACs, 
    (value_embedding): TokenEmbedding(
      493.06 k, 2.744% Params, 71.0 MMac, 3.678% MACs, 
      (tokenConv): Conv1d(493.06 k, 2.744% Params, 71.0 MMac, 3.678% MACs, 321, 512, kernel_size=(3,), stride=(1,), padding=(1,), bias=False, padding_mode=circular)
    )
    (position_embedding): PositionalEmbedding(0, 0.000% Params, 0.0 Mac, 0.000% MACs, )
    (temporal_embedding): TimeFeatureEmbedding(
      2.05 k, 0.011% Params, 294.91 KMac, 0.015% MACs, 
      (embed): Linear(2.05 k, 0.011% Params, 294.91 KMac, 0.015% MACs, in_features=4, out_features=512, bias=False)
    )
    (dropout): Dropout(0, 0.000% Params, 0.0 Mac, 0.000% MACs, p=0.05, inplace=False)
  )
  (encoder): Encoder(
    12.6 M, 70.122% Params, 1.21 GMac, 62.620% MACs, 
    (attn_layers): ModuleList(
      12.6 M, 70.122% Params, 1.21 GMac, 62.620% MACs, 
      (0): EncoderLayer(
        3.15 M, 17.531% Params, 302.24 MMac, 15.655% MACs, 
        (attention): AttentionLayer(
          1.05 M, 5.846% Params, 100.67 MMac, 5.214% MACs, 
          (inner_attention): FullAttention(
            0, 0.000% Params, 0.0 Mac, 0.000% MACs, 
            (dropout): Dropout(0, 0.000% Params, 0.0 Mac, 0.000% MACs, p=0.05, inplace=False)
          )
          (query_projection): Linear(262.66 k, 1.462% Params, 25.17 MMac, 1.304% MACs, in_features=512, out_features=512, bias=True)
          (key_projection): Linear(262.66 k, 1.462% Params, 25.17 MMac, 1.304% MACs, in_features=512, out_features=512, bias=True)
          (value_projection): Linear(262.66 k, 1.462% Params, 25.17 MMac, 1.304% MACs, in_features=512, out_features=512, bias=True)
          (out_projection): Linear(262.66 k, 1.462% Params, 25.17 MMac, 1.304% MACs, in_features=512, out_features=512, bias=True)
        )
        (conv1): Conv1d(1.05 M, 5.846% Params, 100.86 MMac, 5.224% MACs, 512, 2048, kernel_size=(1,), stride=(1,))
        (conv2): Conv1d(1.05 M, 5.838% Params, 100.71 MMac, 5.217% MACs, 2048, 512, kernel_size=(1,), stride=(1,))
        (norm1): LayerNorm(0, 0.000% Params, 0.0 Mac, 0.000% MACs, (512,), eps=1e-05, elementwise_affine=True)
        (norm2): LayerNorm(0, 0.000% Params, 0.0 Mac, 0.000% MACs, (512,), eps=1e-05, elementwise_affine=True)
        (dropout): Dropout(0, 0.000% Params, 0.0 Mac, 0.000% MACs, p=0.05, inplace=False)
      )
      (1): EncoderLayer(
        3.15 M, 17.531% Params, 302.24 MMac, 15.655% MACs, 
        (attention): AttentionLayer(
          1.05 M, 5.846% Params, 100.67 MMac, 5.214% MACs, 
          (inner_attention): FullAttention(
            0, 0.000% Params, 0.0 Mac, 0.000% MACs, 
            (dropout): Dropout(0, 0.000% Params, 0.0 Mac, 0.000% MACs, p=0.05, inplace=False)
          )
          (query_projection): Linear(262.66 k, 1.462% Params, 25.17 MMac, 1.304% MACs, in_features=512, out_features=512, bias=True)
          (key_projection): Linear(262.66 k, 1.462% Params, 25.17 MMac, 1.304% MACs, in_features=512, out_features=512, bias=True)
          (value_projection): Linear(262.66 k, 1.462% Params, 25.17 MMac, 1.304% MACs, in_features=512, out_features=512, bias=True)
          (out_projection): Linear(262.66 k, 1.462% Params, 25.17 MMac, 1.304% MACs, in_features=512, out_features=512, bias=True)
        )
        (conv1): Conv1d(1.05 M, 5.846% Params, 100.86 MMac, 5.224% MACs, 512, 2048, kernel_size=(1,), stride=(1,))
        (conv2): Conv1d(1.05 M, 5.838% Params, 100.71 MMac, 5.217% MACs, 2048, 512, kernel_size=(1,), stride=(1,))
        (norm1): LayerNorm(0, 0.000% Params, 0.0 Mac, 0.000% MACs, (512,), eps=1e-05, elementwise_affine=True)
        (norm2): LayerNorm(0, 0.000% Params, 0.0 Mac, 0.000% MACs, (512,), eps=1e-05, elementwise_affine=True)
        (dropout): Dropout(0, 0.000% Params, 0.0 Mac, 0.000% MACs, p=0.05, inplace=False)
      )
      (2): EncoderLayer(
        3.15 M, 17.531% Params, 302.24 MMac, 15.655% MACs, 
        (attention): AttentionLayer(
          1.05 M, 5.846% Params, 100.67 MMac, 5.214% MACs, 
          (inner_attention): FullAttention(
            0, 0.000% Params, 0.0 Mac, 0.000% MACs, 
            (dropout): Dropout(0, 0.000% Params, 0.0 Mac, 0.000% MACs, p=0.05, inplace=False)
          )
          (query_projection): Linear(262.66 k, 1.462% Params, 25.17 MMac, 1.304% MACs, in_features=512, out_features=512, bias=True)
          (key_projection): Linear(262.66 k, 1.462% Params, 25.17 MMac, 1.304% MACs, in_features=512, out_features=512, bias=True)
          (value_projection): Linear(262.66 k, 1.462% Params, 25.17 MMac, 1.304% MACs, in_features=512, out_features=512, bias=True)
          (out_projection): Linear(262.66 k, 1.462% Params, 25.17 MMac, 1.304% MACs, in_features=512, out_features=512, bias=True)
        )
        (conv1): Conv1d(1.05 M, 5.846% Params, 100.86 MMac, 5.224% MACs, 512, 2048, kernel_size=(1,), stride=(1,))
        (conv2): Conv1d(1.05 M, 5.838% Params, 100.71 MMac, 5.217% MACs, 2048, 512, kernel_size=(1,), stride=(1,))
        (norm1): LayerNorm(0, 0.000% Params, 0.0 Mac, 0.000% MACs, (512,), eps=1e-05, elementwise_affine=True)
        (norm2): LayerNorm(0, 0.000% Params, 0.0 Mac, 0.000% MACs, (512,), eps=1e-05, elementwise_affine=True)
        (dropout): Dropout(0, 0.000% Params, 0.0 Mac, 0.000% MACs, p=0.05, inplace=False)
      )
      (3): EncoderLayer(
        3.15 M, 17.531% Params, 302.24 MMac, 15.655% MACs, 
        (attention): AttentionLayer(
          1.05 M, 5.846% Params, 100.67 MMac, 5.214% MACs, 
          (inner_attention): FullAttention(
            0, 0.000% Params, 0.0 Mac, 0.000% MACs, 
            (dropout): Dropout(0, 0.000% Params, 0.0 Mac, 0.000% MACs, p=0.05, inplace=False)
          )
          (query_projection): Linear(262.66 k, 1.462% Params, 25.17 MMac, 1.304% MACs, in_features=512, out_features=512, bias=True)
          (key_projection): Linear(262.66 k, 1.462% Params, 25.17 MMac, 1.304% MACs, in_features=512, out_features=512, bias=True)
          (value_projection): Linear(262.66 k, 1.462% Params, 25.17 MMac, 1.304% MACs, in_features=512, out_features=512, bias=True)
          (out_projection): Linear(262.66 k, 1.462% Params, 25.17 MMac, 1.304% MACs, in_features=512, out_features=512, bias=True)
        )
        (conv1): Conv1d(1.05 M, 5.846% Params, 100.86 MMac, 5.224% MACs, 512, 2048, kernel_size=(1,), stride=(1,))
        (conv2): Conv1d(1.05 M, 5.838% Params, 100.71 MMac, 5.217% MACs, 2048, 512, kernel_size=(1,), stride=(1,))
        (norm1): LayerNorm(0, 0.000% Params, 0.0 Mac, 0.000% MACs, (512,), eps=1e-05, elementwise_affine=True)
        (norm2): LayerNorm(0, 0.000% Params, 0.0 Mac, 0.000% MACs, (512,), eps=1e-05, elementwise_affine=True)
        (dropout): Dropout(0, 0.000% Params, 0.0 Mac, 0.000% MACs, p=0.05, inplace=False)
      )
    )
    (norm): LayerNorm(0, 0.000% Params, 0.0 Mac, 0.000% MACs, (512,), eps=1e-05, elementwise_affine=True)
  )
  (decoder): Decoder(
    4.37 M, 24.293% Params, 602.85 MMac, 31.226% MACs, 
    (layers): ModuleList(
      4.2 M, 23.377% Params, 579.19 MMac, 30.000% MACs, 
      (0): DecoderLayer(
        4.2 M, 23.377% Params, 579.19 MMac, 30.000% MACs, 
        (self_attention): AttentionLayer(
          1.05 M, 5.846% Params, 151.0 MMac, 7.821% MACs, 
          (inner_attention): FullAttention(
            0, 0.000% Params, 0.0 Mac, 0.000% MACs, 
            (dropout): Dropout(0, 0.000% Params, 0.0 Mac, 0.000% MACs, p=0.05, inplace=False)
          )
          (query_projection): Linear(262.66 k, 1.462% Params, 37.75 MMac, 1.955% MACs, in_features=512, out_features=512, bias=True)
          (key_projection): Linear(262.66 k, 1.462% Params, 37.75 MMac, 1.955% MACs, in_features=512, out_features=512, bias=True)
          (value_projection): Linear(262.66 k, 1.462% Params, 37.75 MMac, 1.955% MACs, in_features=512, out_features=512, bias=True)
          (out_projection): Linear(262.66 k, 1.462% Params, 37.75 MMac, 1.955% MACs, in_features=512, out_features=512, bias=True)
        )
        (cross_attention): AttentionLayer(
          1.05 M, 5.846% Params, 125.83 MMac, 6.518% MACs, 
          (inner_attention): FullAttention(
            0, 0.000% Params, 0.0 Mac, 0.000% MACs, 
            (dropout): Dropout(0, 0.000% Params, 0.0 Mac, 0.000% MACs, p=0.05, inplace=False)
          )
          (query_projection): Linear(262.66 k, 1.462% Params, 37.75 MMac, 1.955% MACs, in_features=512, out_features=512, bias=True)
          (key_projection): Linear(262.66 k, 1.462% Params, 25.17 MMac, 1.304% MACs, in_features=512, out_features=512, bias=True)
          (value_projection): Linear(262.66 k, 1.462% Params, 25.17 MMac, 1.304% MACs, in_features=512, out_features=512, bias=True)
          (out_projection): Linear(262.66 k, 1.462% Params, 37.75 MMac, 1.955% MACs, in_features=512, out_features=512, bias=True)
        )
        (conv1): Conv1d(1.05 M, 5.846% Params, 151.29 MMac, 7.836% MACs, 512, 2048, kernel_size=(1,), stride=(1,))
        (conv2): Conv1d(1.05 M, 5.838% Params, 151.07 MMac, 7.825% MACs, 2048, 512, kernel_size=(1,), stride=(1,))
        (norm1): LayerNorm(0, 0.000% Params, 0.0 Mac, 0.000% MACs, (512,), eps=1e-05, elementwise_affine=True)
        (norm2): LayerNorm(0, 0.000% Params, 0.0 Mac, 0.000% MACs, (512,), eps=1e-05, elementwise_affine=True)
        (norm3): LayerNorm(0, 0.000% Params, 0.0 Mac, 0.000% MACs, (512,), eps=1e-05, elementwise_affine=True)
        (dropout): Dropout(0, 0.000% Params, 0.0 Mac, 0.000% MACs, p=0.05, inplace=False)
      )
    )
    (norm): LayerNorm(0, 0.000% Params, 0.0 Mac, 0.000% MACs, (512,), eps=1e-05, elementwise_affine=True)
    (projection): Linear(164.67 k, 0.916% Params, 23.67 MMac, 1.226% MACs, in_features=512, out_features=321, bias=True)
  )
)
Computational complexity:       1.93 GMac
Number of parameters:           17.97 M 
