…
INFO: Trainable parameter count: 7.38M
INFO: Trainable parameter count: 7.38M
INFO: Trainable parameter count: 7.38M
INFO: Trainable parameter count: 7.38M
INFO: Trainable parameter count: 7.38M
INFO: Trainable parameter count: 7.38M
INFO: Trainable parameter count: 7.38M
INFO: Trainable parameter count: 7.39M
INFO: Trainable parameter count: 7.39M
Model(
  7.38 M, 99.903% Params, 885.01 MMac, 100.000% MACs, 
  (enc_embedding): DataEmbedding(
    12.8 k, 0.173% Params, 1.23 MMac, 0.139% MACs, 
    (value_embedding): TokenEmbedding(
      10.75 k, 0.146% Params, 1.03 MMac, 0.117% MACs, 
      (tokenConv): Conv1d(10.75 k, 0.146% Params, 1.03 MMac, 0.117% MACs, 7, 512, kernel_size=(3,), stride=(1,), padding=(1,), bias=False, padding_mode=circular)
    )
    (position_embedding): PositionalEmbedding(0, 0.000% Params, 0.0 Mac, 0.000% MACs, )
    (temporal_embedding): TimeFeatureEmbedding(
      2.05 k, 0.028% Params, 196.61 KMac, 0.022% MACs, 
      (embed): Linear(2.05 k, 0.028% Params, 196.61 KMac, 0.022% MACs, in_features=4, out_features=512, bias=False)
    )
    (dropout): Dropout(0, 0.000% Params, 0.0 Mac, 0.000% MACs, p=0.05, inplace=False)
  )
  (dec_embedding): DataEmbedding(
    12.8 k, 0.173% Params, 1.84 MMac, 0.208% MACs, 
    (value_embedding): TokenEmbedding(
      10.75 k, 0.146% Params, 1.55 MMac, 0.175% MACs, 
      (tokenConv): Conv1d(10.75 k, 0.146% Params, 1.55 MMac, 0.175% MACs, 7, 512, kernel_size=(3,), stride=(1,), padding=(1,), bias=False, padding_mode=circular)
    )
    (position_embedding): PositionalEmbedding(0, 0.000% Params, 0.0 Mac, 0.000% MACs, )
    (temporal_embedding): TimeFeatureEmbedding(
      2.05 k, 0.028% Params, 294.91 KMac, 0.033% MACs, 
      (embed): Linear(2.05 k, 0.028% Params, 294.91 KMac, 0.033% MACs, in_features=4, out_features=512, bias=False)
    )
    (dropout): Dropout(0, 0.000% Params, 0.0 Mac, 0.000% MACs, p=0.05, inplace=False)
  )
  (encoder): Encoder(
    3.15 M, 42.643% Params, 302.24 MMac, 34.151% MACs, 
    (attn_layers): ModuleList(
      3.15 M, 42.643% Params, 302.24 MMac, 34.151% MACs, 
      (0): EncoderLayer(
        3.15 M, 42.643% Params, 302.24 MMac, 34.151% MACs, 
        (attention): AttentionLayer(
          1.05 M, 14.221% Params, 100.67 MMac, 11.374% MACs, 
          (inner_attention): FullAttention(
            0, 0.000% Params, 0.0 Mac, 0.000% MACs, 
            (dropout): Dropout(0, 0.000% Params, 0.0 Mac, 0.000% MACs, p=0.05, inplace=False)
          )
          (query_projection): Linear(262.66 k, 3.555% Params, 25.17 MMac, 2.844% MACs, in_features=512, out_features=512, bias=True)
          (key_projection): Linear(262.66 k, 3.555% Params, 25.17 MMac, 2.844% MACs, in_features=512, out_features=512, bias=True)
          (value_projection): Linear(262.66 k, 3.555% Params, 25.17 MMac, 2.844% MACs, in_features=512, out_features=512, bias=True)
          (out_projection): Linear(262.66 k, 3.555% Params, 25.17 MMac, 2.844% MACs, in_features=512, out_features=512, bias=True)
        )
        (conv1): Conv1d(1.05 M, 14.221% Params, 100.86 MMac, 11.396% MACs, 512, 2048, kernel_size=(1,), stride=(1,))
        (conv2): Conv1d(1.05 M, 14.201% Params, 100.71 MMac, 11.380% MACs, 2048, 512, kernel_size=(1,), stride=(1,))
        (norm1): LayerNorm(0, 0.000% Params, 0.0 Mac, 0.000% MACs, (512,), eps=1e-05, elementwise_affine=True)
        (norm2): LayerNorm(0, 0.000% Params, 0.0 Mac, 0.000% MACs, (512,), eps=1e-05, elementwise_affine=True)
        (dropout): Dropout(0, 0.000% Params, 0.0 Mac, 0.000% MACs, p=0.05, inplace=False)
      )
    )
    (norm): LayerNorm(0, 0.000% Params, 0.0 Mac, 0.000% MACs, (512,), eps=1e-05, elementwise_affine=True)
  )
  (decoder): Decoder(
    4.2 M, 56.913% Params, 579.7 MMac, 65.502% MACs, 
    (layers): ModuleList(
      4.2 M, 56.865% Params, 579.19 MMac, 65.444% MACs, 
      (0): DecoderLayer(
        4.2 M, 56.865% Params, 579.19 MMac, 65.444% MACs, 
        (self_attention): AttentionLayer(
          1.05 M, 14.221% Params, 151.0 MMac, 17.062% MACs, 
          (inner_attention): FullAttention(
            0, 0.000% Params, 0.0 Mac, 0.000% MACs, 
            (dropout): Dropout(0, 0.000% Params, 0.0 Mac, 0.000% MACs, p=0.05, inplace=False)
          )
          (query_projection): Linear(262.66 k, 3.555% Params, 37.75 MMac, 4.265% MACs, in_features=512, out_features=512, bias=True)
          (key_projection): Linear(262.66 k, 3.555% Params, 37.75 MMac, 4.265% MACs, in_features=512, out_features=512, bias=True)
          (value_projection): Linear(262.66 k, 3.555% Params, 37.75 MMac, 4.265% MACs, in_features=512, out_features=512, bias=True)
          (out_projection): Linear(262.66 k, 3.555% Params, 37.75 MMac, 4.265% MACs, in_features=512, out_features=512, bias=True)
        )
        (cross_attention): AttentionLayer(
          1.05 M, 14.221% Params, 125.83 MMac, 14.218% MACs, 
          (inner_attention): FullAttention(
            0, 0.000% Params, 0.0 Mac, 0.000% MACs, 
            (dropout): Dropout(0, 0.000% Params, 0.0 Mac, 0.000% MACs, p=0.05, inplace=False)
          )
          (query_projection): Linear(262.66 k, 3.555% Params, 37.75 MMac, 4.265% MACs, in_features=512, out_features=512, bias=True)
          (key_projection): Linear(262.66 k, 3.555% Params, 25.17 MMac, 2.844% MACs, in_features=512, out_features=512, bias=True)
          (value_projection): Linear(262.66 k, 3.555% Params, 25.17 MMac, 2.844% MACs, in_features=512, out_features=512, bias=True)
          (out_projection): Linear(262.66 k, 3.555% Params, 37.75 MMac, 4.265% MACs, in_features=512, out_features=512, bias=True)
        )
        (conv1): Conv1d(1.05 M, 14.221% Params, 151.29 MMac, 17.095% MACs, 512, 2048, kernel_size=(1,), stride=(1,))
        (conv2): Conv1d(1.05 M, 14.201% Params, 151.07 MMac, 17.070% MACs, 2048, 512, kernel_size=(1,), stride=(1,))
        (norm1): LayerNorm(0, 0.000% Params, 0.0 Mac, 0.000% MACs, (512,), eps=1e-05, elementwise_affine=True)
        (norm2): LayerNorm(0, 0.000% Params, 0.0 Mac, 0.000% MACs, (512,), eps=1e-05, elementwise_affine=True)
        (norm3): LayerNorm(0, 0.000% Params, 0.0 Mac, 0.000% MACs, (512,), eps=1e-05, elementwise_affine=True)
        (dropout): Dropout(0, 0.000% Params, 0.0 Mac, 0.000% MACs, p=0.05, inplace=False)
      )
    )
    (norm): LayerNorm(0, 0.000% Params, 0.0 Mac, 0.000% MACs, (512,), eps=1e-05, elementwise_affine=True)
    (projection): Linear(3.59 k, 0.049% Params, 516.1 KMac, 0.058% MACs, in_features=512, out_features=7, bias=True)
  )
)
Computational complexity:       885.01 MMac
Number of parameters:           7.39 M  
