…
INFO: Trainable parameter count: 26.21M
INFO: Trainable parameter count: 26.21M
INFO: Trainable parameter count: 26.21M
INFO: Trainable parameter count: 26.21M
INFO: Trainable parameter count: 26.21M
INFO: Trainable parameter count: 26.21M
INFO: Trainable parameter count: 26.21M
INFO: Trainable parameter count: 26.38M
INFO: Trainable parameter count: 26.38M
Model(
  26.36 M, 99.926% Params, 3.09 GMac, 100.000% MACs, 
  (enc_embedding): DataEmbedding(
    495.1 k, 1.877% Params, 47.53 MMac, 1.539% MACs, 
    (value_embedding): TokenEmbedding(
      493.06 k, 1.869% Params, 47.33 MMac, 1.532% MACs, 
      (tokenConv): Conv1d(493.06 k, 1.869% Params, 47.33 MMac, 1.532% MACs, 321, 512, kernel_size=(3,), stride=(1,), padding=(1,), bias=False, padding_mode=circular)
    )
    (position_embedding): PositionalEmbedding(0, 0.000% Params, 0.0 Mac, 0.000% MACs, )
    (temporal_embedding): TimeFeatureEmbedding(
      2.05 k, 0.008% Params, 196.61 KMac, 0.006% MACs, 
      (embed): Linear(2.05 k, 0.008% Params, 196.61 KMac, 0.006% MACs, in_features=4, out_features=512, bias=False)
    )
    (dropout): Dropout(0, 0.000% Params, 0.0 Mac, 0.000% MACs, p=0.05, inplace=False)
  )
  (dec_embedding): DataEmbedding(
    495.1 k, 1.877% Params, 71.29 MMac, 2.308% MACs, 
    (value_embedding): TokenEmbedding(
      493.06 k, 1.869% Params, 71.0 MMac, 2.298% MACs, 
      (tokenConv): Conv1d(493.06 k, 1.869% Params, 71.0 MMac, 2.298% MACs, 321, 512, kernel_size=(3,), stride=(1,), padding=(1,), bias=False, padding_mode=circular)
    )
    (position_embedding): PositionalEmbedding(0, 0.000% Params, 0.0 Mac, 0.000% MACs, )
    (temporal_embedding): TimeFeatureEmbedding(
      2.05 k, 0.008% Params, 294.91 KMac, 0.010% MACs, 
      (embed): Linear(2.05 k, 0.008% Params, 294.91 KMac, 0.010% MACs, in_features=4, out_features=512, bias=False)
    )
    (dropout): Dropout(0, 0.000% Params, 0.0 Mac, 0.000% MACs, p=0.05, inplace=False)
  )
  (encoder): Encoder(
    12.6 M, 47.771% Params, 1.21 GMac, 39.137% MACs, 
    (attn_layers): ModuleList(
      12.6 M, 47.771% Params, 1.21 GMac, 39.137% MACs, 
      (0): EncoderLayer(
        3.15 M, 11.943% Params, 302.24 MMac, 9.784% MACs, 
        (attention): AttentionLayer(
          1.05 M, 3.983% Params, 100.67 MMac, 3.259% MACs, 
          (inner_attention): FullAttention(
            0, 0.000% Params, 0.0 Mac, 0.000% MACs, 
            (dropout): Dropout(0, 0.000% Params, 0.0 Mac, 0.000% MACs, p=0.05, inplace=False)
          )
          (query_projection): Linear(262.66 k, 0.996% Params, 25.17 MMac, 0.815% MACs, in_features=512, out_features=512, bias=True)
          (key_projection): Linear(262.66 k, 0.996% Params, 25.17 MMac, 0.815% MACs, in_features=512, out_features=512, bias=True)
          (value_projection): Linear(262.66 k, 0.996% Params, 25.17 MMac, 0.815% MACs, in_features=512, out_features=512, bias=True)
          (out_projection): Linear(262.66 k, 0.996% Params, 25.17 MMac, 0.815% MACs, in_features=512, out_features=512, bias=True)
        )
        (conv1): Conv1d(1.05 M, 3.983% Params, 100.86 MMac, 3.265% MACs, 512, 2048, kernel_size=(1,), stride=(1,))
        (conv2): Conv1d(1.05 M, 3.977% Params, 100.71 MMac, 3.260% MACs, 2048, 512, kernel_size=(1,), stride=(1,))
        (norm1): LayerNorm(0, 0.000% Params, 0.0 Mac, 0.000% MACs, (512,), eps=1e-05, elementwise_affine=True)
        (norm2): LayerNorm(0, 0.000% Params, 0.0 Mac, 0.000% MACs, (512,), eps=1e-05, elementwise_affine=True)
        (dropout): Dropout(0, 0.000% Params, 0.0 Mac, 0.000% MACs, p=0.05, inplace=False)
      )
      (1): EncoderLayer(
        3.15 M, 11.943% Params, 302.24 MMac, 9.784% MACs, 
        (attention): AttentionLayer(
          1.05 M, 3.983% Params, 100.67 MMac, 3.259% MACs, 
          (inner_attention): FullAttention(
            0, 0.000% Params, 0.0 Mac, 0.000% MACs, 
            (dropout): Dropout(0, 0.000% Params, 0.0 Mac, 0.000% MACs, p=0.05, inplace=False)
          )
          (query_projection): Linear(262.66 k, 0.996% Params, 25.17 MMac, 0.815% MACs, in_features=512, out_features=512, bias=True)
          (key_projection): Linear(262.66 k, 0.996% Params, 25.17 MMac, 0.815% MACs, in_features=512, out_features=512, bias=True)
          (value_projection): Linear(262.66 k, 0.996% Params, 25.17 MMac, 0.815% MACs, in_features=512, out_features=512, bias=True)
          (out_projection): Linear(262.66 k, 0.996% Params, 25.17 MMac, 0.815% MACs, in_features=512, out_features=512, bias=True)
        )
        (conv1): Conv1d(1.05 M, 3.983% Params, 100.86 MMac, 3.265% MACs, 512, 2048, kernel_size=(1,), stride=(1,))
        (conv2): Conv1d(1.05 M, 3.977% Params, 100.71 MMac, 3.260% MACs, 2048, 512, kernel_size=(1,), stride=(1,))
        (norm1): LayerNorm(0, 0.000% Params, 0.0 Mac, 0.000% MACs, (512,), eps=1e-05, elementwise_affine=True)
        (norm2): LayerNorm(0, 0.000% Params, 0.0 Mac, 0.000% MACs, (512,), eps=1e-05, elementwise_affine=True)
        (dropout): Dropout(0, 0.000% Params, 0.0 Mac, 0.000% MACs, p=0.05, inplace=False)
      )
      (2): EncoderLayer(
        3.15 M, 11.943% Params, 302.24 MMac, 9.784% MACs, 
        (attention): AttentionLayer(
          1.05 M, 3.983% Params, 100.67 MMac, 3.259% MACs, 
          (inner_attention): FullAttention(
            0, 0.000% Params, 0.0 Mac, 0.000% MACs, 
            (dropout): Dropout(0, 0.000% Params, 0.0 Mac, 0.000% MACs, p=0.05, inplace=False)
          )
          (query_projection): Linear(262.66 k, 0.996% Params, 25.17 MMac, 0.815% MACs, in_features=512, out_features=512, bias=True)
          (key_projection): Linear(262.66 k, 0.996% Params, 25.17 MMac, 0.815% MACs, in_features=512, out_features=512, bias=True)
          (value_projection): Linear(262.66 k, 0.996% Params, 25.17 MMac, 0.815% MACs, in_features=512, out_features=512, bias=True)
          (out_projection): Linear(262.66 k, 0.996% Params, 25.17 MMac, 0.815% MACs, in_features=512, out_features=512, bias=True)
        )
        (conv1): Conv1d(1.05 M, 3.983% Params, 100.86 MMac, 3.265% MACs, 512, 2048, kernel_size=(1,), stride=(1,))
        (conv2): Conv1d(1.05 M, 3.977% Params, 100.71 MMac, 3.260% MACs, 2048, 512, kernel_size=(1,), stride=(1,))
        (norm1): LayerNorm(0, 0.000% Params, 0.0 Mac, 0.000% MACs, (512,), eps=1e-05, elementwise_affine=True)
        (norm2): LayerNorm(0, 0.000% Params, 0.0 Mac, 0.000% MACs, (512,), eps=1e-05, elementwise_affine=True)
        (dropout): Dropout(0, 0.000% Params, 0.0 Mac, 0.000% MACs, p=0.05, inplace=False)
      )
      (3): EncoderLayer(
        3.15 M, 11.943% Params, 302.24 MMac, 9.784% MACs, 
        (attention): AttentionLayer(
          1.05 M, 3.983% Params, 100.67 MMac, 3.259% MACs, 
          (inner_attention): FullAttention(
            0, 0.000% Params, 0.0 Mac, 0.000% MACs, 
            (dropout): Dropout(0, 0.000% Params, 0.0 Mac, 0.000% MACs, p=0.05, inplace=False)
          )
          (query_projection): Linear(262.66 k, 0.996% Params, 25.17 MMac, 0.815% MACs, in_features=512, out_features=512, bias=True)
          (key_projection): Linear(262.66 k, 0.996% Params, 25.17 MMac, 0.815% MACs, in_features=512, out_features=512, bias=True)
          (value_projection): Linear(262.66 k, 0.996% Params, 25.17 MMac, 0.815% MACs, in_features=512, out_features=512, bias=True)
          (out_projection): Linear(262.66 k, 0.996% Params, 25.17 MMac, 0.815% MACs, in_features=512, out_features=512, bias=True)
        )
        (conv1): Conv1d(1.05 M, 3.983% Params, 100.86 MMac, 3.265% MACs, 512, 2048, kernel_size=(1,), stride=(1,))
        (conv2): Conv1d(1.05 M, 3.977% Params, 100.71 MMac, 3.260% MACs, 2048, 512, kernel_size=(1,), stride=(1,))
        (norm1): LayerNorm(0, 0.000% Params, 0.0 Mac, 0.000% MACs, (512,), eps=1e-05, elementwise_affine=True)
        (norm2): LayerNorm(0, 0.000% Params, 0.0 Mac, 0.000% MACs, (512,), eps=1e-05, elementwise_affine=True)
        (dropout): Dropout(0, 0.000% Params, 0.0 Mac, 0.000% MACs, p=0.05, inplace=False)
      )
    )
    (norm): LayerNorm(0, 0.000% Params, 0.0 Mac, 0.000% MACs, (512,), eps=1e-05, elementwise_affine=True)
  )
  (decoder): Decoder(
    12.77 M, 48.401% Params, 1.76 GMac, 57.016% MACs, 
    (layers): ModuleList(
      12.6 M, 47.777% Params, 1.74 GMac, 56.250% MACs, 
      (0): DecoderLayer(
        4.2 M, 15.926% Params, 579.19 MMac, 18.750% MACs, 
        (self_attention): AttentionLayer(
          1.05 M, 3.983% Params, 151.0 MMac, 4.888% MACs, 
          (inner_attention): FullAttention(
            0, 0.000% Params, 0.0 Mac, 0.000% MACs, 
            (dropout): Dropout(0, 0.000% Params, 0.0 Mac, 0.000% MACs, p=0.05, inplace=False)
          )
          (query_projection): Linear(262.66 k, 0.996% Params, 37.75 MMac, 1.222% MACs, in_features=512, out_features=512, bias=True)
          (key_projection): Linear(262.66 k, 0.996% Params, 37.75 MMac, 1.222% MACs, in_features=512, out_features=512, bias=True)
          (value_projection): Linear(262.66 k, 0.996% Params, 37.75 MMac, 1.222% MACs, in_features=512, out_features=512, bias=True)
          (out_projection): Linear(262.66 k, 0.996% Params, 37.75 MMac, 1.222% MACs, in_features=512, out_features=512, bias=True)
        )
        (cross_attention): AttentionLayer(
          1.05 M, 3.983% Params, 125.83 MMac, 4.074% MACs, 
          (inner_attention): FullAttention(
            0, 0.000% Params, 0.0 Mac, 0.000% MACs, 
            (dropout): Dropout(0, 0.000% Params, 0.0 Mac, 0.000% MACs, p=0.05, inplace=False)
          )
          (query_projection): Linear(262.66 k, 0.996% Params, 37.75 MMac, 1.222% MACs, in_features=512, out_features=512, bias=True)
          (key_projection): Linear(262.66 k, 0.996% Params, 25.17 MMac, 0.815% MACs, in_features=512, out_features=512, bias=True)
          (value_projection): Linear(262.66 k, 0.996% Params, 25.17 MMac, 0.815% MACs, in_features=512, out_features=512, bias=True)
          (out_projection): Linear(262.66 k, 0.996% Params, 37.75 MMac, 1.222% MACs, in_features=512, out_features=512, bias=True)
        )
        (conv1): Conv1d(1.05 M, 3.983% Params, 151.29 MMac, 4.898% MACs, 512, 2048, kernel_size=(1,), stride=(1,))
        (conv2): Conv1d(1.05 M, 3.977% Params, 151.07 MMac, 4.891% MACs, 2048, 512, kernel_size=(1,), stride=(1,))
        (norm1): LayerNorm(0, 0.000% Params, 0.0 Mac, 0.000% MACs, (512,), eps=1e-05, elementwise_affine=True)
        (norm2): LayerNorm(0, 0.000% Params, 0.0 Mac, 0.000% MACs, (512,), eps=1e-05, elementwise_affine=True)
        (norm3): LayerNorm(0, 0.000% Params, 0.0 Mac, 0.000% MACs, (512,), eps=1e-05, elementwise_affine=True)
        (dropout): Dropout(0, 0.000% Params, 0.0 Mac, 0.000% MACs, p=0.05, inplace=False)
      )
      (1): DecoderLayer(
        4.2 M, 15.926% Params, 579.19 MMac, 18.750% MACs, 
        (self_attention): AttentionLayer(
          1.05 M, 3.983% Params, 151.0 MMac, 4.888% MACs, 
          (inner_attention): FullAttention(
            0, 0.000% Params, 0.0 Mac, 0.000% MACs, 
            (dropout): Dropout(0, 0.000% Params, 0.0 Mac, 0.000% MACs, p=0.05, inplace=False)
          )
          (query_projection): Linear(262.66 k, 0.996% Params, 37.75 MMac, 1.222% MACs, in_features=512, out_features=512, bias=True)
          (key_projection): Linear(262.66 k, 0.996% Params, 37.75 MMac, 1.222% MACs, in_features=512, out_features=512, bias=True)
          (value_projection): Linear(262.66 k, 0.996% Params, 37.75 MMac, 1.222% MACs, in_features=512, out_features=512, bias=True)
          (out_projection): Linear(262.66 k, 0.996% Params, 37.75 MMac, 1.222% MACs, in_features=512, out_features=512, bias=True)
        )
        (cross_attention): AttentionLayer(
          1.05 M, 3.983% Params, 125.83 MMac, 4.074% MACs, 
          (inner_attention): FullAttention(
            0, 0.000% Params, 0.0 Mac, 0.000% MACs, 
            (dropout): Dropout(0, 0.000% Params, 0.0 Mac, 0.000% MACs, p=0.05, inplace=False)
          )
          (query_projection): Linear(262.66 k, 0.996% Params, 37.75 MMac, 1.222% MACs, in_features=512, out_features=512, bias=True)
          (key_projection): Linear(262.66 k, 0.996% Params, 25.17 MMac, 0.815% MACs, in_features=512, out_features=512, bias=True)
          (value_projection): Linear(262.66 k, 0.996% Params, 25.17 MMac, 0.815% MACs, in_features=512, out_features=512, bias=True)
          (out_projection): Linear(262.66 k, 0.996% Params, 37.75 MMac, 1.222% MACs, in_features=512, out_features=512, bias=True)
        )
        (conv1): Conv1d(1.05 M, 3.983% Params, 151.29 MMac, 4.898% MACs, 512, 2048, kernel_size=(1,), stride=(1,))
        (conv2): Conv1d(1.05 M, 3.977% Params, 151.07 MMac, 4.891% MACs, 2048, 512, kernel_size=(1,), stride=(1,))
        (norm1): LayerNorm(0, 0.000% Params, 0.0 Mac, 0.000% MACs, (512,), eps=1e-05, elementwise_affine=True)
        (norm2): LayerNorm(0, 0.000% Params, 0.0 Mac, 0.000% MACs, (512,), eps=1e-05, elementwise_affine=True)
        (norm3): LayerNorm(0, 0.000% Params, 0.0 Mac, 0.000% MACs, (512,), eps=1e-05, elementwise_affine=True)
        (dropout): Dropout(0, 0.000% Params, 0.0 Mac, 0.000% MACs, p=0.05, inplace=False)
      )
      (2): DecoderLayer(
        4.2 M, 15.926% Params, 579.19 MMac, 18.750% MACs, 
        (self_attention): AttentionLayer(
          1.05 M, 3.983% Params, 151.0 MMac, 4.888% MACs, 
          (inner_attention): FullAttention(
            0, 0.000% Params, 0.0 Mac, 0.000% MACs, 
            (dropout): Dropout(0, 0.000% Params, 0.0 Mac, 0.000% MACs, p=0.05, inplace=False)
          )
          (query_projection): Linear(262.66 k, 0.996% Params, 37.75 MMac, 1.222% MACs, in_features=512, out_features=512, bias=True)
          (key_projection): Linear(262.66 k, 0.996% Params, 37.75 MMac, 1.222% MACs, in_features=512, out_features=512, bias=True)
          (value_projection): Linear(262.66 k, 0.996% Params, 37.75 MMac, 1.222% MACs, in_features=512, out_features=512, bias=True)
          (out_projection): Linear(262.66 k, 0.996% Params, 37.75 MMac, 1.222% MACs, in_features=512, out_features=512, bias=True)
        )
        (cross_attention): AttentionLayer(
          1.05 M, 3.983% Params, 125.83 MMac, 4.074% MACs, 
          (inner_attention): FullAttention(
            0, 0.000% Params, 0.0 Mac, 0.000% MACs, 
            (dropout): Dropout(0, 0.000% Params, 0.0 Mac, 0.000% MACs, p=0.05, inplace=False)
          )
          (query_projection): Linear(262.66 k, 0.996% Params, 37.75 MMac, 1.222% MACs, in_features=512, out_features=512, bias=True)
          (key_projection): Linear(262.66 k, 0.996% Params, 25.17 MMac, 0.815% MACs, in_features=512, out_features=512, bias=True)
          (value_projection): Linear(262.66 k, 0.996% Params, 25.17 MMac, 0.815% MACs, in_features=512, out_features=512, bias=True)
          (out_projection): Linear(262.66 k, 0.996% Params, 37.75 MMac, 1.222% MACs, in_features=512, out_features=512, bias=True)
        )
        (conv1): Conv1d(1.05 M, 3.983% Params, 151.29 MMac, 4.898% MACs, 512, 2048, kernel_size=(1,), stride=(1,))
        (conv2): Conv1d(1.05 M, 3.977% Params, 151.07 MMac, 4.891% MACs, 2048, 512, kernel_size=(1,), stride=(1,))
        (norm1): LayerNorm(0, 0.000% Params, 0.0 Mac, 0.000% MACs, (512,), eps=1e-05, elementwise_affine=True)
        (norm2): LayerNorm(0, 0.000% Params, 0.0 Mac, 0.000% MACs, (512,), eps=1e-05, elementwise_affine=True)
        (norm3): LayerNorm(0, 0.000% Params, 0.0 Mac, 0.000% MACs, (512,), eps=1e-05, elementwise_affine=True)
        (dropout): Dropout(0, 0.000% Params, 0.0 Mac, 0.000% MACs, p=0.05, inplace=False)
      )
    )
    (norm): LayerNorm(0, 0.000% Params, 0.0 Mac, 0.000% MACs, (512,), eps=1e-05, elementwise_affine=True)
    (projection): Linear(164.67 k, 0.624% Params, 23.67 MMac, 0.766% MACs, in_features=512, out_features=321, bias=True)
  )
)
Computational complexity:       3.09 GMac
Number of parameters:           26.38 M 
