…
INFO: Trainable parameter count: 2.14M
INFO: Trainable parameter count: 2.14M
INFO: Trainable parameter count: 2.14M
INFO: Trainable parameter count: 2.14M
INFO: Trainable parameter count: 2.14M
INFO: Trainable parameter count: 2.14M
INFO: Trainable parameter count: 2.14M
INFO: Trainable parameter count: 2.18M
INFO: Trainable parameter count: 2.18M
Model(
  2.18 M, 99.895% Params, 217.92 MMac, 100.000% MACs, 
  (enc_embedding): DataEmbedding(
    123.78 k, 5.666% Params, 11.88 MMac, 5.453% MACs, 
    (value_embedding): TokenEmbedding(
      123.26 k, 5.643% Params, 11.83 MMac, 5.430% MACs, 
      (tokenConv): Conv1d(123.26 k, 5.643% Params, 11.83 MMac, 5.430% MACs, 321, 128, kernel_size=(3,), stride=(1,), padding=(1,), bias=False, padding_mode=circular)
    )
    (position_embedding): PositionalEmbedding(0, 0.000% Params, 0.0 Mac, 0.000% MACs, )
    (temporal_embedding): TimeFeatureEmbedding(
      512, 0.023% Params, 49.15 KMac, 0.023% MACs, 
      (embed): Linear(512, 0.023% Params, 49.15 KMac, 0.023% MACs, in_features=4, out_features=128, bias=False)
    )
    (dropout): Dropout(0, 0.000% Params, 0.0 Mac, 0.000% MACs, p=0.05, inplace=False)
  )
  (dec_embedding): DataEmbedding(
    123.78 k, 5.666% Params, 17.82 MMac, 8.179% MACs, 
    (value_embedding): TokenEmbedding(
      123.26 k, 5.643% Params, 17.75 MMac, 8.145% MACs, 
      (tokenConv): Conv1d(123.26 k, 5.643% Params, 17.75 MMac, 8.145% MACs, 321, 128, kernel_size=(3,), stride=(1,), padding=(1,), bias=False, padding_mode=circular)
    )
    (position_embedding): PositionalEmbedding(0, 0.000% Params, 0.0 Mac, 0.000% MACs, )
    (temporal_embedding): TimeFeatureEmbedding(
      512, 0.023% Params, 73.73 KMac, 0.034% MACs, 
      (embed): Linear(512, 0.023% Params, 73.73 KMac, 0.034% MACs, in_features=4, out_features=128, bias=False)
    )
    (dropout): Dropout(0, 0.000% Params, 0.0 Mac, 0.000% MACs, p=0.05, inplace=False)
  )
  (encoder): Encoder(
    1.23 M, 56.518% Params, 90.72 MMac, 41.631% MACs, 
    (attn_layers): ModuleList(
      1.19 M, 54.250% Params, 85.84 MMac, 39.392% MACs, 
      (0): EncoderLayer(
        592.51 k, 27.125% Params, 56.83 MMac, 26.080% MACs, 
        (attention): AttentionLayer(
          66.05 k, 3.024% Params, 6.29 MMac, 2.887% MACs, 
          (inner_attention): ProbAttention(
            0, 0.000% Params, 0.0 Mac, 0.000% MACs, 
            (dropout): Dropout(0, 0.000% Params, 0.0 Mac, 0.000% MACs, p=0.05, inplace=False)
          )
          (query_projection): Linear(16.51 k, 0.756% Params, 1.57 MMac, 0.722% MACs, in_features=128, out_features=128, bias=True)
          (key_projection): Linear(16.51 k, 0.756% Params, 1.57 MMac, 0.722% MACs, in_features=128, out_features=128, bias=True)
          (value_projection): Linear(16.51 k, 0.756% Params, 1.57 MMac, 0.722% MACs, in_features=128, out_features=128, bias=True)
          (out_projection): Linear(16.51 k, 0.756% Params, 1.57 MMac, 0.722% MACs, in_features=128, out_features=128, bias=True)
        )
        (conv1): Conv1d(264.19 k, 12.095% Params, 25.36 MMac, 11.639% MACs, 128, 2048, kernel_size=(1,), stride=(1,))
        (conv2): Conv1d(262.27 k, 12.007% Params, 25.18 MMac, 11.554% MACs, 2048, 128, kernel_size=(1,), stride=(1,))
        (norm1): LayerNorm(0, 0.000% Params, 0.0 Mac, 0.000% MACs, (128,), eps=1e-05, elementwise_affine=True)
        (norm2): LayerNorm(0, 0.000% Params, 0.0 Mac, 0.000% MACs, (128,), eps=1e-05, elementwise_affine=True)
        (dropout): Dropout(0, 0.000% Params, 0.0 Mac, 0.000% MACs, p=0.05, inplace=False)
      )
      (1): EncoderLayer(
        592.51 k, 27.125% Params, 29.01 MMac, 13.312% MACs, 
        (attention): AttentionLayer(
          66.05 k, 3.024% Params, 3.21 MMac, 1.474% MACs, 
          (inner_attention): ProbAttention(
            0, 0.000% Params, 0.0 Mac, 0.000% MACs, 
            (dropout): Dropout(0, 0.000% Params, 0.0 Mac, 0.000% MACs, p=0.05, inplace=False)
          )
          (query_projection): Linear(16.51 k, 0.756% Params, 802.94 KMac, 0.368% MACs, in_features=128, out_features=128, bias=True)
          (key_projection): Linear(16.51 k, 0.756% Params, 802.94 KMac, 0.368% MACs, in_features=128, out_features=128, bias=True)
          (value_projection): Linear(16.51 k, 0.756% Params, 802.94 KMac, 0.368% MACs, in_features=128, out_features=128, bias=True)
          (out_projection): Linear(16.51 k, 0.756% Params, 802.94 KMac, 0.368% MACs, in_features=128, out_features=128, bias=True)
        )
        (conv1): Conv1d(264.19 k, 12.095% Params, 12.95 MMac, 5.941% MACs, 128, 2048, kernel_size=(1,), stride=(1,))
        (conv2): Conv1d(262.27 k, 12.007% Params, 12.85 MMac, 5.897% MACs, 2048, 128, kernel_size=(1,), stride=(1,))
        (norm1): LayerNorm(0, 0.000% Params, 0.0 Mac, 0.000% MACs, (128,), eps=1e-05, elementwise_affine=True)
        (norm2): LayerNorm(0, 0.000% Params, 0.0 Mac, 0.000% MACs, (128,), eps=1e-05, elementwise_affine=True)
        (dropout): Dropout(0, 0.000% Params, 0.0 Mac, 0.000% MACs, p=0.05, inplace=False)
      )
    )
    (conv_layers): ModuleList(
      49.54 k, 2.268% Params, 4.88 MMac, 2.239% MACs, 
      (0): ConvLayer(
        49.54 k, 2.268% Params, 4.88 MMac, 2.239% MACs, 
        (downConv): Conv1d(49.28 k, 2.256% Params, 4.83 MMac, 2.216% MACs, 128, 128, kernel_size=(3,), stride=(1,), padding=(2,), padding_mode=circular)
        (norm): BatchNorm1d(256, 0.012% Params, 25.09 KMac, 0.012% MACs, 128, eps=1e-05, momentum=0.1, affine=True, track_running_stats=True)
        (activation): ELU(0, 0.000% Params, 12.54 KMac, 0.006% MACs, alpha=1.0)
        (maxPool): MaxPool1d(0, 0.000% Params, 12.54 KMac, 0.006% MACs, kernel_size=3, stride=2, padding=1, dilation=1, ceil_mode=False)
      )
    )
    (norm): LayerNorm(0, 0.000% Params, 0.0 Mac, 0.000% MACs, (128,), eps=1e-05, elementwise_affine=True)
  )
  (decoder): Decoder(
    699.97 k, 32.044% Params, 97.49 MMac, 44.737% MACs, 
    (layers): ModuleList(
      658.56 k, 30.149% Params, 91.57 MMac, 42.022% MACs, 
      (0): DecoderLayer(
        658.56 k, 30.149% Params, 91.57 MMac, 42.022% MACs, 
        (self_attention): AttentionLayer(
          66.05 k, 3.024% Params, 9.44 MMac, 4.331% MACs, 
          (inner_attention): ProbAttention(
            0, 0.000% Params, 0.0 Mac, 0.000% MACs, 
            (dropout): Dropout(0, 0.000% Params, 0.0 Mac, 0.000% MACs, p=0.05, inplace=False)
          )
          (query_projection): Linear(16.51 k, 0.756% Params, 2.36 MMac, 1.083% MACs, in_features=128, out_features=128, bias=True)
          (key_projection): Linear(16.51 k, 0.756% Params, 2.36 MMac, 1.083% MACs, in_features=128, out_features=128, bias=True)
          (value_projection): Linear(16.51 k, 0.756% Params, 2.36 MMac, 1.083% MACs, in_features=128, out_features=128, bias=True)
          (out_projection): Linear(16.51 k, 0.756% Params, 2.36 MMac, 1.083% MACs, in_features=128, out_features=128, bias=True)
        )
        (cross_attention): AttentionLayer(
          66.05 k, 3.024% Params, 6.32 MMac, 2.902% MACs, 
          (inner_attention): ProbAttention(
            0, 0.000% Params, 0.0 Mac, 0.000% MACs, 
            (dropout): Dropout(0, 0.000% Params, 0.0 Mac, 0.000% MACs, p=0.05, inplace=False)
          )
          (query_projection): Linear(16.51 k, 0.756% Params, 2.36 MMac, 1.083% MACs, in_features=128, out_features=128, bias=True)
          (key_projection): Linear(16.51 k, 0.756% Params, 802.94 KMac, 0.368% MACs, in_features=128, out_features=128, bias=True)
          (value_projection): Linear(16.51 k, 0.756% Params, 802.94 KMac, 0.368% MACs, in_features=128, out_features=128, bias=True)
          (out_projection): Linear(16.51 k, 0.756% Params, 2.36 MMac, 1.083% MACs, in_features=128, out_features=128, bias=True)
        )
        (conv1): Conv1d(264.19 k, 12.095% Params, 38.04 MMac, 17.458% MACs, 128, 2048, kernel_size=(1,), stride=(1,))
        (conv2): Conv1d(262.27 k, 12.007% Params, 37.77 MMac, 17.331% MACs, 2048, 128, kernel_size=(1,), stride=(1,))
        (norm1): LayerNorm(0, 0.000% Params, 0.0 Mac, 0.000% MACs, (128,), eps=1e-05, elementwise_affine=True)
        (norm2): LayerNorm(0, 0.000% Params, 0.0 Mac, 0.000% MACs, (128,), eps=1e-05, elementwise_affine=True)
        (norm3): LayerNorm(0, 0.000% Params, 0.0 Mac, 0.000% MACs, (128,), eps=1e-05, elementwise_affine=True)
        (dropout): Dropout(0, 0.000% Params, 0.0 Mac, 0.000% MACs, p=0.05, inplace=False)
      )
    )
    (norm): LayerNorm(0, 0.000% Params, 0.0 Mac, 0.000% MACs, (128,), eps=1e-05, elementwise_affine=True)
    (projection): Linear(41.41 k, 1.896% Params, 5.92 MMac, 2.715% MACs, in_features=128, out_features=321, bias=True)
  )
)
Computational complexity:       217.92 MMac
Number of parameters:           2.18 M  
