…
INFO: Trainable parameter count: 32.60M
INFO: Trainable parameter count: 32.60M
INFO: Trainable parameter count: 32.60M
INFO: Trainable parameter count: 32.60M
INFO: Trainable parameter count: 32.60M
INFO: Trainable parameter count: 32.60M
INFO: Trainable parameter count: 32.60M
INFO: Trainable parameter count: 32.61M
INFO: Trainable parameter count: 32.61M
Model(
  32.59 M, 99.943% Params, 3.15 GMac, 100.000% MACs, 
  (enc_embedding): DataEmbedding(
    25.6 k, 0.079% Params, 2.46 MMac, 0.078% MACs, 
    (value_embedding): TokenEmbedding(
      21.5 k, 0.066% Params, 2.06 MMac, 0.066% MACs, 
      (tokenConv): Conv1d(21.5 k, 0.066% Params, 2.06 MMac, 0.066% MACs, 7, 1024, kernel_size=(3,), stride=(1,), padding=(1,), bias=False, padding_mode=circular)
    )
    (position_embedding): PositionalEmbedding(0, 0.000% Params, 0.0 Mac, 0.000% MACs, )
    (temporal_embedding): TimeFeatureEmbedding(
      4.1 k, 0.013% Params, 393.22 KMac, 0.012% MACs, 
      (embed): Linear(4.1 k, 0.013% Params, 393.22 KMac, 0.012% MACs, in_features=4, out_features=1024, bias=False)
    )
    (dropout): Dropout(0, 0.000% Params, 0.0 Mac, 0.000% MACs, p=0.05, inplace=False)
  )
  (dec_embedding): DataEmbedding(
    25.6 k, 0.079% Params, 3.69 MMac, 0.117% MACs, 
    (value_embedding): TokenEmbedding(
      21.5 k, 0.066% Params, 3.1 MMac, 0.098% MACs, 
      (tokenConv): Conv1d(21.5 k, 0.066% Params, 3.1 MMac, 0.098% MACs, 7, 1024, kernel_size=(3,), stride=(1,), padding=(1,), bias=False, padding_mode=circular)
    )
    (position_embedding): PositionalEmbedding(0, 0.000% Params, 0.0 Mac, 0.000% MACs, )
    (temporal_embedding): TimeFeatureEmbedding(
      4.1 k, 0.013% Params, 589.82 KMac, 0.019% MACs, 
      (embed): Linear(4.1 k, 0.013% Params, 589.82 KMac, 0.019% MACs, in_features=4, out_features=1024, bias=False)
    )
    (dropout): Dropout(0, 0.000% Params, 0.0 Mac, 0.000% MACs, p=0.05, inplace=False)
  )
  (encoder): Encoder(
    19.94 M, 61.145% Params, 1.53 GMac, 48.494% MACs, 
    (attn_layers): ModuleList(
      16.79 M, 51.490% Params, 1.22 GMac, 38.679% MACs, 
      (0): EncoderLayer(
        8.4 M, 25.745% Params, 805.61 MMac, 25.608% MACs, 
        (attention): AttentionLayer(
          4.2 M, 12.874% Params, 402.66 MMac, 12.799% MACs, 
          (inner_attention): ProbAttention(
            0, 0.000% Params, 0.0 Mac, 0.000% MACs, 
            (dropout): Dropout(0, 0.000% Params, 0.0 Mac, 0.000% MACs, p=0.05, inplace=False)
          )
          (query_projection): Linear(1.05 M, 3.219% Params, 100.66 MMac, 3.200% MACs, in_features=1024, out_features=1024, bias=True)
          (key_projection): Linear(1.05 M, 3.219% Params, 100.66 MMac, 3.200% MACs, in_features=1024, out_features=1024, bias=True)
          (value_projection): Linear(1.05 M, 3.219% Params, 100.66 MMac, 3.200% MACs, in_features=1024, out_features=1024, bias=True)
          (out_projection): Linear(1.05 M, 3.219% Params, 100.66 MMac, 3.200% MACs, in_features=1024, out_features=1024, bias=True)
        )
        (conv1): Conv1d(2.1 M, 6.437% Params, 201.52 MMac, 6.406% MACs, 1024, 2048, kernel_size=(1,), stride=(1,))
        (conv2): Conv1d(2.1 M, 6.434% Params, 201.42 MMac, 6.403% MACs, 2048, 1024, kernel_size=(1,), stride=(1,))
        (norm1): LayerNorm(0, 0.000% Params, 0.0 Mac, 0.000% MACs, (1024,), eps=1e-05, elementwise_affine=True)
        (norm2): LayerNorm(0, 0.000% Params, 0.0 Mac, 0.000% MACs, (1024,), eps=1e-05, elementwise_affine=True)
        (dropout): Dropout(0, 0.000% Params, 0.0 Mac, 0.000% MACs, p=0.05, inplace=False)
      )
      (1): EncoderLayer(
        8.4 M, 25.745% Params, 411.2 MMac, 13.071% MACs, 
        (attention): AttentionLayer(
          4.2 M, 12.874% Params, 205.52 MMac, 6.533% MACs, 
          (inner_attention): ProbAttention(
            0, 0.000% Params, 0.0 Mac, 0.000% MACs, 
            (dropout): Dropout(0, 0.000% Params, 0.0 Mac, 0.000% MACs, p=0.05, inplace=False)
          )
          (query_projection): Linear(1.05 M, 3.219% Params, 51.38 MMac, 1.633% MACs, in_features=1024, out_features=1024, bias=True)
          (key_projection): Linear(1.05 M, 3.219% Params, 51.38 MMac, 1.633% MACs, in_features=1024, out_features=1024, bias=True)
          (value_projection): Linear(1.05 M, 3.219% Params, 51.38 MMac, 1.633% MACs, in_features=1024, out_features=1024, bias=True)
          (out_projection): Linear(1.05 M, 3.219% Params, 51.38 MMac, 1.633% MACs, in_features=1024, out_features=1024, bias=True)
        )
        (conv1): Conv1d(2.1 M, 6.437% Params, 102.86 MMac, 3.270% MACs, 1024, 2048, kernel_size=(1,), stride=(1,))
        (conv2): Conv1d(2.1 M, 6.434% Params, 102.81 MMac, 3.268% MACs, 2048, 1024, kernel_size=(1,), stride=(1,))
        (norm1): LayerNorm(0, 0.000% Params, 0.0 Mac, 0.000% MACs, (1024,), eps=1e-05, elementwise_affine=True)
        (norm2): LayerNorm(0, 0.000% Params, 0.0 Mac, 0.000% MACs, (1024,), eps=1e-05, elementwise_affine=True)
        (dropout): Dropout(0, 0.000% Params, 0.0 Mac, 0.000% MACs, p=0.05, inplace=False)
      )
    )
    (conv_layers): ModuleList(
      3.15 M, 9.656% Params, 308.78 MMac, 9.815% MACs, 
      (0): ConvLayer(
        3.15 M, 9.656% Params, 308.78 MMac, 9.815% MACs, 
        (downConv): Conv1d(3.15 M, 9.649% Params, 308.38 MMac, 9.803% MACs, 1024, 1024, kernel_size=(3,), stride=(1,), padding=(2,), padding_mode=circular)
        (norm): BatchNorm1d(2.05 k, 0.006% Params, 200.7 KMac, 0.006% MACs, 1024, eps=1e-05, momentum=0.1, affine=True, track_running_stats=True)
        (activation): ELU(0, 0.000% Params, 100.35 KMac, 0.003% MACs, alpha=1.0)
        (maxPool): MaxPool1d(0, 0.000% Params, 100.35 KMac, 0.003% MACs, kernel_size=3, stride=2, padding=1, dilation=1, ceil_mode=False)
      )
    )
    (norm): LayerNorm(0, 0.000% Params, 0.0 Mac, 0.000% MACs, (1024,), eps=1e-05, elementwise_affine=True)
  )
  (decoder): Decoder(
    12.6 M, 38.641% Params, 1.61 GMac, 51.311% MACs, 
    (layers): ModuleList(
      12.59 M, 38.619% Params, 1.61 GMac, 51.278% MACs, 
      (0): DecoderLayer(
        12.59 M, 38.619% Params, 1.61 GMac, 51.278% MACs, 
        (self_attention): AttentionLayer(
          4.2 M, 12.874% Params, 603.98 MMac, 19.199% MACs, 
          (inner_attention): ProbAttention(
            0, 0.000% Params, 0.0 Mac, 0.000% MACs, 
            (dropout): Dropout(0, 0.000% Params, 0.0 Mac, 0.000% MACs, p=0.05, inplace=False)
          )
          (query_projection): Linear(1.05 M, 3.219% Params, 151.0 MMac, 4.800% MACs, in_features=1024, out_features=1024, bias=True)
          (key_projection): Linear(1.05 M, 3.219% Params, 151.0 MMac, 4.800% MACs, in_features=1024, out_features=1024, bias=True)
          (value_projection): Linear(1.05 M, 3.219% Params, 151.0 MMac, 4.800% MACs, in_features=1024, out_features=1024, bias=True)
          (out_projection): Linear(1.05 M, 3.219% Params, 151.0 MMac, 4.800% MACs, in_features=1024, out_features=1024, bias=True)
        )
        (cross_attention): AttentionLayer(
          4.2 M, 12.874% Params, 404.75 MMac, 12.866% MACs, 
          (inner_attention): ProbAttention(
            0, 0.000% Params, 0.0 Mac, 0.000% MACs, 
            (dropout): Dropout(0, 0.000% Params, 0.0 Mac, 0.000% MACs, p=0.05, inplace=False)
          )
          (query_projection): Linear(1.05 M, 3.219% Params, 151.0 MMac, 4.800% MACs, in_features=1024, out_features=1024, bias=True)
          (key_projection): Linear(1.05 M, 3.219% Params, 51.38 MMac, 1.633% MACs, in_features=1024, out_features=1024, bias=True)
          (value_projection): Linear(1.05 M, 3.219% Params, 51.38 MMac, 1.633% MACs, in_features=1024, out_features=1024, bias=True)
          (out_projection): Linear(1.05 M, 3.219% Params, 151.0 MMac, 4.800% MACs, in_features=1024, out_features=1024, bias=True)
        )
        (conv1): Conv1d(2.1 M, 6.437% Params, 302.28 MMac, 9.609% MACs, 1024, 2048, kernel_size=(1,), stride=(1,))
        (conv2): Conv1d(2.1 M, 6.434% Params, 302.14 MMac, 9.604% MACs, 2048, 1024, kernel_size=(1,), stride=(1,))
        (norm1): LayerNorm(0, 0.000% Params, 0.0 Mac, 0.000% MACs, (1024,), eps=1e-05, elementwise_affine=True)
        (norm2): LayerNorm(0, 0.000% Params, 0.0 Mac, 0.000% MACs, (1024,), eps=1e-05, elementwise_affine=True)
        (norm3): LayerNorm(0, 0.000% Params, 0.0 Mac, 0.000% MACs, (1024,), eps=1e-05, elementwise_affine=True)
        (dropout): Dropout(0, 0.000% Params, 0.0 Mac, 0.000% MACs, p=0.05, inplace=False)
      )
    )
    (norm): LayerNorm(0, 0.000% Params, 0.0 Mac, 0.000% MACs, (1024,), eps=1e-05, elementwise_affine=True)
    (projection): Linear(7.17 k, 0.022% Params, 1.03 MMac, 0.033% MACs, in_features=1024, out_features=7, bias=True)
  )
)
Computational complexity:       3.15 GMac
Number of parameters:           32.61 M 
