…
INFO: Trainable parameter count: 34.53M
INFO: Trainable parameter count: 34.53M
INFO: Trainable parameter count: 34.53M
INFO: Trainable parameter count: 34.53M
INFO: Trainable parameter count: 34.53M
INFO: Trainable parameter count: 34.53M
INFO: Trainable parameter count: 34.53M
INFO: Trainable parameter count: 34.86M
INFO: Trainable parameter count: 34.86M
Model(
  34.84 M, 99.947% Params, 3.42 GMac, 100.000% MACs, 
  (enc_embedding): DataEmbedding(
    990.21 k, 2.840% Params, 95.06 MMac, 2.777% MACs, 
    (value_embedding): TokenEmbedding(
      986.11 k, 2.829% Params, 94.67 MMac, 2.765% MACs, 
      (tokenConv): Conv1d(986.11 k, 2.829% Params, 94.67 MMac, 2.765% MACs, 321, 1024, kernel_size=(3,), stride=(1,), padding=(1,), bias=False, padding_mode=circular)
    )
    (position_embedding): PositionalEmbedding(0, 0.000% Params, 0.0 Mac, 0.000% MACs, )
    (temporal_embedding): TimeFeatureEmbedding(
      4.1 k, 0.012% Params, 393.22 KMac, 0.011% MACs, 
      (embed): Linear(4.1 k, 0.012% Params, 393.22 KMac, 0.011% MACs, in_features=4, out_features=1024, bias=False)
    )
    (dropout): Dropout(0, 0.000% Params, 0.0 Mac, 0.000% MACs, p=0.05, inplace=False)
  )
  (dec_embedding): DataEmbedding(
    990.21 k, 2.840% Params, 142.59 MMac, 4.165% MACs, 
    (value_embedding): TokenEmbedding(
      986.11 k, 2.829% Params, 142.0 MMac, 4.148% MACs, 
      (tokenConv): Conv1d(986.11 k, 2.829% Params, 142.0 MMac, 4.148% MACs, 321, 1024, kernel_size=(3,), stride=(1,), padding=(1,), bias=False, padding_mode=circular)
    )
    (position_embedding): PositionalEmbedding(0, 0.000% Params, 0.0 Mac, 0.000% MACs, )
    (temporal_embedding): TimeFeatureEmbedding(
      4.1 k, 0.012% Params, 589.82 KMac, 0.017% MACs, 
      (embed): Linear(4.1 k, 0.012% Params, 589.82 KMac, 0.017% MACs, in_features=4, out_features=1024, bias=False)
    )
    (dropout): Dropout(0, 0.000% Params, 0.0 Mac, 0.000% MACs, p=0.05, inplace=False)
  )
  (encoder): Encoder(
    19.94 M, 57.197% Params, 1.53 GMac, 44.559% MACs, 
    (attn_layers): ModuleList(
      16.79 M, 48.165% Params, 1.22 GMac, 35.540% MACs, 
      (0): EncoderLayer(
        8.4 M, 24.083% Params, 805.61 MMac, 23.530% MACs, 
        (attention): AttentionLayer(
          4.2 M, 12.043% Params, 402.66 MMac, 11.761% MACs, 
          (inner_attention): ProbAttention(
            0, 0.000% Params, 0.0 Mac, 0.000% MACs, 
            (dropout): Dropout(0, 0.000% Params, 0.0 Mac, 0.000% MACs, p=0.05, inplace=False)
          )
          (query_projection): Linear(1.05 M, 3.011% Params, 100.66 MMac, 2.940% MACs, in_features=1024, out_features=1024, bias=True)
          (key_projection): Linear(1.05 M, 3.011% Params, 100.66 MMac, 2.940% MACs, in_features=1024, out_features=1024, bias=True)
          (value_projection): Linear(1.05 M, 3.011% Params, 100.66 MMac, 2.940% MACs, in_features=1024, out_features=1024, bias=True)
          (out_projection): Linear(1.05 M, 3.011% Params, 100.66 MMac, 2.940% MACs, in_features=1024, out_features=1024, bias=True)
        )
        (conv1): Conv1d(2.1 M, 6.021% Params, 201.52 MMac, 5.886% MACs, 1024, 2048, kernel_size=(1,), stride=(1,))
        (conv2): Conv1d(2.1 M, 6.018% Params, 201.42 MMac, 5.883% MACs, 2048, 1024, kernel_size=(1,), stride=(1,))
        (norm1): LayerNorm(0, 0.000% Params, 0.0 Mac, 0.000% MACs, (1024,), eps=1e-05, elementwise_affine=True)
        (norm2): LayerNorm(0, 0.000% Params, 0.0 Mac, 0.000% MACs, (1024,), eps=1e-05, elementwise_affine=True)
        (dropout): Dropout(0, 0.000% Params, 0.0 Mac, 0.000% MACs, p=0.05, inplace=False)
      )
      (1): EncoderLayer(
        8.4 M, 24.083% Params, 411.2 MMac, 12.010% MACs, 
        (attention): AttentionLayer(
          4.2 M, 12.043% Params, 205.52 MMac, 6.003% MACs, 
          (inner_attention): ProbAttention(
            0, 0.000% Params, 0.0 Mac, 0.000% MACs, 
            (dropout): Dropout(0, 0.000% Params, 0.0 Mac, 0.000% MACs, p=0.05, inplace=False)
          )
          (query_projection): Linear(1.05 M, 3.011% Params, 51.38 MMac, 1.501% MACs, in_features=1024, out_features=1024, bias=True)
          (key_projection): Linear(1.05 M, 3.011% Params, 51.38 MMac, 1.501% MACs, in_features=1024, out_features=1024, bias=True)
          (value_projection): Linear(1.05 M, 3.011% Params, 51.38 MMac, 1.501% MACs, in_features=1024, out_features=1024, bias=True)
          (out_projection): Linear(1.05 M, 3.011% Params, 51.38 MMac, 1.501% MACs, in_features=1024, out_features=1024, bias=True)
        )
        (conv1): Conv1d(2.1 M, 6.021% Params, 102.86 MMac, 3.004% MACs, 1024, 2048, kernel_size=(1,), stride=(1,))
        (conv2): Conv1d(2.1 M, 6.018% Params, 102.81 MMac, 3.003% MACs, 2048, 1024, kernel_size=(1,), stride=(1,))
        (norm1): LayerNorm(0, 0.000% Params, 0.0 Mac, 0.000% MACs, (1024,), eps=1e-05, elementwise_affine=True)
        (norm2): LayerNorm(0, 0.000% Params, 0.0 Mac, 0.000% MACs, (1024,), eps=1e-05, elementwise_affine=True)
        (dropout): Dropout(0, 0.000% Params, 0.0 Mac, 0.000% MACs, p=0.05, inplace=False)
      )
    )
    (conv_layers): ModuleList(
      3.15 M, 9.032% Params, 308.78 MMac, 9.019% MACs, 
      (0): ConvLayer(
        3.15 M, 9.032% Params, 308.78 MMac, 9.019% MACs, 
        (downConv): Conv1d(3.15 M, 9.026% Params, 308.38 MMac, 9.007% MACs, 1024, 1024, kernel_size=(3,), stride=(1,), padding=(2,), padding_mode=circular)
        (norm): BatchNorm1d(2.05 k, 0.006% Params, 200.7 KMac, 0.006% MACs, 1024, eps=1e-05, momentum=0.1, affine=True, track_running_stats=True)
        (activation): ELU(0, 0.000% Params, 100.35 KMac, 0.003% MACs, alpha=1.0)
        (maxPool): MaxPool1d(0, 0.000% Params, 100.35 KMac, 0.003% MACs, kernel_size=3, stride=2, padding=1, dilation=1, ceil_mode=False)
      )
    )
    (norm): LayerNorm(0, 0.000% Params, 0.0 Mac, 0.000% MACs, (1024,), eps=1e-05, elementwise_affine=True)
  )
  (decoder): Decoder(
    12.92 M, 37.069% Params, 1.66 GMac, 48.500% MACs, 
    (layers): ModuleList(
      12.59 M, 36.125% Params, 1.61 GMac, 47.117% MACs, 
      (0): DecoderLayer(
        12.59 M, 36.125% Params, 1.61 GMac, 47.117% MACs, 
        (self_attention): AttentionLayer(
          4.2 M, 12.043% Params, 603.98 MMac, 17.641% MACs, 
          (inner_attention): ProbAttention(
            0, 0.000% Params, 0.0 Mac, 0.000% MACs, 
            (dropout): Dropout(0, 0.000% Params, 0.0 Mac, 0.000% MACs, p=0.05, inplace=False)
          )
          (query_projection): Linear(1.05 M, 3.011% Params, 151.0 MMac, 4.410% MACs, in_features=1024, out_features=1024, bias=True)
          (key_projection): Linear(1.05 M, 3.011% Params, 151.0 MMac, 4.410% MACs, in_features=1024, out_features=1024, bias=True)
          (value_projection): Linear(1.05 M, 3.011% Params, 151.0 MMac, 4.410% MACs, in_features=1024, out_features=1024, bias=True)
          (out_projection): Linear(1.05 M, 3.011% Params, 151.0 MMac, 4.410% MACs, in_features=1024, out_features=1024, bias=True)
        )
        (cross_attention): AttentionLayer(
          4.2 M, 12.043% Params, 404.75 MMac, 11.822% MACs, 
          (inner_attention): ProbAttention(
            0, 0.000% Params, 0.0 Mac, 0.000% MACs, 
            (dropout): Dropout(0, 0.000% Params, 0.0 Mac, 0.000% MACs, p=0.05, inplace=False)
          )
          (query_projection): Linear(1.05 M, 3.011% Params, 151.0 MMac, 4.410% MACs, in_features=1024, out_features=1024, bias=True)
          (key_projection): Linear(1.05 M, 3.011% Params, 51.38 MMac, 1.501% MACs, in_features=1024, out_features=1024, bias=True)
          (value_projection): Linear(1.05 M, 3.011% Params, 51.38 MMac, 1.501% MACs, in_features=1024, out_features=1024, bias=True)
          (out_projection): Linear(1.05 M, 3.011% Params, 151.0 MMac, 4.410% MACs, in_features=1024, out_features=1024, bias=True)
        )
        (conv1): Conv1d(2.1 M, 6.021% Params, 302.28 MMac, 8.829% MACs, 1024, 2048, kernel_size=(1,), stride=(1,))
        (conv2): Conv1d(2.1 M, 6.018% Params, 302.14 MMac, 8.825% MACs, 2048, 1024, kernel_size=(1,), stride=(1,))
        (norm1): LayerNorm(0, 0.000% Params, 0.0 Mac, 0.000% MACs, (1024,), eps=1e-05, elementwise_affine=True)
        (norm2): LayerNorm(0, 0.000% Params, 0.0 Mac, 0.000% MACs, (1024,), eps=1e-05, elementwise_affine=True)
        (norm3): LayerNorm(0, 0.000% Params, 0.0 Mac, 0.000% MACs, (1024,), eps=1e-05, elementwise_affine=True)
        (dropout): Dropout(0, 0.000% Params, 0.0 Mac, 0.000% MACs, p=0.05, inplace=False)
      )
    )
    (norm): LayerNorm(0, 0.000% Params, 0.0 Mac, 0.000% MACs, (1024,), eps=1e-05, elementwise_affine=True)
    (projection): Linear(329.02 k, 0.944% Params, 47.33 MMac, 1.383% MACs, in_features=1024, out_features=321, bias=True)
  )
)
Computational complexity:       3.42 GMac
Number of parameters:           34.86 M 
