…
INFO: Trainable parameter count: 1.90M
INFO: Trainable parameter count: 1.90M
INFO: Trainable parameter count: 1.90M
INFO: Trainable parameter count: 1.90M
INFO: Trainable parameter count: 1.90M
INFO: Trainable parameter count: 1.90M
INFO: Trainable parameter count: 1.90M
INFO: Trainable parameter count: 1.90M
INFO: Trainable parameter count: 1.90M
Model(
  1.9 M, 99.879% Params, 183.19 MMac, 100.000% MACs, 
  (enc_embedding): DataEmbedding(
    3.2 k, 0.168% Params, 307.2 KMac, 0.168% MACs, 
    (value_embedding): TokenEmbedding(
      2.69 k, 0.141% Params, 258.05 KMac, 0.141% MACs, 
      (tokenConv): Conv1d(2.69 k, 0.141% Params, 258.05 KMac, 0.141% MACs, 7, 128, kernel_size=(3,), stride=(1,), padding=(1,), bias=False, padding_mode=circular)
    )
    (position_embedding): PositionalEmbedding(0, 0.000% Params, 0.0 Mac, 0.000% MACs, )
    (temporal_embedding): TimeFeatureEmbedding(
      512, 0.027% Params, 49.15 KMac, 0.027% MACs, 
      (embed): Linear(512, 0.027% Params, 49.15 KMac, 0.027% MACs, in_features=4, out_features=128, bias=False)
    )
    (dropout): Dropout(0, 0.000% Params, 0.0 Mac, 0.000% MACs, p=0.05, inplace=False)
  )
  (dec_embedding): DataEmbedding(
    3.2 k, 0.168% Params, 460.8 KMac, 0.252% MACs, 
    (value_embedding): TokenEmbedding(
      2.69 k, 0.141% Params, 387.07 KMac, 0.211% MACs, 
      (tokenConv): Conv1d(2.69 k, 0.141% Params, 387.07 KMac, 0.211% MACs, 7, 128, kernel_size=(3,), stride=(1,), padding=(1,), bias=False, padding_mode=circular)
    )
    (position_embedding): PositionalEmbedding(0, 0.000% Params, 0.0 Mac, 0.000% MACs, )
    (temporal_embedding): TimeFeatureEmbedding(
      512, 0.027% Params, 73.73 KMac, 0.040% MACs, 
      (embed): Linear(512, 0.027% Params, 73.73 KMac, 0.040% MACs, in_features=4, out_features=128, bias=False)
    )
    (dropout): Dropout(0, 0.000% Params, 0.0 Mac, 0.000% MACs, p=0.05, inplace=False)
  )
  (encoder): Encoder(
    1.23 M, 64.884% Params, 90.72 MMac, 49.522% MACs, 
    (attn_layers): ModuleList(
      1.19 M, 62.280% Params, 85.84 MMac, 46.859% MACs, 
      (0): EncoderLayer(
        592.51 k, 31.140% Params, 56.83 MMac, 31.024% MACs, 
        (attention): AttentionLayer(
          66.05 k, 3.471% Params, 6.29 MMac, 3.435% MACs, 
          (inner_attention): ProbAttention(
            0, 0.000% Params, 0.0 Mac, 0.000% MACs, 
            (dropout): Dropout(0, 0.000% Params, 0.0 Mac, 0.000% MACs, p=0.05, inplace=False)
          )
          (query_projection): Linear(16.51 k, 0.868% Params, 1.57 MMac, 0.859% MACs, in_features=128, out_features=128, bias=True)
          (key_projection): Linear(16.51 k, 0.868% Params, 1.57 MMac, 0.859% MACs, in_features=128, out_features=128, bias=True)
          (value_projection): Linear(16.51 k, 0.868% Params, 1.57 MMac, 0.859% MACs, in_features=128, out_features=128, bias=True)
          (out_projection): Linear(16.51 k, 0.868% Params, 1.57 MMac, 0.859% MACs, in_features=128, out_features=128, bias=True)
        )
        (conv1): Conv1d(264.19 k, 13.885% Params, 25.36 MMac, 13.845% MACs, 128, 2048, kernel_size=(1,), stride=(1,))
        (conv2): Conv1d(262.27 k, 13.784% Params, 25.18 MMac, 13.744% MACs, 2048, 128, kernel_size=(1,), stride=(1,))
        (norm1): LayerNorm(0, 0.000% Params, 0.0 Mac, 0.000% MACs, (128,), eps=1e-05, elementwise_affine=True)
        (norm2): LayerNorm(0, 0.000% Params, 0.0 Mac, 0.000% MACs, (128,), eps=1e-05, elementwise_affine=True)
        (dropout): Dropout(0, 0.000% Params, 0.0 Mac, 0.000% MACs, p=0.05, inplace=False)
      )
      (1): EncoderLayer(
        592.51 k, 31.140% Params, 29.01 MMac, 15.835% MACs, 
        (attention): AttentionLayer(
          66.05 k, 3.471% Params, 3.21 MMac, 1.753% MACs, 
          (inner_attention): ProbAttention(
            0, 0.000% Params, 0.0 Mac, 0.000% MACs, 
            (dropout): Dropout(0, 0.000% Params, 0.0 Mac, 0.000% MACs, p=0.05, inplace=False)
          )
          (query_projection): Linear(16.51 k, 0.868% Params, 802.94 KMac, 0.438% MACs, in_features=128, out_features=128, bias=True)
          (key_projection): Linear(16.51 k, 0.868% Params, 802.94 KMac, 0.438% MACs, in_features=128, out_features=128, bias=True)
          (value_projection): Linear(16.51 k, 0.868% Params, 802.94 KMac, 0.438% MACs, in_features=128, out_features=128, bias=True)
          (out_projection): Linear(16.51 k, 0.868% Params, 802.94 KMac, 0.438% MACs, in_features=128, out_features=128, bias=True)
        )
        (conv1): Conv1d(264.19 k, 13.885% Params, 12.95 MMac, 7.067% MACs, 128, 2048, kernel_size=(1,), stride=(1,))
        (conv2): Conv1d(262.27 k, 13.784% Params, 12.85 MMac, 7.015% MACs, 2048, 128, kernel_size=(1,), stride=(1,))
        (norm1): LayerNorm(0, 0.000% Params, 0.0 Mac, 0.000% MACs, (128,), eps=1e-05, elementwise_affine=True)
        (norm2): LayerNorm(0, 0.000% Params, 0.0 Mac, 0.000% MACs, (128,), eps=1e-05, elementwise_affine=True)
        (dropout): Dropout(0, 0.000% Params, 0.0 Mac, 0.000% MACs, p=0.05, inplace=False)
      )
    )
    (conv_layers): ModuleList(
      49.54 k, 2.603% Params, 4.88 MMac, 2.664% MACs, 
      (0): ConvLayer(
        49.54 k, 2.603% Params, 4.88 MMac, 2.664% MACs, 
        (downConv): Conv1d(49.28 k, 2.590% Params, 4.83 MMac, 2.636% MACs, 128, 128, kernel_size=(3,), stride=(1,), padding=(2,), padding_mode=circular)
        (norm): BatchNorm1d(256, 0.013% Params, 25.09 KMac, 0.014% MACs, 128, eps=1e-05, momentum=0.1, affine=True, track_running_stats=True)
        (activation): ELU(0, 0.000% Params, 12.54 KMac, 0.007% MACs, alpha=1.0)
        (maxPool): MaxPool1d(0, 0.000% Params, 12.54 KMac, 0.007% MACs, kernel_size=3, stride=2, padding=1, dilation=1, ceil_mode=False)
      )
    )
    (norm): LayerNorm(0, 0.000% Params, 0.0 Mac, 0.000% MACs, (128,), eps=1e-05, elementwise_affine=True)
  )
  (decoder): Decoder(
    659.46 k, 34.659% Params, 91.7 MMac, 50.058% MACs, 
    (layers): ModuleList(
      658.56 k, 34.611% Params, 91.57 MMac, 49.988% MACs, 
      (0): DecoderLayer(
        658.56 k, 34.611% Params, 91.57 MMac, 49.988% MACs, 
        (self_attention): AttentionLayer(
          66.05 k, 3.471% Params, 9.44 MMac, 5.152% MACs, 
          (inner_attention): ProbAttention(
            0, 0.000% Params, 0.0 Mac, 0.000% MACs, 
            (dropout): Dropout(0, 0.000% Params, 0.0 Mac, 0.000% MACs, p=0.05, inplace=False)
          )
          (query_projection): Linear(16.51 k, 0.868% Params, 2.36 MMac, 1.288% MACs, in_features=128, out_features=128, bias=True)
          (key_projection): Linear(16.51 k, 0.868% Params, 2.36 MMac, 1.288% MACs, in_features=128, out_features=128, bias=True)
          (value_projection): Linear(16.51 k, 0.868% Params, 2.36 MMac, 1.288% MACs, in_features=128, out_features=128, bias=True)
          (out_projection): Linear(16.51 k, 0.868% Params, 2.36 MMac, 1.288% MACs, in_features=128, out_features=128, bias=True)
        )
        (cross_attention): AttentionLayer(
          66.05 k, 3.471% Params, 6.32 MMac, 3.453% MACs, 
          (inner_attention): ProbAttention(
            0, 0.000% Params, 0.0 Mac, 0.000% MACs, 
            (dropout): Dropout(0, 0.000% Params, 0.0 Mac, 0.000% MACs, p=0.05, inplace=False)
          )
          (query_projection): Linear(16.51 k, 0.868% Params, 2.36 MMac, 1.288% MACs, in_features=128, out_features=128, bias=True)
          (key_projection): Linear(16.51 k, 0.868% Params, 802.94 KMac, 0.438% MACs, in_features=128, out_features=128, bias=True)
          (value_projection): Linear(16.51 k, 0.868% Params, 802.94 KMac, 0.438% MACs, in_features=128, out_features=128, bias=True)
          (out_projection): Linear(16.51 k, 0.868% Params, 2.36 MMac, 1.288% MACs, in_features=128, out_features=128, bias=True)
        )
        (conv1): Conv1d(264.19 k, 13.885% Params, 38.04 MMac, 20.767% MACs, 128, 2048, kernel_size=(1,), stride=(1,))
        (conv2): Conv1d(262.27 k, 13.784% Params, 37.77 MMac, 20.616% MACs, 2048, 128, kernel_size=(1,), stride=(1,))
        (norm1): LayerNorm(0, 0.000% Params, 0.0 Mac, 0.000% MACs, (128,), eps=1e-05, elementwise_affine=True)
        (norm2): LayerNorm(0, 0.000% Params, 0.0 Mac, 0.000% MACs, (128,), eps=1e-05, elementwise_affine=True)
        (norm3): LayerNorm(0, 0.000% Params, 0.0 Mac, 0.000% MACs, (128,), eps=1e-05, elementwise_affine=True)
        (dropout): Dropout(0, 0.000% Params, 0.0 Mac, 0.000% MACs, p=0.05, inplace=False)
      )
    )
    (norm): LayerNorm(0, 0.000% Params, 0.0 Mac, 0.000% MACs, (128,), eps=1e-05, elementwise_affine=True)
    (projection): Linear(903, 0.047% Params, 129.03 KMac, 0.070% MACs, in_features=128, out_features=7, bias=True)
  )
)
Computational complexity:       183.19 MMac
Number of parameters:           1.9 M   
