…
INFO: Trainable parameter count: 12.29M
INFO: Trainable parameter count: 12.29M
INFO: Trainable parameter count: 12.29M
INFO: Trainable parameter count: 12.29M
INFO: Trainable parameter count: 12.29M
INFO: Trainable parameter count: 12.29M
INFO: Trainable parameter count: 12.29M
INFO: Trainable parameter count: 12.45M
INFO: Trainable parameter count: 12.45M
Model(
  12.44 M, 99.926% Params, 1.23 GMac, 100.000% MACs, 
  (enc_embedding): DataEmbedding(
    495.1 k, 3.976% Params, 47.53 MMac, 3.862% MACs, 
    (value_embedding): TokenEmbedding(
      493.06 k, 3.959% Params, 47.33 MMac, 3.846% MACs, 
      (tokenConv): Conv1d(493.06 k, 3.959% Params, 47.33 MMac, 3.846% MACs, 321, 512, kernel_size=(3,), stride=(1,), padding=(1,), bias=False, padding_mode=circular)
    )
    (position_embedding): PositionalEmbedding(0, 0.000% Params, 0.0 Mac, 0.000% MACs, )
    (temporal_embedding): TimeFeatureEmbedding(
      2.05 k, 0.016% Params, 196.61 KMac, 0.016% MACs, 
      (embed): Linear(2.05 k, 0.016% Params, 196.61 KMac, 0.016% MACs, in_features=4, out_features=512, bias=False)
    )
    (dropout): Dropout(0, 0.000% Params, 0.0 Mac, 0.000% MACs, p=0.05, inplace=False)
  )
  (dec_embedding): DataEmbedding(
    495.1 k, 3.976% Params, 71.29 MMac, 5.792% MACs, 
    (value_embedding): TokenEmbedding(
      493.06 k, 3.959% Params, 71.0 MMac, 5.768% MACs, 
      (tokenConv): Conv1d(493.06 k, 3.959% Params, 71.0 MMac, 5.768% MACs, 321, 512, kernel_size=(3,), stride=(1,), padding=(1,), bias=False, padding_mode=circular)
    )
    (position_embedding): PositionalEmbedding(0, 0.000% Params, 0.0 Mac, 0.000% MACs, )
    (temporal_embedding): TimeFeatureEmbedding(
      2.05 k, 0.016% Params, 294.91 KMac, 0.024% MACs, 
      (embed): Linear(2.05 k, 0.016% Params, 294.91 KMac, 0.024% MACs, in_features=4, out_features=512, bias=False)
    )
    (dropout): Dropout(0, 0.000% Params, 0.0 Mac, 0.000% MACs, p=0.05, inplace=False)
  )
  (encoder): Encoder(
    7.09 M, 56.920% Params, 533.83 MMac, 43.370% MACs, 
    (attn_layers): ModuleList(
      6.3 M, 50.593% Params, 456.51 MMac, 37.088% MACs, 
      (0): EncoderLayer(
        3.15 M, 25.296% Params, 302.24 MMac, 24.555% MACs, 
        (attention): AttentionLayer(
          1.05 M, 8.436% Params, 100.67 MMac, 8.178% MACs, 
          (inner_attention): ProbAttention(
            0, 0.000% Params, 0.0 Mac, 0.000% MACs, 
            (dropout): Dropout(0, 0.000% Params, 0.0 Mac, 0.000% MACs, p=0.05, inplace=False)
          )
          (query_projection): Linear(262.66 k, 2.109% Params, 25.17 MMac, 2.045% MACs, in_features=512, out_features=512, bias=True)
          (key_projection): Linear(262.66 k, 2.109% Params, 25.17 MMac, 2.045% MACs, in_features=512, out_features=512, bias=True)
          (value_projection): Linear(262.66 k, 2.109% Params, 25.17 MMac, 2.045% MACs, in_features=512, out_features=512, bias=True)
          (out_projection): Linear(262.66 k, 2.109% Params, 25.17 MMac, 2.045% MACs, in_features=512, out_features=512, bias=True)
        )
        (conv1): Conv1d(1.05 M, 8.436% Params, 100.86 MMac, 8.194% MACs, 512, 2048, kernel_size=(1,), stride=(1,))
        (conv2): Conv1d(1.05 M, 8.424% Params, 100.71 MMac, 8.182% MACs, 2048, 512, kernel_size=(1,), stride=(1,))
        (norm1): LayerNorm(0, 0.000% Params, 0.0 Mac, 0.000% MACs, (512,), eps=1e-05, elementwise_affine=True)
        (norm2): LayerNorm(0, 0.000% Params, 0.0 Mac, 0.000% MACs, (512,), eps=1e-05, elementwise_affine=True)
        (dropout): Dropout(0, 0.000% Params, 0.0 Mac, 0.000% MACs, p=0.05, inplace=False)
      )
      (1): EncoderLayer(
        3.15 M, 25.296% Params, 154.27 MMac, 12.533% MACs, 
        (attention): AttentionLayer(
          1.05 M, 8.436% Params, 51.38 MMac, 4.174% MACs, 
          (inner_attention): ProbAttention(
            0, 0.000% Params, 0.0 Mac, 0.000% MACs, 
            (dropout): Dropout(0, 0.000% Params, 0.0 Mac, 0.000% MACs, p=0.05, inplace=False)
          )
          (query_projection): Linear(262.66 k, 2.109% Params, 12.85 MMac, 1.044% MACs, in_features=512, out_features=512, bias=True)
          (key_projection): Linear(262.66 k, 2.109% Params, 12.85 MMac, 1.044% MACs, in_features=512, out_features=512, bias=True)
          (value_projection): Linear(262.66 k, 2.109% Params, 12.85 MMac, 1.044% MACs, in_features=512, out_features=512, bias=True)
          (out_projection): Linear(262.66 k, 2.109% Params, 12.85 MMac, 1.044% MACs, in_features=512, out_features=512, bias=True)
        )
        (conv1): Conv1d(1.05 M, 8.436% Params, 51.48 MMac, 4.182% MACs, 512, 2048, kernel_size=(1,), stride=(1,))
        (conv2): Conv1d(1.05 M, 8.424% Params, 51.41 MMac, 4.176% MACs, 2048, 512, kernel_size=(1,), stride=(1,))
        (norm1): LayerNorm(0, 0.000% Params, 0.0 Mac, 0.000% MACs, (512,), eps=1e-05, elementwise_affine=True)
        (norm2): LayerNorm(0, 0.000% Params, 0.0 Mac, 0.000% MACs, (512,), eps=1e-05, elementwise_affine=True)
        (dropout): Dropout(0, 0.000% Params, 0.0 Mac, 0.000% MACs, p=0.05, inplace=False)
      )
    )
    (conv_layers): ModuleList(
      787.97 k, 6.327% Params, 77.32 MMac, 6.282% MACs, 
      (0): ConvLayer(
        787.97 k, 6.327% Params, 77.32 MMac, 6.282% MACs, 
        (downConv): Conv1d(786.94 k, 6.319% Params, 77.12 MMac, 6.266% MACs, 512, 512, kernel_size=(3,), stride=(1,), padding=(2,), padding_mode=circular)
        (norm): BatchNorm1d(1.02 k, 0.008% Params, 100.35 KMac, 0.008% MACs, 512, eps=1e-05, momentum=0.1, affine=True, track_running_stats=True)
        (activation): ELU(0, 0.000% Params, 50.18 KMac, 0.004% MACs, alpha=1.0)
        (maxPool): MaxPool1d(0, 0.000% Params, 50.18 KMac, 0.004% MACs, kernel_size=3, stride=2, padding=1, dilation=1, ceil_mode=False)
      )
    )
    (norm): LayerNorm(0, 0.000% Params, 0.0 Mac, 0.000% MACs, (512,), eps=1e-05, elementwise_affine=True)
  )
  (decoder): Decoder(
    4.37 M, 35.055% Params, 578.21 MMac, 46.976% MACs, 
    (layers): ModuleList(
      4.2 M, 33.733% Params, 554.55 MMac, 45.053% MACs, 
      (0): DecoderLayer(
        4.2 M, 33.733% Params, 554.55 MMac, 45.053% MACs, 
        (self_attention): AttentionLayer(
          1.05 M, 8.436% Params, 151.0 MMac, 12.268% MACs, 
          (inner_attention): ProbAttention(
            0, 0.000% Params, 0.0 Mac, 0.000% MACs, 
            (dropout): Dropout(0, 0.000% Params, 0.0 Mac, 0.000% MACs, p=0.05, inplace=False)
          )
          (query_projection): Linear(262.66 k, 2.109% Params, 37.75 MMac, 3.067% MACs, in_features=512, out_features=512, bias=True)
          (key_projection): Linear(262.66 k, 2.109% Params, 37.75 MMac, 3.067% MACs, in_features=512, out_features=512, bias=True)
          (value_projection): Linear(262.66 k, 2.109% Params, 37.75 MMac, 3.067% MACs, in_features=512, out_features=512, bias=True)
          (out_projection): Linear(262.66 k, 2.109% Params, 37.75 MMac, 3.067% MACs, in_features=512, out_features=512, bias=True)
        )
        (cross_attention): AttentionLayer(
          1.05 M, 8.436% Params, 101.19 MMac, 8.221% MACs, 
          (inner_attention): ProbAttention(
            0, 0.000% Params, 0.0 Mac, 0.000% MACs, 
            (dropout): Dropout(0, 0.000% Params, 0.0 Mac, 0.000% MACs, p=0.05, inplace=False)
          )
          (query_projection): Linear(262.66 k, 2.109% Params, 37.75 MMac, 3.067% MACs, in_features=512, out_features=512, bias=True)
          (key_projection): Linear(262.66 k, 2.109% Params, 12.85 MMac, 1.044% MACs, in_features=512, out_features=512, bias=True)
          (value_projection): Linear(262.66 k, 2.109% Params, 12.85 MMac, 1.044% MACs, in_features=512, out_features=512, bias=True)
          (out_projection): Linear(262.66 k, 2.109% Params, 37.75 MMac, 3.067% MACs, in_features=512, out_features=512, bias=True)
        )
        (conv1): Conv1d(1.05 M, 8.436% Params, 151.29 MMac, 12.291% MACs, 512, 2048, kernel_size=(1,), stride=(1,))
        (conv2): Conv1d(1.05 M, 8.424% Params, 151.07 MMac, 12.273% MACs, 2048, 512, kernel_size=(1,), stride=(1,))
        (norm1): LayerNorm(0, 0.000% Params, 0.0 Mac, 0.000% MACs, (512,), eps=1e-05, elementwise_affine=True)
        (norm2): LayerNorm(0, 0.000% Params, 0.0 Mac, 0.000% MACs, (512,), eps=1e-05, elementwise_affine=True)
        (norm3): LayerNorm(0, 0.000% Params, 0.0 Mac, 0.000% MACs, (512,), eps=1e-05, elementwise_affine=True)
        (dropout): Dropout(0, 0.000% Params, 0.0 Mac, 0.000% MACs, p=0.05, inplace=False)
      )
    )
    (norm): LayerNorm(0, 0.000% Params, 0.0 Mac, 0.000% MACs, (512,), eps=1e-05, elementwise_affine=True)
    (projection): Linear(164.67 k, 1.322% Params, 23.67 MMac, 1.923% MACs, in_features=512, out_features=321, bias=True)
  )
)
Computational complexity:       1.23 GMac
Number of parameters:           12.45 M 
