…
INFO: Trainable parameter count: 4.90M
INFO: Trainable parameter count: 4.90M
INFO: Trainable parameter count: 4.90M
INFO: Trainable parameter count: 4.90M
INFO: Trainable parameter count: 4.90M
INFO: Trainable parameter count: 4.90M
INFO: Trainable parameter count: 4.90M
INFO: Trainable parameter count: 4.98M
INFO: Trainable parameter count: 4.98M
Model(
  4.98 M, 99.908% Params, 495.4 MMac, 100.000% MACs, 
  (enc_embedding): DataEmbedding(
    247.55 k, 4.966% Params, 23.76 MMac, 4.797% MACs, 
    (value_embedding): TokenEmbedding(
      246.53 k, 4.945% Params, 23.67 MMac, 4.777% MACs, 
      (tokenConv): Conv1d(246.53 k, 4.945% Params, 23.67 MMac, 4.777% MACs, 321, 256, kernel_size=(3,), stride=(1,), padding=(1,), bias=False, padding_mode=circular)
    )
    (position_embedding): PositionalEmbedding(0, 0.000% Params, 0.0 Mac, 0.000% MACs, )
    (temporal_embedding): TimeFeatureEmbedding(
      1.02 k, 0.021% Params, 98.3 KMac, 0.020% MACs, 
      (embed): Linear(1.02 k, 0.021% Params, 98.3 KMac, 0.020% MACs, in_features=4, out_features=256, bias=False)
    )
    (dropout): Dropout(0, 0.000% Params, 0.0 Mac, 0.000% MACs, p=0.05, inplace=False)
  )
  (dec_embedding): DataEmbedding(
    247.55 k, 4.966% Params, 35.65 MMac, 7.196% MACs, 
    (value_embedding): TokenEmbedding(
      246.53 k, 4.945% Params, 35.5 MMac, 7.166% MACs, 
      (tokenConv): Conv1d(246.53 k, 4.945% Params, 35.5 MMac, 7.166% MACs, 321, 256, kernel_size=(3,), stride=(1,), padding=(1,), bias=False, padding_mode=circular)
    )
    (position_embedding): PositionalEmbedding(0, 0.000% Params, 0.0 Mac, 0.000% MACs, )
    (temporal_embedding): TimeFeatureEmbedding(
      1.02 k, 0.021% Params, 147.46 KMac, 0.030% MACs, 
      (embed): Linear(1.02 k, 0.021% Params, 147.46 KMac, 0.030% MACs, in_features=4, out_features=256, bias=False)
    )
    (dropout): Dropout(0, 0.000% Params, 0.0 Mac, 0.000% MACs, p=0.05, inplace=False)
  )
  (encoder): Encoder(
    2.83 M, 56.681% Params, 209.78 MMac, 42.346% MACs, 
    (attn_layers): ModuleList(
      2.63 M, 52.721% Params, 190.39 MMac, 38.431% MACs, 
      (0): EncoderLayer(
        1.31 M, 26.361% Params, 126.05 MMac, 25.444% MACs, 
        (attention): AttentionLayer(
          263.17 k, 5.279% Params, 25.17 MMac, 5.080% MACs, 
          (inner_attention): ProbAttention(
            0, 0.000% Params, 0.0 Mac, 0.000% MACs, 
            (dropout): Dropout(0, 0.000% Params, 0.0 Mac, 0.000% MACs, p=0.05, inplace=False)
          )
          (query_projection): Linear(65.79 k, 1.320% Params, 6.29 MMac, 1.270% MACs, in_features=256, out_features=256, bias=True)
          (key_projection): Linear(65.79 k, 1.320% Params, 6.29 MMac, 1.270% MACs, in_features=256, out_features=256, bias=True)
          (value_projection): Linear(65.79 k, 1.320% Params, 6.29 MMac, 1.270% MACs, in_features=256, out_features=256, bias=True)
          (out_projection): Linear(65.79 k, 1.320% Params, 6.29 MMac, 1.270% MACs, in_features=256, out_features=256, bias=True)
        )
        (conv1): Conv1d(526.34 k, 10.559% Params, 50.53 MMac, 10.199% MACs, 256, 2048, kernel_size=(1,), stride=(1,))
        (conv2): Conv1d(524.54 k, 10.523% Params, 50.36 MMac, 10.165% MACs, 2048, 256, kernel_size=(1,), stride=(1,))
        (norm1): LayerNorm(0, 0.000% Params, 0.0 Mac, 0.000% MACs, (256,), eps=1e-05, elementwise_affine=True)
        (norm2): LayerNorm(0, 0.000% Params, 0.0 Mac, 0.000% MACs, (256,), eps=1e-05, elementwise_affine=True)
        (dropout): Dropout(0, 0.000% Params, 0.0 Mac, 0.000% MACs, p=0.05, inplace=False)
      )
      (1): EncoderLayer(
        1.31 M, 26.361% Params, 64.34 MMac, 12.987% MACs, 
        (attention): AttentionLayer(
          263.17 k, 5.279% Params, 12.85 MMac, 2.593% MACs, 
          (inner_attention): ProbAttention(
            0, 0.000% Params, 0.0 Mac, 0.000% MACs, 
            (dropout): Dropout(0, 0.000% Params, 0.0 Mac, 0.000% MACs, p=0.05, inplace=False)
          )
          (query_projection): Linear(65.79 k, 1.320% Params, 3.21 MMac, 0.648% MACs, in_features=256, out_features=256, bias=True)
          (key_projection): Linear(65.79 k, 1.320% Params, 3.21 MMac, 0.648% MACs, in_features=256, out_features=256, bias=True)
          (value_projection): Linear(65.79 k, 1.320% Params, 3.21 MMac, 0.648% MACs, in_features=256, out_features=256, bias=True)
          (out_projection): Linear(65.79 k, 1.320% Params, 3.21 MMac, 0.648% MACs, in_features=256, out_features=256, bias=True)
        )
        (conv1): Conv1d(526.34 k, 10.559% Params, 25.79 MMac, 5.206% MACs, 256, 2048, kernel_size=(1,), stride=(1,))
        (conv2): Conv1d(524.54 k, 10.523% Params, 25.7 MMac, 5.188% MACs, 2048, 256, kernel_size=(1,), stride=(1,))
        (norm1): LayerNorm(0, 0.000% Params, 0.0 Mac, 0.000% MACs, (256,), eps=1e-05, elementwise_affine=True)
        (norm2): LayerNorm(0, 0.000% Params, 0.0 Mac, 0.000% MACs, (256,), eps=1e-05, elementwise_affine=True)
        (dropout): Dropout(0, 0.000% Params, 0.0 Mac, 0.000% MACs, p=0.05, inplace=False)
      )
    )
    (conv_layers): ModuleList(
      197.38 k, 3.959% Params, 19.39 MMac, 3.915% MACs, 
      (0): ConvLayer(
        197.38 k, 3.959% Params, 19.39 MMac, 3.915% MACs, 
        (downConv): Conv1d(196.86 k, 3.949% Params, 19.29 MMac, 3.894% MACs, 256, 256, kernel_size=(3,), stride=(1,), padding=(2,), padding_mode=circular)
        (norm): BatchNorm1d(512, 0.010% Params, 50.18 KMac, 0.010% MACs, 256, eps=1e-05, momentum=0.1, affine=True, track_running_stats=True)
        (activation): ELU(0, 0.000% Params, 25.09 KMac, 0.005% MACs, alpha=1.0)
        (maxPool): MaxPool1d(0, 0.000% Params, 25.09 KMac, 0.005% MACs, kernel_size=3, stride=2, padding=1, dilation=1, ceil_mode=False)
      )
    )
    (norm): LayerNorm(0, 0.000% Params, 0.0 Mac, 0.000% MACs, (256,), eps=1e-05, elementwise_affine=True)
  )
  (decoder): Decoder(
    1.66 M, 33.295% Params, 226.21 MMac, 45.661% MACs, 
    (layers): ModuleList(
      1.58 M, 31.640% Params, 214.37 MMac, 43.273% MACs, 
      (0): DecoderLayer(
        1.58 M, 31.640% Params, 214.37 MMac, 43.273% MACs, 
        (self_attention): AttentionLayer(
          263.17 k, 5.279% Params, 37.75 MMac, 7.620% MACs, 
          (inner_attention): ProbAttention(
            0, 0.000% Params, 0.0 Mac, 0.000% MACs, 
            (dropout): Dropout(0, 0.000% Params, 0.0 Mac, 0.000% MACs, p=0.05, inplace=False)
          )
          (query_projection): Linear(65.79 k, 1.320% Params, 9.44 MMac, 1.905% MACs, in_features=256, out_features=256, bias=True)
          (key_projection): Linear(65.79 k, 1.320% Params, 9.44 MMac, 1.905% MACs, in_features=256, out_features=256, bias=True)
          (value_projection): Linear(65.79 k, 1.320% Params, 9.44 MMac, 1.905% MACs, in_features=256, out_features=256, bias=True)
          (out_projection): Linear(65.79 k, 1.320% Params, 9.44 MMac, 1.905% MACs, in_features=256, out_features=256, bias=True)
        )
        (cross_attention): AttentionLayer(
          263.17 k, 5.279% Params, 25.3 MMac, 5.107% MACs, 
          (inner_attention): ProbAttention(
            0, 0.000% Params, 0.0 Mac, 0.000% MACs, 
            (dropout): Dropout(0, 0.000% Params, 0.0 Mac, 0.000% MACs, p=0.05, inplace=False)
          )
          (query_projection): Linear(65.79 k, 1.320% Params, 9.44 MMac, 1.905% MACs, in_features=256, out_features=256, bias=True)
          (key_projection): Linear(65.79 k, 1.320% Params, 3.21 MMac, 0.648% MACs, in_features=256, out_features=256, bias=True)
          (value_projection): Linear(65.79 k, 1.320% Params, 3.21 MMac, 0.648% MACs, in_features=256, out_features=256, bias=True)
          (out_projection): Linear(65.79 k, 1.320% Params, 9.44 MMac, 1.905% MACs, in_features=256, out_features=256, bias=True)
        )
        (conv1): Conv1d(526.34 k, 10.559% Params, 75.79 MMac, 15.299% MACs, 256, 2048, kernel_size=(1,), stride=(1,))
        (conv2): Conv1d(524.54 k, 10.523% Params, 75.53 MMac, 15.247% MACs, 2048, 256, kernel_size=(1,), stride=(1,))
        (norm1): LayerNorm(0, 0.000% Params, 0.0 Mac, 0.000% MACs, (256,), eps=1e-05, elementwise_affine=True)
        (norm2): LayerNorm(0, 0.000% Params, 0.0 Mac, 0.000% MACs, (256,), eps=1e-05, elementwise_affine=True)
        (norm3): LayerNorm(0, 0.000% Params, 0.0 Mac, 0.000% MACs, (256,), eps=1e-05, elementwise_affine=True)
        (dropout): Dropout(0, 0.000% Params, 0.0 Mac, 0.000% MACs, p=0.05, inplace=False)
      )
    )
    (norm): LayerNorm(0, 0.000% Params, 0.0 Mac, 0.000% MACs, (256,), eps=1e-05, elementwise_affine=True)
    (projection): Linear(82.5 k, 1.655% Params, 11.83 MMac, 2.389% MACs, in_features=256, out_features=321, bias=True)
  )
)
Computational complexity:       495.4 MMac
Number of parameters:           4.98 M  
