…
INFO: Trainable parameter count: 2.09M
INFO: Trainable parameter count: 2.09M
INFO: Trainable parameter count: 2.09M
INFO: Trainable parameter count: 2.09M
INFO: Trainable parameter count: 2.09M
INFO: Trainable parameter count: 2.09M
INFO: Trainable parameter count: 2.09M
INFO: Trainable parameter count: 2.13M
INFO: Trainable parameter count: 2.13M
Model(
  2.13 M, 99.892% Params, 242.4 MMac, 100.000% MACs, 
  (enc_embedding): DataEmbedding(
    123.78 k, 5.798% Params, 11.88 MMac, 4.902% MACs, 
    (value_embedding): TokenEmbedding(
      123.26 k, 5.774% Params, 11.83 MMac, 4.882% MACs, 
      (tokenConv): Conv1d(123.26 k, 5.774% Params, 11.83 MMac, 4.882% MACs, 321, 128, kernel_size=(3,), stride=(1,), padding=(1,), bias=False, padding_mode=circular)
    )
    (position_embedding): PositionalEmbedding(0, 0.000% Params, 0.0 Mac, 0.000% MACs, )
    (temporal_embedding): TimeFeatureEmbedding(
      512, 0.024% Params, 49.15 KMac, 0.020% MACs, 
      (embed): Linear(512, 0.024% Params, 49.15 KMac, 0.020% MACs, in_features=4, out_features=128, bias=False)
    )
    (dropout): Dropout(0, 0.000% Params, 0.0 Mac, 0.000% MACs, p=0.05, inplace=False)
  )
  (dec_embedding): DataEmbedding(
    123.78 k, 5.798% Params, 17.82 MMac, 7.353% MACs, 
    (value_embedding): TokenEmbedding(
      123.26 k, 5.774% Params, 17.75 MMac, 7.323% MACs, 
      (tokenConv): Conv1d(123.26 k, 5.774% Params, 17.75 MMac, 7.323% MACs, 321, 128, kernel_size=(3,), stride=(1,), padding=(1,), bias=False, padding_mode=circular)
    )
    (position_embedding): PositionalEmbedding(0, 0.000% Params, 0.0 Mac, 0.000% MACs, )
    (temporal_embedding): TimeFeatureEmbedding(
      512, 0.024% Params, 73.73 KMac, 0.030% MACs, 
      (embed): Linear(512, 0.024% Params, 73.73 KMac, 0.030% MACs, in_features=4, out_features=128, bias=False)
    )
    (dropout): Dropout(0, 0.000% Params, 0.0 Mac, 0.000% MACs, p=0.05, inplace=False)
  )
  (encoder): Encoder(
    1.19 M, 55.509% Params, 113.67 MMac, 46.891% MACs, 
    (attn_layers): ModuleList(
      1.19 M, 55.509% Params, 113.67 MMac, 46.891% MACs, 
      (0): EncoderLayer(
        592.51 k, 27.754% Params, 56.83 MMac, 23.446% MACs, 
        (attention): AttentionLayer(
          66.05 k, 3.094% Params, 6.29 MMac, 2.596% MACs, 
          (inner_attention): FullAttention(
            0, 0.000% Params, 0.0 Mac, 0.000% MACs, 
            (dropout): Dropout(0, 0.000% Params, 0.0 Mac, 0.000% MACs, p=0.05, inplace=False)
          )
          (query_projection): Linear(16.51 k, 0.773% Params, 1.57 MMac, 0.649% MACs, in_features=128, out_features=128, bias=True)
          (key_projection): Linear(16.51 k, 0.773% Params, 1.57 MMac, 0.649% MACs, in_features=128, out_features=128, bias=True)
          (value_projection): Linear(16.51 k, 0.773% Params, 1.57 MMac, 0.649% MACs, in_features=128, out_features=128, bias=True)
          (out_projection): Linear(16.51 k, 0.773% Params, 1.57 MMac, 0.649% MACs, in_features=128, out_features=128, bias=True)
        )
        (conv1): Conv1d(264.19 k, 12.375% Params, 25.36 MMac, 10.463% MACs, 128, 2048, kernel_size=(1,), stride=(1,))
        (conv2): Conv1d(262.27 k, 12.285% Params, 25.18 MMac, 10.387% MACs, 2048, 128, kernel_size=(1,), stride=(1,))
        (norm1): LayerNorm(0, 0.000% Params, 0.0 Mac, 0.000% MACs, (128,), eps=1e-05, elementwise_affine=True)
        (norm2): LayerNorm(0, 0.000% Params, 0.0 Mac, 0.000% MACs, (128,), eps=1e-05, elementwise_affine=True)
        (dropout): Dropout(0, 0.000% Params, 0.0 Mac, 0.000% MACs, p=0.05, inplace=False)
      )
      (1): EncoderLayer(
        592.51 k, 27.754% Params, 56.83 MMac, 23.446% MACs, 
        (attention): AttentionLayer(
          66.05 k, 3.094% Params, 6.29 MMac, 2.596% MACs, 
          (inner_attention): FullAttention(
            0, 0.000% Params, 0.0 Mac, 0.000% MACs, 
            (dropout): Dropout(0, 0.000% Params, 0.0 Mac, 0.000% MACs, p=0.05, inplace=False)
          )
          (query_projection): Linear(16.51 k, 0.773% Params, 1.57 MMac, 0.649% MACs, in_features=128, out_features=128, bias=True)
          (key_projection): Linear(16.51 k, 0.773% Params, 1.57 MMac, 0.649% MACs, in_features=128, out_features=128, bias=True)
          (value_projection): Linear(16.51 k, 0.773% Params, 1.57 MMac, 0.649% MACs, in_features=128, out_features=128, bias=True)
          (out_projection): Linear(16.51 k, 0.773% Params, 1.57 MMac, 0.649% MACs, in_features=128, out_features=128, bias=True)
        )
        (conv1): Conv1d(264.19 k, 12.375% Params, 25.36 MMac, 10.463% MACs, 128, 2048, kernel_size=(1,), stride=(1,))
        (conv2): Conv1d(262.27 k, 12.285% Params, 25.18 MMac, 10.387% MACs, 2048, 128, kernel_size=(1,), stride=(1,))
        (norm1): LayerNorm(0, 0.000% Params, 0.0 Mac, 0.000% MACs, (128,), eps=1e-05, elementwise_affine=True)
        (norm2): LayerNorm(0, 0.000% Params, 0.0 Mac, 0.000% MACs, (128,), eps=1e-05, elementwise_affine=True)
        (dropout): Dropout(0, 0.000% Params, 0.0 Mac, 0.000% MACs, p=0.05, inplace=False)
      )
    )
    (norm): LayerNorm(0, 0.000% Params, 0.0 Mac, 0.000% MACs, (128,), eps=1e-05, elementwise_affine=True)
  )
  (decoder): Decoder(
    699.97 k, 32.788% Params, 99.03 MMac, 40.854% MACs, 
    (layers): ModuleList(
      658.56 k, 30.848% Params, 93.11 MMac, 38.413% MACs, 
      (0): DecoderLayer(
        658.56 k, 30.848% Params, 93.11 MMac, 38.413% MACs, 
        (self_attention): AttentionLayer(
          66.05 k, 3.094% Params, 9.44 MMac, 3.893% MACs, 
          (inner_attention): FullAttention(
            0, 0.000% Params, 0.0 Mac, 0.000% MACs, 
            (dropout): Dropout(0, 0.000% Params, 0.0 Mac, 0.000% MACs, p=0.05, inplace=False)
          )
          (query_projection): Linear(16.51 k, 0.773% Params, 2.36 MMac, 0.973% MACs, in_features=128, out_features=128, bias=True)
          (key_projection): Linear(16.51 k, 0.773% Params, 2.36 MMac, 0.973% MACs, in_features=128, out_features=128, bias=True)
          (value_projection): Linear(16.51 k, 0.773% Params, 2.36 MMac, 0.973% MACs, in_features=128, out_features=128, bias=True)
          (out_projection): Linear(16.51 k, 0.773% Params, 2.36 MMac, 0.973% MACs, in_features=128, out_features=128, bias=True)
        )
        (cross_attention): AttentionLayer(
          66.05 k, 3.094% Params, 7.86 MMac, 3.245% MACs, 
          (inner_attention): FullAttention(
            0, 0.000% Params, 0.0 Mac, 0.000% MACs, 
            (dropout): Dropout(0, 0.000% Params, 0.0 Mac, 0.000% MACs, p=0.05, inplace=False)
          )
          (query_projection): Linear(16.51 k, 0.773% Params, 2.36 MMac, 0.973% MACs, in_features=128, out_features=128, bias=True)
          (key_projection): Linear(16.51 k, 0.773% Params, 1.57 MMac, 0.649% MACs, in_features=128, out_features=128, bias=True)
          (value_projection): Linear(16.51 k, 0.773% Params, 1.57 MMac, 0.649% MACs, in_features=128, out_features=128, bias=True)
          (out_projection): Linear(16.51 k, 0.773% Params, 2.36 MMac, 0.973% MACs, in_features=128, out_features=128, bias=True)
        )
        (conv1): Conv1d(264.19 k, 12.375% Params, 38.04 MMac, 15.694% MACs, 128, 2048, kernel_size=(1,), stride=(1,))
        (conv2): Conv1d(262.27 k, 12.285% Params, 37.77 MMac, 15.580% MACs, 2048, 128, kernel_size=(1,), stride=(1,))
        (norm1): LayerNorm(0, 0.000% Params, 0.0 Mac, 0.000% MACs, (128,), eps=1e-05, elementwise_affine=True)
        (norm2): LayerNorm(0, 0.000% Params, 0.0 Mac, 0.000% MACs, (128,), eps=1e-05, elementwise_affine=True)
        (norm3): LayerNorm(0, 0.000% Params, 0.0 Mac, 0.000% MACs, (128,), eps=1e-05, elementwise_affine=True)
        (dropout): Dropout(0, 0.000% Params, 0.0 Mac, 0.000% MACs, p=0.05, inplace=False)
      )
    )
    (norm): LayerNorm(0, 0.000% Params, 0.0 Mac, 0.000% MACs, (128,), eps=1e-05, elementwise_affine=True)
    (projection): Linear(41.41 k, 1.940% Params, 5.92 MMac, 2.441% MACs, in_features=128, out_features=321, bias=True)
  )
)
Computational complexity:       242.4 MMac
Number of parameters:           2.13 M  
