…
INFO: Trainable parameter count: 29.45M
INFO: Trainable parameter count: 29.45M
INFO: Trainable parameter count: 29.45M
INFO: Trainable parameter count: 29.45M
INFO: Trainable parameter count: 29.45M
INFO: Trainable parameter count: 29.45M
INFO: Trainable parameter count: 29.46M
INFO: Trainable parameter count: 29.46M
INFO: Trainable parameter count: 29.46M
Model(
  29.44 M, 99.937% Params, 3.33 GMac, 100.000% MACs, 
  (enc_embedding): DataEmbedding(
    25.6 k, 0.087% Params, 2.46 MMac, 0.074% MACs, 
    (value_embedding): TokenEmbedding(
      21.5 k, 0.073% Params, 2.06 MMac, 0.062% MACs, 
      (tokenConv): Conv1d(21.5 k, 0.073% Params, 2.06 MMac, 0.062% MACs, 7, 1024, kernel_size=(3,), stride=(1,), padding=(1,), bias=False, padding_mode=circular)
    )
    (position_embedding): PositionalEmbedding(0, 0.000% Params, 0.0 Mac, 0.000% MACs, )
    (temporal_embedding): TimeFeatureEmbedding(
      4.1 k, 0.014% Params, 393.22 KMac, 0.012% MACs, 
      (embed): Linear(4.1 k, 0.014% Params, 393.22 KMac, 0.012% MACs, in_features=4, out_features=1024, bias=False)
    )
    (dropout): Dropout(0, 0.000% Params, 0.0 Mac, 0.000% MACs, p=0.05, inplace=False)
  )
  (dec_embedding): DataEmbedding(
    25.6 k, 0.087% Params, 3.69 MMac, 0.111% MACs, 
    (value_embedding): TokenEmbedding(
      21.5 k, 0.073% Params, 3.1 MMac, 0.093% MACs, 
      (tokenConv): Conv1d(21.5 k, 0.073% Params, 3.1 MMac, 0.093% MACs, 7, 1024, kernel_size=(3,), stride=(1,), padding=(1,), bias=False, padding_mode=circular)
    )
    (position_embedding): PositionalEmbedding(0, 0.000% Params, 0.0 Mac, 0.000% MACs, )
    (temporal_embedding): TimeFeatureEmbedding(
      4.1 k, 0.014% Params, 589.82 KMac, 0.018% MACs, 
      (embed): Linear(4.1 k, 0.014% Params, 589.82 KMac, 0.018% MACs, in_features=4, out_features=1024, bias=False)
    )
    (dropout): Dropout(0, 0.000% Params, 0.0 Mac, 0.000% MACs, p=0.05, inplace=False)
  )
  (encoder): Encoder(
    16.79 M, 56.993% Params, 1.61 GMac, 48.383% MACs, 
    (attn_layers): ModuleList(
      16.79 M, 56.993% Params, 1.61 GMac, 48.383% MACs, 
      (0): EncoderLayer(
        8.4 M, 28.496% Params, 805.61 MMac, 24.192% MACs, 
        (attention): AttentionLayer(
          4.2 M, 14.250% Params, 402.66 MMac, 12.091% MACs, 
          (inner_attention): FullAttention(
            0, 0.000% Params, 0.0 Mac, 0.000% MACs, 
            (dropout): Dropout(0, 0.000% Params, 0.0 Mac, 0.000% MACs, p=0.05, inplace=False)
          )
          (query_projection): Linear(1.05 M, 3.562% Params, 100.66 MMac, 3.023% MACs, in_features=1024, out_features=1024, bias=True)
          (key_projection): Linear(1.05 M, 3.562% Params, 100.66 MMac, 3.023% MACs, in_features=1024, out_features=1024, bias=True)
          (value_projection): Linear(1.05 M, 3.562% Params, 100.66 MMac, 3.023% MACs, in_features=1024, out_features=1024, bias=True)
          (out_projection): Linear(1.05 M, 3.562% Params, 100.66 MMac, 3.023% MACs, in_features=1024, out_features=1024, bias=True)
        )
        (conv1): Conv1d(2.1 M, 7.125% Params, 201.52 MMac, 6.052% MACs, 1024, 2048, kernel_size=(1,), stride=(1,))
        (conv2): Conv1d(2.1 M, 7.122% Params, 201.42 MMac, 6.049% MACs, 2048, 1024, kernel_size=(1,), stride=(1,))
        (norm1): LayerNorm(0, 0.000% Params, 0.0 Mac, 0.000% MACs, (1024,), eps=1e-05, elementwise_affine=True)
        (norm2): LayerNorm(0, 0.000% Params, 0.0 Mac, 0.000% MACs, (1024,), eps=1e-05, elementwise_affine=True)
        (dropout): Dropout(0, 0.000% Params, 0.0 Mac, 0.000% MACs, p=0.05, inplace=False)
      )
      (1): EncoderLayer(
        8.4 M, 28.496% Params, 805.61 MMac, 24.192% MACs, 
        (attention): AttentionLayer(
          4.2 M, 14.250% Params, 402.66 MMac, 12.091% MACs, 
          (inner_attention): FullAttention(
            0, 0.000% Params, 0.0 Mac, 0.000% MACs, 
            (dropout): Dropout(0, 0.000% Params, 0.0 Mac, 0.000% MACs, p=0.05, inplace=False)
          )
          (query_projection): Linear(1.05 M, 3.562% Params, 100.66 MMac, 3.023% MACs, in_features=1024, out_features=1024, bias=True)
          (key_projection): Linear(1.05 M, 3.562% Params, 100.66 MMac, 3.023% MACs, in_features=1024, out_features=1024, bias=True)
          (value_projection): Linear(1.05 M, 3.562% Params, 100.66 MMac, 3.023% MACs, in_features=1024, out_features=1024, bias=True)
          (out_projection): Linear(1.05 M, 3.562% Params, 100.66 MMac, 3.023% MACs, in_features=1024, out_features=1024, bias=True)
        )
        (conv1): Conv1d(2.1 M, 7.125% Params, 201.52 MMac, 6.052% MACs, 1024, 2048, kernel_size=(1,), stride=(1,))
        (conv2): Conv1d(2.1 M, 7.122% Params, 201.42 MMac, 6.049% MACs, 2048, 1024, kernel_size=(1,), stride=(1,))
        (norm1): LayerNorm(0, 0.000% Params, 0.0 Mac, 0.000% MACs, (1024,), eps=1e-05, elementwise_affine=True)
        (norm2): LayerNorm(0, 0.000% Params, 0.0 Mac, 0.000% MACs, (1024,), eps=1e-05, elementwise_affine=True)
        (dropout): Dropout(0, 0.000% Params, 0.0 Mac, 0.000% MACs, p=0.05, inplace=False)
      )
    )
    (norm): LayerNorm(0, 0.000% Params, 0.0 Mac, 0.000% MACs, (1024,), eps=1e-05, elementwise_affine=True)
  )
  (decoder): Decoder(
    12.6 M, 42.771% Params, 1.71 GMac, 51.432% MACs, 
    (layers): ModuleList(
      12.59 M, 42.746% Params, 1.71 GMac, 51.401% MACs, 
      (0): DecoderLayer(
        12.59 M, 42.746% Params, 1.71 GMac, 51.401% MACs, 
        (self_attention): AttentionLayer(
          4.2 M, 14.250% Params, 603.98 MMac, 18.137% MACs, 
          (inner_attention): FullAttention(
            0, 0.000% Params, 0.0 Mac, 0.000% MACs, 
            (dropout): Dropout(0, 0.000% Params, 0.0 Mac, 0.000% MACs, p=0.05, inplace=False)
          )
          (query_projection): Linear(1.05 M, 3.562% Params, 151.0 MMac, 4.534% MACs, in_features=1024, out_features=1024, bias=True)
          (key_projection): Linear(1.05 M, 3.562% Params, 151.0 MMac, 4.534% MACs, in_features=1024, out_features=1024, bias=True)
          (value_projection): Linear(1.05 M, 3.562% Params, 151.0 MMac, 4.534% MACs, in_features=1024, out_features=1024, bias=True)
          (out_projection): Linear(1.05 M, 3.562% Params, 151.0 MMac, 4.534% MACs, in_features=1024, out_features=1024, bias=True)
        )
        (cross_attention): AttentionLayer(
          4.2 M, 14.250% Params, 503.32 MMac, 15.114% MACs, 
          (inner_attention): FullAttention(
            0, 0.000% Params, 0.0 Mac, 0.000% MACs, 
            (dropout): Dropout(0, 0.000% Params, 0.0 Mac, 0.000% MACs, p=0.05, inplace=False)
          )
          (query_projection): Linear(1.05 M, 3.562% Params, 151.0 MMac, 4.534% MACs, in_features=1024, out_features=1024, bias=True)
          (key_projection): Linear(1.05 M, 3.562% Params, 100.66 MMac, 3.023% MACs, in_features=1024, out_features=1024, bias=True)
          (value_projection): Linear(1.05 M, 3.562% Params, 100.66 MMac, 3.023% MACs, in_features=1024, out_features=1024, bias=True)
          (out_projection): Linear(1.05 M, 3.562% Params, 151.0 MMac, 4.534% MACs, in_features=1024, out_features=1024, bias=True)
        )
        (conv1): Conv1d(2.1 M, 7.125% Params, 302.28 MMac, 9.077% MACs, 1024, 2048, kernel_size=(1,), stride=(1,))
        (conv2): Conv1d(2.1 M, 7.122% Params, 302.14 MMac, 9.073% MACs, 2048, 1024, kernel_size=(1,), stride=(1,))
        (norm1): LayerNorm(0, 0.000% Params, 0.0 Mac, 0.000% MACs, (1024,), eps=1e-05, elementwise_affine=True)
        (norm2): LayerNorm(0, 0.000% Params, 0.0 Mac, 0.000% MACs, (1024,), eps=1e-05, elementwise_affine=True)
        (norm3): LayerNorm(0, 0.000% Params, 0.0 Mac, 0.000% MACs, (1024,), eps=1e-05, elementwise_affine=True)
        (dropout): Dropout(0, 0.000% Params, 0.0 Mac, 0.000% MACs, p=0.05, inplace=False)
      )
    )
    (norm): LayerNorm(0, 0.000% Params, 0.0 Mac, 0.000% MACs, (1024,), eps=1e-05, elementwise_affine=True)
    (projection): Linear(7.17 k, 0.024% Params, 1.03 MMac, 0.031% MACs, in_features=1024, out_features=7, bias=True)
  )
)
Computational complexity:       3.33 GMac
Number of parameters:           29.46 M 
