…
INFO: Trainable parameter count: 1.85M
INFO: Trainable parameter count: 1.85M
INFO: Trainable parameter count: 1.85M
INFO: Trainable parameter count: 1.85M
INFO: Trainable parameter count: 1.85M
INFO: Trainable parameter count: 1.85M
INFO: Trainable parameter count: 1.85M
INFO: Trainable parameter count: 1.85M
INFO: Trainable parameter count: 1.85M
Model(
  1.85 M, 99.876% Params, 207.68 MMac, 100.000% MACs, 
  (enc_embedding): DataEmbedding(
    3.2 k, 0.173% Params, 307.2 KMac, 0.148% MACs, 
    (value_embedding): TokenEmbedding(
      2.69 k, 0.145% Params, 258.05 KMac, 0.124% MACs, 
      (tokenConv): Conv1d(2.69 k, 0.145% Params, 258.05 KMac, 0.124% MACs, 7, 128, kernel_size=(3,), stride=(1,), padding=(1,), bias=False, padding_mode=circular)
    )
    (position_embedding): PositionalEmbedding(0, 0.000% Params, 0.0 Mac, 0.000% MACs, )
    (temporal_embedding): TimeFeatureEmbedding(
      512, 0.028% Params, 49.15 KMac, 0.024% MACs, 
      (embed): Linear(512, 0.028% Params, 49.15 KMac, 0.024% MACs, in_features=4, out_features=128, bias=False)
    )
    (dropout): Dropout(0, 0.000% Params, 0.0 Mac, 0.000% MACs, p=0.05, inplace=False)
  )
  (dec_embedding): DataEmbedding(
    3.2 k, 0.173% Params, 460.8 KMac, 0.222% MACs, 
    (value_embedding): TokenEmbedding(
      2.69 k, 0.145% Params, 387.07 KMac, 0.186% MACs, 
      (tokenConv): Conv1d(2.69 k, 0.145% Params, 387.07 KMac, 0.186% MACs, 7, 128, kernel_size=(3,), stride=(1,), padding=(1,), bias=False, padding_mode=circular)
    )
    (position_embedding): PositionalEmbedding(0, 0.000% Params, 0.0 Mac, 0.000% MACs, )
    (temporal_embedding): TimeFeatureEmbedding(
      512, 0.028% Params, 73.73 KMac, 0.036% MACs, 
      (embed): Linear(512, 0.028% Params, 73.73 KMac, 0.036% MACs, in_features=4, out_features=128, bias=False)
    )
    (dropout): Dropout(0, 0.000% Params, 0.0 Mac, 0.000% MACs, p=0.05, inplace=False)
  )
  (encoder): Encoder(
    1.19 M, 63.945% Params, 113.67 MMac, 54.732% MACs, 
    (attn_layers): ModuleList(
      1.19 M, 63.945% Params, 113.67 MMac, 54.732% MACs, 
      (0): EncoderLayer(
        592.51 k, 31.973% Params, 56.83 MMac, 27.366% MACs, 
        (attention): AttentionLayer(
          66.05 k, 3.564% Params, 6.29 MMac, 3.030% MACs, 
          (inner_attention): FullAttention(
            0, 0.000% Params, 0.0 Mac, 0.000% MACs, 
            (dropout): Dropout(0, 0.000% Params, 0.0 Mac, 0.000% MACs, p=0.05, inplace=False)
          )
          (query_projection): Linear(16.51 k, 0.891% Params, 1.57 MMac, 0.757% MACs, in_features=128, out_features=128, bias=True)
          (key_projection): Linear(16.51 k, 0.891% Params, 1.57 MMac, 0.757% MACs, in_features=128, out_features=128, bias=True)
          (value_projection): Linear(16.51 k, 0.891% Params, 1.57 MMac, 0.757% MACs, in_features=128, out_features=128, bias=True)
          (out_projection): Linear(16.51 k, 0.891% Params, 1.57 MMac, 0.757% MACs, in_features=128, out_features=128, bias=True)
        )
        (conv1): Conv1d(264.19 k, 14.256% Params, 25.36 MMac, 12.213% MACs, 128, 2048, kernel_size=(1,), stride=(1,))
        (conv2): Conv1d(262.27 k, 14.152% Params, 25.18 MMac, 12.124% MACs, 2048, 128, kernel_size=(1,), stride=(1,))
        (norm1): LayerNorm(0, 0.000% Params, 0.0 Mac, 0.000% MACs, (128,), eps=1e-05, elementwise_affine=True)
        (norm2): LayerNorm(0, 0.000% Params, 0.0 Mac, 0.000% MACs, (128,), eps=1e-05, elementwise_affine=True)
        (dropout): Dropout(0, 0.000% Params, 0.0 Mac, 0.000% MACs, p=0.05, inplace=False)
      )
      (1): EncoderLayer(
        592.51 k, 31.973% Params, 56.83 MMac, 27.366% MACs, 
        (attention): AttentionLayer(
          66.05 k, 3.564% Params, 6.29 MMac, 3.030% MACs, 
          (inner_attention): FullAttention(
            0, 0.000% Params, 0.0 Mac, 0.000% MACs, 
            (dropout): Dropout(0, 0.000% Params, 0.0 Mac, 0.000% MACs, p=0.05, inplace=False)
          )
          (query_projection): Linear(16.51 k, 0.891% Params, 1.57 MMac, 0.757% MACs, in_features=128, out_features=128, bias=True)
          (key_projection): Linear(16.51 k, 0.891% Params, 1.57 MMac, 0.757% MACs, in_features=128, out_features=128, bias=True)
          (value_projection): Linear(16.51 k, 0.891% Params, 1.57 MMac, 0.757% MACs, in_features=128, out_features=128, bias=True)
          (out_projection): Linear(16.51 k, 0.891% Params, 1.57 MMac, 0.757% MACs, in_features=128, out_features=128, bias=True)
        )
        (conv1): Conv1d(264.19 k, 14.256% Params, 25.36 MMac, 12.213% MACs, 128, 2048, kernel_size=(1,), stride=(1,))
        (conv2): Conv1d(262.27 k, 14.152% Params, 25.18 MMac, 12.124% MACs, 2048, 128, kernel_size=(1,), stride=(1,))
        (norm1): LayerNorm(0, 0.000% Params, 0.0 Mac, 0.000% MACs, (128,), eps=1e-05, elementwise_affine=True)
        (norm2): LayerNorm(0, 0.000% Params, 0.0 Mac, 0.000% MACs, (128,), eps=1e-05, elementwise_affine=True)
        (dropout): Dropout(0, 0.000% Params, 0.0 Mac, 0.000% MACs, p=0.05, inplace=False)
      )
    )
    (norm): LayerNorm(0, 0.000% Params, 0.0 Mac, 0.000% MACs, (128,), eps=1e-05, elementwise_affine=True)
  )
  (decoder): Decoder(
    659.46 k, 35.585% Params, 93.24 MMac, 44.898% MACs, 
    (layers): ModuleList(
      658.56 k, 35.537% Params, 93.11 MMac, 44.836% MACs, 
      (0): DecoderLayer(
        658.56 k, 35.537% Params, 93.11 MMac, 44.836% MACs, 
        (self_attention): AttentionLayer(
          66.05 k, 3.564% Params, 9.44 MMac, 4.544% MACs, 
          (inner_attention): FullAttention(
            0, 0.000% Params, 0.0 Mac, 0.000% MACs, 
            (dropout): Dropout(0, 0.000% Params, 0.0 Mac, 0.000% MACs, p=0.05, inplace=False)
          )
          (query_projection): Linear(16.51 k, 0.891% Params, 2.36 MMac, 1.136% MACs, in_features=128, out_features=128, bias=True)
          (key_projection): Linear(16.51 k, 0.891% Params, 2.36 MMac, 1.136% MACs, in_features=128, out_features=128, bias=True)
          (value_projection): Linear(16.51 k, 0.891% Params, 2.36 MMac, 1.136% MACs, in_features=128, out_features=128, bias=True)
          (out_projection): Linear(16.51 k, 0.891% Params, 2.36 MMac, 1.136% MACs, in_features=128, out_features=128, bias=True)
        )
        (cross_attention): AttentionLayer(
          66.05 k, 3.564% Params, 7.86 MMac, 3.787% MACs, 
          (inner_attention): FullAttention(
            0, 0.000% Params, 0.0 Mac, 0.000% MACs, 
            (dropout): Dropout(0, 0.000% Params, 0.0 Mac, 0.000% MACs, p=0.05, inplace=False)
          )
          (query_projection): Linear(16.51 k, 0.891% Params, 2.36 MMac, 1.136% MACs, in_features=128, out_features=128, bias=True)
          (key_projection): Linear(16.51 k, 0.891% Params, 1.57 MMac, 0.757% MACs, in_features=128, out_features=128, bias=True)
          (value_projection): Linear(16.51 k, 0.891% Params, 1.57 MMac, 0.757% MACs, in_features=128, out_features=128, bias=True)
          (out_projection): Linear(16.51 k, 0.891% Params, 2.36 MMac, 1.136% MACs, in_features=128, out_features=128, bias=True)
        )
        (conv1): Conv1d(264.19 k, 14.256% Params, 38.04 MMac, 18.319% MACs, 128, 2048, kernel_size=(1,), stride=(1,))
        (conv2): Conv1d(262.27 k, 14.152% Params, 37.77 MMac, 18.186% MACs, 2048, 128, kernel_size=(1,), stride=(1,))
        (norm1): LayerNorm(0, 0.000% Params, 0.0 Mac, 0.000% MACs, (128,), eps=1e-05, elementwise_affine=True)
        (norm2): LayerNorm(0, 0.000% Params, 0.0 Mac, 0.000% MACs, (128,), eps=1e-05, elementwise_affine=True)
        (norm3): LayerNorm(0, 0.000% Params, 0.0 Mac, 0.000% MACs, (128,), eps=1e-05, elementwise_affine=True)
        (dropout): Dropout(0, 0.000% Params, 0.0 Mac, 0.000% MACs, p=0.05, inplace=False)
      )
    )
    (norm): LayerNorm(0, 0.000% Params, 0.0 Mac, 0.000% MACs, (128,), eps=1e-05, elementwise_affine=True)
    (projection): Linear(903, 0.049% Params, 129.03 KMac, 0.062% MACs, in_features=128, out_features=7, bias=True)
  )
)
Computational complexity:       207.68 MMac
Number of parameters:           1.85 M  
