…
INFO: Trainable parameter count: 31.38M
INFO: Trainable parameter count: 31.38M
INFO: Trainable parameter count: 31.38M
INFO: Trainable parameter count: 31.38M
INFO: Trainable parameter count: 31.38M
INFO: Trainable parameter count: 31.38M
INFO: Trainable parameter count: 31.38M
INFO: Trainable parameter count: 31.71M
INFO: Trainable parameter count: 31.71M
Model(
  31.7 M, 99.942% Params, 3.61 GMac, 100.000% MACs, 
  (enc_embedding): DataEmbedding(
    990.21 k, 3.122% Params, 95.06 MMac, 2.635% MACs, 
    (value_embedding): TokenEmbedding(
      986.11 k, 3.109% Params, 94.67 MMac, 2.624% MACs, 
      (tokenConv): Conv1d(986.11 k, 3.109% Params, 94.67 MMac, 2.624% MACs, 321, 1024, kernel_size=(3,), stride=(1,), padding=(1,), bias=False, padding_mode=circular)
    )
    (position_embedding): PositionalEmbedding(0, 0.000% Params, 0.0 Mac, 0.000% MACs, )
    (temporal_embedding): TimeFeatureEmbedding(
      4.1 k, 0.013% Params, 393.22 KMac, 0.011% MACs, 
      (embed): Linear(4.1 k, 0.013% Params, 393.22 KMac, 0.011% MACs, in_features=4, out_features=1024, bias=False)
    )
    (dropout): Dropout(0, 0.000% Params, 0.0 Mac, 0.000% MACs, p=0.05, inplace=False)
  )
  (dec_embedding): DataEmbedding(
    990.21 k, 3.122% Params, 142.59 MMac, 3.952% MACs, 
    (value_embedding): TokenEmbedding(
      986.11 k, 3.109% Params, 142.0 MMac, 3.936% MACs, 
      (tokenConv): Conv1d(986.11 k, 3.109% Params, 142.0 MMac, 3.936% MACs, 321, 1024, kernel_size=(3,), stride=(1,), padding=(1,), bias=False, padding_mode=circular)
    )
    (position_embedding): PositionalEmbedding(0, 0.000% Params, 0.0 Mac, 0.000% MACs, )
    (temporal_embedding): TimeFeatureEmbedding(
      4.1 k, 0.013% Params, 589.82 KMac, 0.016% MACs, 
      (embed): Linear(4.1 k, 0.013% Params, 589.82 KMac, 0.016% MACs, in_features=4, out_features=1024, bias=False)
    )
    (dropout): Dropout(0, 0.000% Params, 0.0 Mac, 0.000% MACs, p=0.05, inplace=False)
  )
  (encoder): Encoder(
    16.79 M, 52.947% Params, 1.61 GMac, 44.658% MACs, 
    (attn_layers): ModuleList(
      16.79 M, 52.947% Params, 1.61 GMac, 44.658% MACs, 
      (0): EncoderLayer(
        8.4 M, 26.474% Params, 805.61 MMac, 22.329% MACs, 
        (attention): AttentionLayer(
          4.2 M, 13.238% Params, 402.66 MMac, 11.160% MACs, 
          (inner_attention): FullAttention(
            0, 0.000% Params, 0.0 Mac, 0.000% MACs, 
            (dropout): Dropout(0, 0.000% Params, 0.0 Mac, 0.000% MACs, p=0.05, inplace=False)
          )
          (query_projection): Linear(1.05 M, 3.310% Params, 100.66 MMac, 2.790% MACs, in_features=1024, out_features=1024, bias=True)
          (key_projection): Linear(1.05 M, 3.310% Params, 100.66 MMac, 2.790% MACs, in_features=1024, out_features=1024, bias=True)
          (value_projection): Linear(1.05 M, 3.310% Params, 100.66 MMac, 2.790% MACs, in_features=1024, out_features=1024, bias=True)
          (out_projection): Linear(1.05 M, 3.310% Params, 100.66 MMac, 2.790% MACs, in_features=1024, out_features=1024, bias=True)
        )
        (conv1): Conv1d(2.1 M, 6.619% Params, 201.52 MMac, 5.586% MACs, 1024, 2048, kernel_size=(1,), stride=(1,))
        (conv2): Conv1d(2.1 M, 6.616% Params, 201.42 MMac, 5.583% MACs, 2048, 1024, kernel_size=(1,), stride=(1,))
        (norm1): LayerNorm(0, 0.000% Params, 0.0 Mac, 0.000% MACs, (1024,), eps=1e-05, elementwise_affine=True)
        (norm2): LayerNorm(0, 0.000% Params, 0.0 Mac, 0.000% MACs, (1024,), eps=1e-05, elementwise_affine=True)
        (dropout): Dropout(0, 0.000% Params, 0.0 Mac, 0.000% MACs, p=0.05, inplace=False)
      )
      (1): EncoderLayer(
        8.4 M, 26.474% Params, 805.61 MMac, 22.329% MACs, 
        (attention): AttentionLayer(
          4.2 M, 13.238% Params, 402.66 MMac, 11.160% MACs, 
          (inner_attention): FullAttention(
            0, 0.000% Params, 0.0 Mac, 0.000% MACs, 
            (dropout): Dropout(0, 0.000% Params, 0.0 Mac, 0.000% MACs, p=0.05, inplace=False)
          )
          (query_projection): Linear(1.05 M, 3.310% Params, 100.66 MMac, 2.790% MACs, in_features=1024, out_features=1024, bias=True)
          (key_projection): Linear(1.05 M, 3.310% Params, 100.66 MMac, 2.790% MACs, in_features=1024, out_features=1024, bias=True)
          (value_projection): Linear(1.05 M, 3.310% Params, 100.66 MMac, 2.790% MACs, in_features=1024, out_features=1024, bias=True)
          (out_projection): Linear(1.05 M, 3.310% Params, 100.66 MMac, 2.790% MACs, in_features=1024, out_features=1024, bias=True)
        )
        (conv1): Conv1d(2.1 M, 6.619% Params, 201.52 MMac, 5.586% MACs, 1024, 2048, kernel_size=(1,), stride=(1,))
        (conv2): Conv1d(2.1 M, 6.616% Params, 201.42 MMac, 5.583% MACs, 2048, 1024, kernel_size=(1,), stride=(1,))
        (norm1): LayerNorm(0, 0.000% Params, 0.0 Mac, 0.000% MACs, (1024,), eps=1e-05, elementwise_affine=True)
        (norm2): LayerNorm(0, 0.000% Params, 0.0 Mac, 0.000% MACs, (1024,), eps=1e-05, elementwise_affine=True)
        (dropout): Dropout(0, 0.000% Params, 0.0 Mac, 0.000% MACs, p=0.05, inplace=False)
      )
    )
    (norm): LayerNorm(0, 0.000% Params, 0.0 Mac, 0.000% MACs, (1024,), eps=1e-05, elementwise_affine=True)
  )
  (decoder): Decoder(
    12.92 M, 40.750% Params, 1.76 GMac, 48.756% MACs, 
    (layers): ModuleList(
      12.59 M, 39.712% Params, 1.71 GMac, 47.444% MACs, 
      (0): DecoderLayer(
        12.59 M, 39.712% Params, 1.71 GMac, 47.444% MACs, 
        (self_attention): AttentionLayer(
          4.2 M, 13.238% Params, 603.98 MMac, 16.740% MACs, 
          (inner_attention): FullAttention(
            0, 0.000% Params, 0.0 Mac, 0.000% MACs, 
            (dropout): Dropout(0, 0.000% Params, 0.0 Mac, 0.000% MACs, p=0.05, inplace=False)
          )
          (query_projection): Linear(1.05 M, 3.310% Params, 151.0 MMac, 4.185% MACs, in_features=1024, out_features=1024, bias=True)
          (key_projection): Linear(1.05 M, 3.310% Params, 151.0 MMac, 4.185% MACs, in_features=1024, out_features=1024, bias=True)
          (value_projection): Linear(1.05 M, 3.310% Params, 151.0 MMac, 4.185% MACs, in_features=1024, out_features=1024, bias=True)
          (out_projection): Linear(1.05 M, 3.310% Params, 151.0 MMac, 4.185% MACs, in_features=1024, out_features=1024, bias=True)
        )
        (cross_attention): AttentionLayer(
          4.2 M, 13.238% Params, 503.32 MMac, 13.950% MACs, 
          (inner_attention): FullAttention(
            0, 0.000% Params, 0.0 Mac, 0.000% MACs, 
            (dropout): Dropout(0, 0.000% Params, 0.0 Mac, 0.000% MACs, p=0.05, inplace=False)
          )
          (query_projection): Linear(1.05 M, 3.310% Params, 151.0 MMac, 4.185% MACs, in_features=1024, out_features=1024, bias=True)
          (key_projection): Linear(1.05 M, 3.310% Params, 100.66 MMac, 2.790% MACs, in_features=1024, out_features=1024, bias=True)
          (value_projection): Linear(1.05 M, 3.310% Params, 100.66 MMac, 2.790% MACs, in_features=1024, out_features=1024, bias=True)
          (out_projection): Linear(1.05 M, 3.310% Params, 151.0 MMac, 4.185% MACs, in_features=1024, out_features=1024, bias=True)
        )
        (conv1): Conv1d(2.1 M, 6.619% Params, 302.28 MMac, 8.378% MACs, 1024, 2048, kernel_size=(1,), stride=(1,))
        (conv2): Conv1d(2.1 M, 6.616% Params, 302.14 MMac, 8.374% MACs, 2048, 1024, kernel_size=(1,), stride=(1,))
        (norm1): LayerNorm(0, 0.000% Params, 0.0 Mac, 0.000% MACs, (1024,), eps=1e-05, elementwise_affine=True)
        (norm2): LayerNorm(0, 0.000% Params, 0.0 Mac, 0.000% MACs, (1024,), eps=1e-05, elementwise_affine=True)
        (norm3): LayerNorm(0, 0.000% Params, 0.0 Mac, 0.000% MACs, (1024,), eps=1e-05, elementwise_affine=True)
        (dropout): Dropout(0, 0.000% Params, 0.0 Mac, 0.000% MACs, p=0.05, inplace=False)
      )
    )
    (norm): LayerNorm(0, 0.000% Params, 0.0 Mac, 0.000% MACs, (1024,), eps=1e-05, elementwise_affine=True)
    (projection): Linear(329.02 k, 1.037% Params, 47.33 MMac, 1.312% MACs, in_features=1024, out_features=321, bias=True)
  )
)
Computational complexity:       3.61 GMac
Number of parameters:           31.71 M 
