…
INFO: Trainable parameter count: 4.22M
INFO: Trainable parameter count: 4.22M
INFO: Trainable parameter count: 4.22M
INFO: Trainable parameter count: 4.22M
INFO: Trainable parameter count: 4.22M
INFO: Trainable parameter count: 4.22M
INFO: Trainable parameter count: 4.22M
INFO: Trainable parameter count: 4.22M
INFO: Trainable parameter count: 4.22M
Model(
  4.22 M, 99.891% Params, 474.43 MMac, 100.000% MACs, 
  (enc_embedding): DataEmbedding(
    6.4 k, 0.151% Params, 614.4 KMac, 0.130% MACs, 
    (value_embedding): TokenEmbedding(
      5.38 k, 0.127% Params, 516.1 KMac, 0.109% MACs, 
      (tokenConv): Conv1d(5.38 k, 0.127% Params, 516.1 KMac, 0.109% MACs, 7, 256, kernel_size=(3,), stride=(1,), padding=(1,), bias=False, padding_mode=circular)
    )
    (position_embedding): PositionalEmbedding(0, 0.000% Params, 0.0 Mac, 0.000% MACs, )
    (temporal_embedding): TimeFeatureEmbedding(
      1.02 k, 0.024% Params, 98.3 KMac, 0.021% MACs, 
      (embed): Linear(1.02 k, 0.024% Params, 98.3 KMac, 0.021% MACs, in_features=4, out_features=256, bias=False)
    )
    (dropout): Dropout(0, 0.000% Params, 0.0 Mac, 0.000% MACs, p=0.05, inplace=False)
  )
  (dec_embedding): DataEmbedding(
    6.4 k, 0.151% Params, 921.6 KMac, 0.194% MACs, 
    (value_embedding): TokenEmbedding(
      5.38 k, 0.127% Params, 774.14 KMac, 0.163% MACs, 
      (tokenConv): Conv1d(5.38 k, 0.127% Params, 774.14 KMac, 0.163% MACs, 7, 256, kernel_size=(3,), stride=(1,), padding=(1,), bias=False, padding_mode=circular)
    )
    (position_embedding): PositionalEmbedding(0, 0.000% Params, 0.0 Mac, 0.000% MACs, )
    (temporal_embedding): TimeFeatureEmbedding(
      1.02 k, 0.024% Params, 147.46 KMac, 0.031% MACs, 
      (embed): Linear(1.02 k, 0.024% Params, 147.46 KMac, 0.031% MACs, in_features=4, out_features=256, bias=False)
    )
    (dropout): Dropout(0, 0.000% Params, 0.0 Mac, 0.000% MACs, p=0.05, inplace=False)
  )
  (encoder): Encoder(
    2.63 M, 62.211% Params, 252.1 MMac, 53.138% MACs, 
    (attn_layers): ModuleList(
      2.63 M, 62.211% Params, 252.1 MMac, 53.138% MACs, 
      (0): EncoderLayer(
        1.31 M, 31.105% Params, 126.05 MMac, 26.569% MACs, 
        (attention): AttentionLayer(
          263.17 k, 6.230% Params, 25.17 MMac, 5.305% MACs, 
          (inner_attention): FullAttention(
            0, 0.000% Params, 0.0 Mac, 0.000% MACs, 
            (dropout): Dropout(0, 0.000% Params, 0.0 Mac, 0.000% MACs, p=0.05, inplace=False)
          )
          (query_projection): Linear(65.79 k, 1.557% Params, 6.29 MMac, 1.326% MACs, in_features=256, out_features=256, bias=True)
          (key_projection): Linear(65.79 k, 1.557% Params, 6.29 MMac, 1.326% MACs, in_features=256, out_features=256, bias=True)
          (value_projection): Linear(65.79 k, 1.557% Params, 6.29 MMac, 1.326% MACs, in_features=256, out_features=256, bias=True)
          (out_projection): Linear(65.79 k, 1.557% Params, 6.29 MMac, 1.326% MACs, in_features=256, out_features=256, bias=True)
        )
        (conv1): Conv1d(526.34 k, 12.459% Params, 50.53 MMac, 10.650% MACs, 256, 2048, kernel_size=(1,), stride=(1,))
        (conv2): Conv1d(524.54 k, 12.417% Params, 50.36 MMac, 10.614% MACs, 2048, 256, kernel_size=(1,), stride=(1,))
        (norm1): LayerNorm(0, 0.000% Params, 0.0 Mac, 0.000% MACs, (256,), eps=1e-05, elementwise_affine=True)
        (norm2): LayerNorm(0, 0.000% Params, 0.0 Mac, 0.000% MACs, (256,), eps=1e-05, elementwise_affine=True)
        (dropout): Dropout(0, 0.000% Params, 0.0 Mac, 0.000% MACs, p=0.05, inplace=False)
      )
      (1): EncoderLayer(
        1.31 M, 31.105% Params, 126.05 MMac, 26.569% MACs, 
        (attention): AttentionLayer(
          263.17 k, 6.230% Params, 25.17 MMac, 5.305% MACs, 
          (inner_attention): FullAttention(
            0, 0.000% Params, 0.0 Mac, 0.000% MACs, 
            (dropout): Dropout(0, 0.000% Params, 0.0 Mac, 0.000% MACs, p=0.05, inplace=False)
          )
          (query_projection): Linear(65.79 k, 1.557% Params, 6.29 MMac, 1.326% MACs, in_features=256, out_features=256, bias=True)
          (key_projection): Linear(65.79 k, 1.557% Params, 6.29 MMac, 1.326% MACs, in_features=256, out_features=256, bias=True)
          (value_projection): Linear(65.79 k, 1.557% Params, 6.29 MMac, 1.326% MACs, in_features=256, out_features=256, bias=True)
          (out_projection): Linear(65.79 k, 1.557% Params, 6.29 MMac, 1.326% MACs, in_features=256, out_features=256, bias=True)
        )
        (conv1): Conv1d(526.34 k, 12.459% Params, 50.53 MMac, 10.650% MACs, 256, 2048, kernel_size=(1,), stride=(1,))
        (conv2): Conv1d(524.54 k, 12.417% Params, 50.36 MMac, 10.614% MACs, 2048, 256, kernel_size=(1,), stride=(1,))
        (norm1): LayerNorm(0, 0.000% Params, 0.0 Mac, 0.000% MACs, (256,), eps=1e-05, elementwise_affine=True)
        (norm2): LayerNorm(0, 0.000% Params, 0.0 Mac, 0.000% MACs, (256,), eps=1e-05, elementwise_affine=True)
        (dropout): Dropout(0, 0.000% Params, 0.0 Mac, 0.000% MACs, p=0.05, inplace=False)
      )
    )
    (norm): LayerNorm(0, 0.000% Params, 0.0 Mac, 0.000% MACs, (256,), eps=1e-05, elementwise_affine=True)
  )
  (decoder): Decoder(
    1.58 M, 37.377% Params, 220.79 MMac, 46.538% MACs, 
    (layers): ModuleList(
      1.58 M, 37.335% Params, 220.53 MMac, 46.484% MACs, 
      (0): DecoderLayer(
        1.58 M, 37.335% Params, 220.53 MMac, 46.484% MACs, 
        (self_attention): AttentionLayer(
          263.17 k, 6.230% Params, 37.75 MMac, 7.957% MACs, 
          (inner_attention): FullAttention(
            0, 0.000% Params, 0.0 Mac, 0.000% MACs, 
            (dropout): Dropout(0, 0.000% Params, 0.0 Mac, 0.000% MACs, p=0.05, inplace=False)
          )
          (query_projection): Linear(65.79 k, 1.557% Params, 9.44 MMac, 1.989% MACs, in_features=256, out_features=256, bias=True)
          (key_projection): Linear(65.79 k, 1.557% Params, 9.44 MMac, 1.989% MACs, in_features=256, out_features=256, bias=True)
          (value_projection): Linear(65.79 k, 1.557% Params, 9.44 MMac, 1.989% MACs, in_features=256, out_features=256, bias=True)
          (out_projection): Linear(65.79 k, 1.557% Params, 9.44 MMac, 1.989% MACs, in_features=256, out_features=256, bias=True)
        )
        (cross_attention): AttentionLayer(
          263.17 k, 6.230% Params, 31.46 MMac, 6.631% MACs, 
          (inner_attention): FullAttention(
            0, 0.000% Params, 0.0 Mac, 0.000% MACs, 
            (dropout): Dropout(0, 0.000% Params, 0.0 Mac, 0.000% MACs, p=0.05, inplace=False)
          )
          (query_projection): Linear(65.79 k, 1.557% Params, 9.44 MMac, 1.989% MACs, in_features=256, out_features=256, bias=True)
          (key_projection): Linear(65.79 k, 1.557% Params, 6.29 MMac, 1.326% MACs, in_features=256, out_features=256, bias=True)
          (value_projection): Linear(65.79 k, 1.557% Params, 6.29 MMac, 1.326% MACs, in_features=256, out_features=256, bias=True)
          (out_projection): Linear(65.79 k, 1.557% Params, 9.44 MMac, 1.989% MACs, in_features=256, out_features=256, bias=True)
        )
        (conv1): Conv1d(526.34 k, 12.459% Params, 75.79 MMac, 15.975% MACs, 256, 2048, kernel_size=(1,), stride=(1,))
        (conv2): Conv1d(524.54 k, 12.417% Params, 75.53 MMac, 15.921% MACs, 2048, 256, kernel_size=(1,), stride=(1,))
        (norm1): LayerNorm(0, 0.000% Params, 0.0 Mac, 0.000% MACs, (256,), eps=1e-05, elementwise_affine=True)
        (norm2): LayerNorm(0, 0.000% Params, 0.0 Mac, 0.000% MACs, (256,), eps=1e-05, elementwise_affine=True)
        (norm3): LayerNorm(0, 0.000% Params, 0.0 Mac, 0.000% MACs, (256,), eps=1e-05, elementwise_affine=True)
        (dropout): Dropout(0, 0.000% Params, 0.0 Mac, 0.000% MACs, p=0.05, inplace=False)
      )
    )
    (norm): LayerNorm(0, 0.000% Params, 0.0 Mac, 0.000% MACs, (256,), eps=1e-05, elementwise_affine=True)
    (projection): Linear(1.8 k, 0.043% Params, 258.06 KMac, 0.054% MACs, in_features=256, out_features=7, bias=True)
  )
)
Computational complexity:       474.43 MMac
Number of parameters:           4.22 M  
