…
INFO: Trainable parameter count: 4.70M
INFO: Trainable parameter count: 4.70M
INFO: Trainable parameter count: 4.70M
INFO: Trainable parameter count: 4.70M
INFO: Trainable parameter count: 4.70M
INFO: Trainable parameter count: 4.70M
INFO: Trainable parameter count: 4.71M
INFO: Trainable parameter count: 4.79M
INFO: Trainable parameter count: 4.79M
Model(
  4.78 M, 99.904% Params, 543.88 MMac, 100.000% MACs, 
  (enc_embedding): DataEmbedding(
    247.55 k, 5.171% Params, 23.76 MMac, 4.369% MACs, 
    (value_embedding): TokenEmbedding(
      246.53 k, 5.149% Params, 23.67 MMac, 4.351% MACs, 
      (tokenConv): Conv1d(246.53 k, 5.149% Params, 23.67 MMac, 4.351% MACs, 321, 256, kernel_size=(3,), stride=(1,), padding=(1,), bias=False, padding_mode=circular)
    )
    (position_embedding): PositionalEmbedding(0, 0.000% Params, 0.0 Mac, 0.000% MACs, )
    (temporal_embedding): TimeFeatureEmbedding(
      1.02 k, 0.021% Params, 98.3 KMac, 0.018% MACs, 
      (embed): Linear(1.02 k, 0.021% Params, 98.3 KMac, 0.018% MACs, in_features=4, out_features=256, bias=False)
    )
    (dropout): Dropout(0, 0.000% Params, 0.0 Mac, 0.000% MACs, p=0.05, inplace=False)
  )
  (dec_embedding): DataEmbedding(
    247.55 k, 5.171% Params, 35.65 MMac, 6.554% MACs, 
    (value_embedding): TokenEmbedding(
      246.53 k, 5.149% Params, 35.5 MMac, 6.527% MACs, 
      (tokenConv): Conv1d(246.53 k, 5.149% Params, 35.5 MMac, 6.527% MACs, 321, 256, kernel_size=(3,), stride=(1,), padding=(1,), bias=False, padding_mode=circular)
    )
    (position_embedding): PositionalEmbedding(0, 0.000% Params, 0.0 Mac, 0.000% MACs, )
    (temporal_embedding): TimeFeatureEmbedding(
      1.02 k, 0.021% Params, 147.46 KMac, 0.027% MACs, 
      (embed): Linear(1.02 k, 0.021% Params, 147.46 KMac, 0.027% MACs, in_features=4, out_features=256, bias=False)
    )
    (dropout): Dropout(0, 0.000% Params, 0.0 Mac, 0.000% MACs, p=0.05, inplace=False)
  )
  (encoder): Encoder(
    2.63 M, 54.895% Params, 252.1 MMac, 46.352% MACs, 
    (attn_layers): ModuleList(
      2.63 M, 54.895% Params, 252.1 MMac, 46.352% MACs, 
      (0): EncoderLayer(
        1.31 M, 27.447% Params, 126.05 MMac, 23.176% MACs, 
        (attention): AttentionLayer(
          263.17 k, 5.497% Params, 25.17 MMac, 4.627% MACs, 
          (inner_attention): FullAttention(
            0, 0.000% Params, 0.0 Mac, 0.000% MACs, 
            (dropout): Dropout(0, 0.000% Params, 0.0 Mac, 0.000% MACs, p=0.05, inplace=False)
          )
          (query_projection): Linear(65.79 k, 1.374% Params, 6.29 MMac, 1.157% MACs, in_features=256, out_features=256, bias=True)
          (key_projection): Linear(65.79 k, 1.374% Params, 6.29 MMac, 1.157% MACs, in_features=256, out_features=256, bias=True)
          (value_projection): Linear(65.79 k, 1.374% Params, 6.29 MMac, 1.157% MACs, in_features=256, out_features=256, bias=True)
          (out_projection): Linear(65.79 k, 1.374% Params, 6.29 MMac, 1.157% MACs, in_features=256, out_features=256, bias=True)
        )
        (conv1): Conv1d(526.34 k, 10.994% Params, 50.53 MMac, 9.290% MACs, 256, 2048, kernel_size=(1,), stride=(1,))
        (conv2): Conv1d(524.54 k, 10.956% Params, 50.36 MMac, 9.259% MACs, 2048, 256, kernel_size=(1,), stride=(1,))
        (norm1): LayerNorm(0, 0.000% Params, 0.0 Mac, 0.000% MACs, (256,), eps=1e-05, elementwise_affine=True)
        (norm2): LayerNorm(0, 0.000% Params, 0.0 Mac, 0.000% MACs, (256,), eps=1e-05, elementwise_affine=True)
        (dropout): Dropout(0, 0.000% Params, 0.0 Mac, 0.000% MACs, p=0.05, inplace=False)
      )
      (1): EncoderLayer(
        1.31 M, 27.447% Params, 126.05 MMac, 23.176% MACs, 
        (attention): AttentionLayer(
          263.17 k, 5.497% Params, 25.17 MMac, 4.627% MACs, 
          (inner_attention): FullAttention(
            0, 0.000% Params, 0.0 Mac, 0.000% MACs, 
            (dropout): Dropout(0, 0.000% Params, 0.0 Mac, 0.000% MACs, p=0.05, inplace=False)
          )
          (query_projection): Linear(65.79 k, 1.374% Params, 6.29 MMac, 1.157% MACs, in_features=256, out_features=256, bias=True)
          (key_projection): Linear(65.79 k, 1.374% Params, 6.29 MMac, 1.157% MACs, in_features=256, out_features=256, bias=True)
          (value_projection): Linear(65.79 k, 1.374% Params, 6.29 MMac, 1.157% MACs, in_features=256, out_features=256, bias=True)
          (out_projection): Linear(65.79 k, 1.374% Params, 6.29 MMac, 1.157% MACs, in_features=256, out_features=256, bias=True)
        )
        (conv1): Conv1d(526.34 k, 10.994% Params, 50.53 MMac, 9.290% MACs, 256, 2048, kernel_size=(1,), stride=(1,))
        (conv2): Conv1d(524.54 k, 10.956% Params, 50.36 MMac, 9.259% MACs, 2048, 256, kernel_size=(1,), stride=(1,))
        (norm1): LayerNorm(0, 0.000% Params, 0.0 Mac, 0.000% MACs, (256,), eps=1e-05, elementwise_affine=True)
        (norm2): LayerNorm(0, 0.000% Params, 0.0 Mac, 0.000% MACs, (256,), eps=1e-05, elementwise_affine=True)
        (dropout): Dropout(0, 0.000% Params, 0.0 Mac, 0.000% MACs, p=0.05, inplace=False)
      )
    )
    (norm): LayerNorm(0, 0.000% Params, 0.0 Mac, 0.000% MACs, (256,), eps=1e-05, elementwise_affine=True)
  )
  (decoder): Decoder(
    1.66 M, 34.667% Params, 232.37 MMac, 42.724% MACs, 
    (layers): ModuleList(
      1.58 M, 32.944% Params, 220.53 MMac, 40.548% MACs, 
      (0): DecoderLayer(
        1.58 M, 32.944% Params, 220.53 MMac, 40.548% MACs, 
        (self_attention): AttentionLayer(
          263.17 k, 5.497% Params, 37.75 MMac, 6.941% MACs, 
          (inner_attention): FullAttention(
            0, 0.000% Params, 0.0 Mac, 0.000% MACs, 
            (dropout): Dropout(0, 0.000% Params, 0.0 Mac, 0.000% MACs, p=0.05, inplace=False)
          )
          (query_projection): Linear(65.79 k, 1.374% Params, 9.44 MMac, 1.735% MACs, in_features=256, out_features=256, bias=True)
          (key_projection): Linear(65.79 k, 1.374% Params, 9.44 MMac, 1.735% MACs, in_features=256, out_features=256, bias=True)
          (value_projection): Linear(65.79 k, 1.374% Params, 9.44 MMac, 1.735% MACs, in_features=256, out_features=256, bias=True)
          (out_projection): Linear(65.79 k, 1.374% Params, 9.44 MMac, 1.735% MACs, in_features=256, out_features=256, bias=True)
        )
        (cross_attention): AttentionLayer(
          263.17 k, 5.497% Params, 31.46 MMac, 5.784% MACs, 
          (inner_attention): FullAttention(
            0, 0.000% Params, 0.0 Mac, 0.000% MACs, 
            (dropout): Dropout(0, 0.000% Params, 0.0 Mac, 0.000% MACs, p=0.05, inplace=False)
          )
          (query_projection): Linear(65.79 k, 1.374% Params, 9.44 MMac, 1.735% MACs, in_features=256, out_features=256, bias=True)
          (key_projection): Linear(65.79 k, 1.374% Params, 6.29 MMac, 1.157% MACs, in_features=256, out_features=256, bias=True)
          (value_projection): Linear(65.79 k, 1.374% Params, 6.29 MMac, 1.157% MACs, in_features=256, out_features=256, bias=True)
          (out_projection): Linear(65.79 k, 1.374% Params, 9.44 MMac, 1.735% MACs, in_features=256, out_features=256, bias=True)
        )
        (conv1): Conv1d(526.34 k, 10.994% Params, 75.79 MMac, 13.935% MACs, 256, 2048, kernel_size=(1,), stride=(1,))
        (conv2): Conv1d(524.54 k, 10.956% Params, 75.53 MMac, 13.888% MACs, 2048, 256, kernel_size=(1,), stride=(1,))
        (norm1): LayerNorm(0, 0.000% Params, 0.0 Mac, 0.000% MACs, (256,), eps=1e-05, elementwise_affine=True)
        (norm2): LayerNorm(0, 0.000% Params, 0.0 Mac, 0.000% MACs, (256,), eps=1e-05, elementwise_affine=True)
        (norm3): LayerNorm(0, 0.000% Params, 0.0 Mac, 0.000% MACs, (256,), eps=1e-05, elementwise_affine=True)
        (dropout): Dropout(0, 0.000% Params, 0.0 Mac, 0.000% MACs, p=0.05, inplace=False)
      )
    )
    (norm): LayerNorm(0, 0.000% Params, 0.0 Mac, 0.000% MACs, (256,), eps=1e-05, elementwise_affine=True)
    (projection): Linear(82.5 k, 1.723% Params, 11.83 MMac, 2.176% MACs, in_features=256, out_features=321, bias=True)
  )
)
Computational complexity:       543.88 MMac
Number of parameters:           4.79 M  
