…
INFO: Trainable parameter count: 11.32M
INFO: Trainable parameter count: 11.32M
INFO: Trainable parameter count: 11.33M
INFO: Trainable parameter count: 11.33M
INFO: Trainable parameter count: 11.33M
INFO: Trainable parameter count: 11.33M
INFO: Trainable parameter count: 11.33M
INFO: Trainable parameter count: 11.33M
INFO: Trainable parameter count: 11.33M
Model(
  11.32 M, 99.919% Params, 1.09 GMac, 100.000% MACs, 
  (enc_embedding): DataEmbedding(
    14.34 k, 0.127% Params, 1.38 MMac, 0.126% MACs, 
    (value_embedding): TokenEmbedding(
      12.29 k, 0.108% Params, 1.18 MMac, 0.108% MACs, 
      (tokenConv): Conv1d(12.29 k, 0.108% Params, 1.18 MMac, 0.108% MACs, 8, 512, kernel_size=(3,), stride=(1,), padding=(1,), bias=False, padding_mode=circular)
    )
    (position_embedding): PositionalEmbedding(0, 0.000% Params, 0.0 Mac, 0.000% MACs, )
    (temporal_embedding): TimeFeatureEmbedding(
      2.05 k, 0.018% Params, 196.61 KMac, 0.018% MACs, 
      (embed): Linear(2.05 k, 0.018% Params, 196.61 KMac, 0.018% MACs, in_features=4, out_features=512, bias=False)
    )
    (dropout): Dropout(0, 0.000% Params, 0.0 Mac, 0.000% MACs, p=0.05, inplace=False)
  )
  (dec_embedding): DataEmbedding(
    14.34 k, 0.127% Params, 2.06 MMac, 0.189% MACs, 
    (value_embedding): TokenEmbedding(
      12.29 k, 0.108% Params, 1.77 MMac, 0.162% MACs, 
      (tokenConv): Conv1d(12.29 k, 0.108% Params, 1.77 MMac, 0.162% MACs, 8, 512, kernel_size=(3,), stride=(1,), padding=(1,), bias=False, padding_mode=circular)
    )
    (position_embedding): PositionalEmbedding(0, 0.000% Params, 0.0 Mac, 0.000% MACs, )
    (temporal_embedding): TimeFeatureEmbedding(
      2.05 k, 0.018% Params, 294.91 KMac, 0.027% MACs, 
      (embed): Linear(2.05 k, 0.018% Params, 294.91 KMac, 0.027% MACs, in_features=4, out_features=512, bias=False)
    )
    (dropout): Dropout(0, 0.000% Params, 0.0 Mac, 0.000% MACs, p=0.05, inplace=False)
  )
  (encoder): Encoder(
    7.09 M, 62.556% Params, 533.83 MMac, 48.867% MACs, 
    (attn_layers): ModuleList(
      6.3 M, 55.603% Params, 456.51 MMac, 41.789% MACs, 
      (0): EncoderLayer(
        3.15 M, 27.801% Params, 302.24 MMac, 27.667% MACs, 
        (attention): AttentionLayer(
          1.05 M, 9.272% Params, 100.67 MMac, 9.215% MACs, 
          (inner_attention): ProbAttention(
            0, 0.000% Params, 0.0 Mac, 0.000% MACs, 
            (dropout): Dropout(0, 0.000% Params, 0.0 Mac, 0.000% MACs, p=0.05, inplace=False)
          )
          (query_projection): Linear(262.66 k, 2.318% Params, 25.17 MMac, 2.304% MACs, in_features=512, out_features=512, bias=True)
          (key_projection): Linear(262.66 k, 2.318% Params, 25.17 MMac, 2.304% MACs, in_features=512, out_features=512, bias=True)
          (value_projection): Linear(262.66 k, 2.318% Params, 25.17 MMac, 2.304% MACs, in_features=512, out_features=512, bias=True)
          (out_projection): Linear(262.66 k, 2.318% Params, 25.17 MMac, 2.304% MACs, in_features=512, out_features=512, bias=True)
        )
        (conv1): Conv1d(1.05 M, 9.272% Params, 100.86 MMac, 9.233% MACs, 512, 2048, kernel_size=(1,), stride=(1,))
        (conv2): Conv1d(1.05 M, 9.258% Params, 100.71 MMac, 9.219% MACs, 2048, 512, kernel_size=(1,), stride=(1,))
        (norm1): LayerNorm(0, 0.000% Params, 0.0 Mac, 0.000% MACs, (512,), eps=1e-05, elementwise_affine=True)
        (norm2): LayerNorm(0, 0.000% Params, 0.0 Mac, 0.000% MACs, (512,), eps=1e-05, elementwise_affine=True)
        (dropout): Dropout(0, 0.000% Params, 0.0 Mac, 0.000% MACs, p=0.05, inplace=False)
      )
      (1): EncoderLayer(
        3.15 M, 27.801% Params, 154.27 MMac, 14.122% MACs, 
        (attention): AttentionLayer(
          1.05 M, 9.272% Params, 51.38 MMac, 4.704% MACs, 
          (inner_attention): ProbAttention(
            0, 0.000% Params, 0.0 Mac, 0.000% MACs, 
            (dropout): Dropout(0, 0.000% Params, 0.0 Mac, 0.000% MACs, p=0.05, inplace=False)
          )
          (query_projection): Linear(262.66 k, 2.318% Params, 12.85 MMac, 1.176% MACs, in_features=512, out_features=512, bias=True)
          (key_projection): Linear(262.66 k, 2.318% Params, 12.85 MMac, 1.176% MACs, in_features=512, out_features=512, bias=True)
          (value_projection): Linear(262.66 k, 2.318% Params, 12.85 MMac, 1.176% MACs, in_features=512, out_features=512, bias=True)
          (out_projection): Linear(262.66 k, 2.318% Params, 12.85 MMac, 1.176% MACs, in_features=512, out_features=512, bias=True)
        )
        (conv1): Conv1d(1.05 M, 9.272% Params, 51.48 MMac, 4.713% MACs, 512, 2048, kernel_size=(1,), stride=(1,))
        (conv2): Conv1d(1.05 M, 9.258% Params, 51.41 MMac, 4.706% MACs, 2048, 512, kernel_size=(1,), stride=(1,))
        (norm1): LayerNorm(0, 0.000% Params, 0.0 Mac, 0.000% MACs, (512,), eps=1e-05, elementwise_affine=True)
        (norm2): LayerNorm(0, 0.000% Params, 0.0 Mac, 0.000% MACs, (512,), eps=1e-05, elementwise_affine=True)
        (dropout): Dropout(0, 0.000% Params, 0.0 Mac, 0.000% MACs, p=0.05, inplace=False)
      )
    )
    (conv_layers): ModuleList(
      787.97 k, 6.954% Params, 77.32 MMac, 7.078% MACs, 
      (0): ConvLayer(
        787.97 k, 6.954% Params, 77.32 MMac, 7.078% MACs, 
        (downConv): Conv1d(786.94 k, 6.945% Params, 77.12 MMac, 7.060% MACs, 512, 512, kernel_size=(3,), stride=(1,), padding=(2,), padding_mode=circular)
        (norm): BatchNorm1d(1.02 k, 0.009% Params, 100.35 KMac, 0.009% MACs, 512, eps=1e-05, momentum=0.1, affine=True, track_running_stats=True)
        (activation): ELU(0, 0.000% Params, 50.18 KMac, 0.005% MACs, alpha=1.0)
        (maxPool): MaxPool1d(0, 0.000% Params, 50.18 KMac, 0.005% MACs, kernel_size=3, stride=2, padding=1, dilation=1, ceil_mode=False)
      )
    )
    (norm): LayerNorm(0, 0.000% Params, 0.0 Mac, 0.000% MACs, (512,), eps=1e-05, elementwise_affine=True)
  )
  (decoder): Decoder(
    4.21 M, 37.109% Params, 555.13 MMac, 50.818% MACs, 
    (layers): ModuleList(
      4.2 M, 37.073% Params, 554.55 MMac, 50.764% MACs, 
      (0): DecoderLayer(
        4.2 M, 37.073% Params, 554.55 MMac, 50.764% MACs, 
        (self_attention): AttentionLayer(
          1.05 M, 9.272% Params, 151.0 MMac, 13.822% MACs, 
          (inner_attention): ProbAttention(
            0, 0.000% Params, 0.0 Mac, 0.000% MACs, 
            (dropout): Dropout(0, 0.000% Params, 0.0 Mac, 0.000% MACs, p=0.05, inplace=False)
          )
          (query_projection): Linear(262.66 k, 2.318% Params, 37.75 MMac, 3.456% MACs, in_features=512, out_features=512, bias=True)
          (key_projection): Linear(262.66 k, 2.318% Params, 37.75 MMac, 3.456% MACs, in_features=512, out_features=512, bias=True)
          (value_projection): Linear(262.66 k, 2.318% Params, 37.75 MMac, 3.456% MACs, in_features=512, out_features=512, bias=True)
          (out_projection): Linear(262.66 k, 2.318% Params, 37.75 MMac, 3.456% MACs, in_features=512, out_features=512, bias=True)
        )
        (cross_attention): AttentionLayer(
          1.05 M, 9.272% Params, 101.19 MMac, 9.263% MACs, 
          (inner_attention): ProbAttention(
            0, 0.000% Params, 0.0 Mac, 0.000% MACs, 
            (dropout): Dropout(0, 0.000% Params, 0.0 Mac, 0.000% MACs, p=0.05, inplace=False)
          )
          (query_projection): Linear(262.66 k, 2.318% Params, 37.75 MMac, 3.456% MACs, in_features=512, out_features=512, bias=True)
          (key_projection): Linear(262.66 k, 2.318% Params, 12.85 MMac, 1.176% MACs, in_features=512, out_features=512, bias=True)
          (value_projection): Linear(262.66 k, 2.318% Params, 12.85 MMac, 1.176% MACs, in_features=512, out_features=512, bias=True)
          (out_projection): Linear(262.66 k, 2.318% Params, 37.75 MMac, 3.456% MACs, in_features=512, out_features=512, bias=True)
        )
        (conv1): Conv1d(1.05 M, 9.272% Params, 151.29 MMac, 13.849% MACs, 512, 2048, kernel_size=(1,), stride=(1,))
        (conv2): Conv1d(1.05 M, 9.258% Params, 151.07 MMac, 13.829% MACs, 2048, 512, kernel_size=(1,), stride=(1,))
        (norm1): LayerNorm(0, 0.000% Params, 0.0 Mac, 0.000% MACs, (512,), eps=1e-05, elementwise_affine=True)
        (norm2): LayerNorm(0, 0.000% Params, 0.0 Mac, 0.000% MACs, (512,), eps=1e-05, elementwise_affine=True)
        (norm3): LayerNorm(0, 0.000% Params, 0.0 Mac, 0.000% MACs, (512,), eps=1e-05, elementwise_affine=True)
        (dropout): Dropout(0, 0.000% Params, 0.0 Mac, 0.000% MACs, p=0.05, inplace=False)
      )
    )
    (norm): LayerNorm(0, 0.000% Params, 0.0 Mac, 0.000% MACs, (512,), eps=1e-05, elementwise_affine=True)
    (projection): Linear(4.1 k, 0.036% Params, 589.83 KMac, 0.054% MACs, in_features=512, out_features=8, bias=True)
  )
)
Computational complexity:       1.09 GMac
Number of parameters:           11.33 M 
